…
---------------------------------------------------------
colocating with milc
crf
********* Setting up benchmark crf
********* Running benchmark as ./crf_tag
442.39user 1.44system 10:46.37elapsed 68%CPU (0avgtext+0avgdata 387520maxresident)k
0inputs+8outputs (0major+28830minor)pagefaults 0swaps
---------------------------------------------------------
colocating with milc
img-imc
********* Setting up benchmark img
********* Running benchmark as ./tonic-img-imc
WARNING: Logging before InitGoogleLogging() is written to STDERR
I0805 10:05:40.988320 10241 net.cpp:39] Initializing net from parameters: 
name: "imc"
layers {
  bottom: "data"
  top: "conv1"
  name: "conv1"
  type: CONVOLUTION
  convolution_param {
    num_output: 96
    kernel_size: 11
    stride: 4
  }
}
layers {
  bottom: "conv1"
  top: "conv1"
  name: "relu1"
  type: RELU
}
layers {
  bottom: "conv1"
  top: "pool1"
  name: "pool1"
  type: POOLING
  pooling_param {
    pool: MAX
    kernel_size: 3
    stride: 2
  }
}
layers {
  bottom: "pool1"
  top: "norm1"
  name: "norm1"
  type: LRN
  lrn_param {
    local_size: 5
    alpha: 0.0001
    beta: 0.75
  }
}
layers {
  bottom: "norm1"
  top: "conv2"
  name: "conv2"
  type: CONVOLUTION
  convolution_param {
    num_output: 256
    pad: 2
    kernel_size: 5
    group: 2
  }
}
layers {
  bottom: "conv2"
  top: "conv2"
  name: "relu2"
  type: RELU
}
layers {
  bottom: "conv2"
  top: "pool2"
  name: "pool2"
  type: POOLING
  pooling_param {
    pool: MAX
    kernel_size: 3
    stride: 2
  }
}
layers {
  bottom: "pool2"
  top: "norm2"
  name: "norm2"
  type: LRN
  lrn_param {
    local_size: 5
    alpha: 0.0001
    beta: 0.75
  }
}
layers {
  bottom: "norm2"
  top: "conv3"
  name: "conv3"
  type: CONVOLUTION
  convolution_param {
    num_output: 384
    pad: 1
    kernel_size: 3
  }
}
layers {
  bottom: "conv3"
  top: "conv3"
  name: "relu3"
  type: RELU
}
layers {
  bottom: "conv3"
  top: "conv4"
  name: "conv4"
  type: CONVOLUTION
  convolution_param {
    num_output: 384
    pad: 1
    kernel_size: 3
    group: 2
  }
}
layers {
  bottom: "conv4"
  top: "conv4"
  name: "relu4"
  type: RELU
}
layers {
  bottom: "conv4"
  top: "conv5"
  name: "conv5"
  type: CONVOLUTION
  convolution_param {
    num_output: 256
    pad: 1
    kernel_size: 3
    group: 2
  }
}
layers {
  bottom: "conv5"
  top: "conv5"
  name: "relu5"
  type: RELU
}
layers {
  bottom: "conv5"
  top: "pool5"
  name: "pool5"
  type: POOLING
  pooling_param {
    pool: MAX
    kernel_size: 3
    stride: 2
  }
}
layers {
  bottom: "pool5"
  top: "fc6"
  name: "fc6"
  type: INNER_PRODUCT
  inner_product_param {
    num_output: 4096
  }
}
layers {
  bottom: "fc6"
  top: "fc6"
  name: "relu6"
  type: RELU
}
layers {
  bottom: "fc6"
  top: "fc6"
  name: "drop6"
  type: DROPOUT
  dropout_param {
    dropout_ratio: 0.5
  }
}
layers {
  bottom: "fc6"
  top: "fc7"
  name: "fc7"
  type: INNER_PRODUCT
  inner_product_param {
    num_output: 4096
  }
}
layers {
  bottom: "fc7"
  top: "fc7"
  name: "relu7"
  type: RELU
}
layers {
  bottom: "fc7"
  top: "fc7"
  name: "drop7"
  type: DROPOUT
  dropout_param {
    dropout_ratio: 0.5
  }
}
layers {
  bottom: "fc7"
  top: "fc8"
  name: "fc8"
  type: INNER_PRODUCT
  inner_product_param {
    num_output: 1000
  }
}
layers {
  bottom: "fc8"
  top: "prob"
  name: "prob"
  type: SOFTMAX
}
layers {
  bottom: "prob"
  top: "argmax"
  name: "argmax"
  type: ARGMAX
}
input: "data"
input_dim: 1
input_dim: 3
input_dim: 227
input_dim: 227
I0805 10:05:40.989950 10241 net.cpp:358] Input 0 -> data
I0805 10:05:40.991436 10241 net.cpp:67] Creating Layer conv1
I0805 10:05:40.991550 10241 net.cpp:394] conv1 <- data
I0805 10:05:40.991648 10241 net.cpp:356] conv1 -> conv1
I0805 10:05:40.991758 10241 net.cpp:96] Setting up conv1
I0805 10:05:40.994778 10241 net.cpp:103] Top shape: 1 96 55 55 (290400)
I0805 10:05:40.995707 10241 net.cpp:67] Creating Layer relu1
I0805 10:05:40.995790 10241 net.cpp:394] relu1 <- conv1
I0805 10:05:40.995831 10241 net.cpp:345] relu1 -> conv1 (in-place)
I0805 10:05:40.995882 10241 net.cpp:96] Setting up relu1
I0805 10:05:40.995964 10241 net.cpp:103] Top shape: 1 96 55 55 (290400)
I0805 10:05:40.996017 10241 net.cpp:67] Creating Layer pool1
I0805 10:05:40.996050 10241 net.cpp:394] pool1 <- conv1
I0805 10:05:40.996093 10241 net.cpp:356] pool1 -> pool1
I0805 10:05:40.996157 10241 net.cpp:96] Setting up pool1
I0805 10:05:40.997344 10241 net.cpp:103] Top shape: 1 96 27 27 (69984)
I0805 10:05:40.997458 10241 net.cpp:67] Creating Layer norm1
I0805 10:05:40.997493 10241 net.cpp:394] norm1 <- pool1
I0805 10:05:40.997537 10241 net.cpp:356] norm1 -> norm1
I0805 10:05:40.997616 10241 net.cpp:96] Setting up norm1
I0805 10:05:40.997668 10241 net.cpp:103] Top shape: 1 96 27 27 (69984)
I0805 10:05:40.997730 10241 net.cpp:67] Creating Layer conv2
I0805 10:05:40.997771 10241 net.cpp:394] conv2 <- norm1
I0805 10:05:40.997823 10241 net.cpp:356] conv2 -> conv2
I0805 10:05:40.997869 10241 net.cpp:96] Setting up conv2
I0805 10:05:40.998805 10241 net.cpp:103] Top shape: 1 256 27 27 (186624)
I0805 10:05:40.999261 10241 net.cpp:67] Creating Layer relu2
I0805 10:05:40.999320 10241 net.cpp:394] relu2 <- conv2
I0805 10:05:40.999374 10241 net.cpp:345] relu2 -> conv2 (in-place)
I0805 10:05:40.999686 10241 net.cpp:96] Setting up relu2
I0805 10:05:40.999737 10241 net.cpp:103] Top shape: 1 256 27 27 (186624)
I0805 10:05:40.999805 10241 net.cpp:67] Creating Layer pool2
I0805 10:05:40.999855 10241 net.cpp:394] pool2 <- conv2
I0805 10:05:40.999908 10241 net.cpp:356] pool2 -> pool2
I0805 10:05:40.999963 10241 net.cpp:96] Setting up pool2
I0805 10:05:41.000025 10241 net.cpp:103] Top shape: 1 256 13 13 (43264)
I0805 10:05:41.000080 10241 net.cpp:67] Creating Layer norm2
I0805 10:05:41.000130 10241 net.cpp:394] norm2 <- pool2
I0805 10:05:41.000174 10241 net.cpp:356] norm2 -> norm2
I0805 10:05:41.001191 10241 net.cpp:96] Setting up norm2
I0805 10:05:41.001302 10241 net.cpp:103] Top shape: 1 256 13 13 (43264)
I0805 10:05:41.001385 10241 net.cpp:67] Creating Layer conv3
I0805 10:05:41.001427 10241 net.cpp:394] conv3 <- norm2
I0805 10:05:41.001484 10241 net.cpp:356] conv3 -> conv3
I0805 10:05:41.001529 10241 net.cpp:96] Setting up conv3
I0805 10:05:41.005076 10241 net.cpp:103] Top shape: 1 384 13 13 (64896)
I0805 10:05:41.007846 10241 net.cpp:67] Creating Layer relu3
I0805 10:05:41.014350 10241 net.cpp:394] relu3 <- conv3
I0805 10:05:41.014547 10241 net.cpp:345] relu3 -> conv3 (in-place)
I0805 10:05:41.014631 10241 net.cpp:96] Setting up relu3
I0805 10:05:41.014678 10241 net.cpp:103] Top shape: 1 384 13 13 (64896)
I0805 10:05:41.014727 10241 net.cpp:67] Creating Layer conv4
I0805 10:05:41.014773 10241 net.cpp:394] conv4 <- conv3
I0805 10:05:41.014824 10241 net.cpp:356] conv4 -> conv4
I0805 10:05:41.014895 10241 net.cpp:96] Setting up conv4
I0805 10:05:41.017880 10241 net.cpp:103] Top shape: 1 384 13 13 (64896)
I0805 10:05:41.020809 10241 net.cpp:67] Creating Layer relu4
I0805 10:05:41.020944 10241 net.cpp:394] relu4 <- conv4
I0805 10:05:41.021028 10241 net.cpp:345] relu4 -> conv4 (in-place)
I0805 10:05:41.021090 10241 net.cpp:96] Setting up relu4
I0805 10:05:41.021145 10241 net.cpp:103] Top shape: 1 384 13 13 (64896)
I0805 10:05:41.021190 10241 net.cpp:67] Creating Layer conv5
I0805 10:05:41.021240 10241 net.cpp:394] conv5 <- conv4
I0805 10:05:41.021289 10241 net.cpp:356] conv5 -> conv5
I0805 10:05:41.021354 10241 net.cpp:96] Setting up conv5
I0805 10:05:41.022861 10241 net.cpp:103] Top shape: 1 256 13 13 (43264)
I0805 10:05:41.023074 10241 net.cpp:67] Creating Layer relu5
I0805 10:05:41.027709 10241 net.cpp:394] relu5 <- conv5
I0805 10:05:41.028007 10241 net.cpp:345] relu5 -> conv5 (in-place)
I0805 10:05:41.028085 10241 net.cpp:96] Setting up relu5
I0805 10:05:41.028173 10241 net.cpp:103] Top shape: 1 256 13 13 (43264)
I0805 10:05:41.028224 10241 net.cpp:67] Creating Layer pool5
I0805 10:05:41.028275 10241 net.cpp:394] pool5 <- conv5
I0805 10:05:41.028323 10241 net.cpp:356] pool5 -> pool5
I0805 10:05:41.028383 10241 net.cpp:96] Setting up pool5
I0805 10:05:41.028435 10241 net.cpp:103] Top shape: 1 256 6 6 (9216)
I0805 10:05:41.028493 10241 net.cpp:67] Creating Layer fc6
I0805 10:05:41.028532 10241 net.cpp:394] fc6 <- pool5
I0805 10:05:41.028587 10241 net.cpp:356] fc6 -> fc6
I0805 10:05:41.028656 10241 net.cpp:96] Setting up fc6
I0805 10:05:41.428593 10241 net.cpp:103] Top shape: 1 4096 1 1 (4096)
I0805 10:05:41.431264 10241 net.cpp:67] Creating Layer relu6
I0805 10:05:41.431473 10241 net.cpp:394] relu6 <- fc6
I0805 10:05:41.431579 10241 net.cpp:345] relu6 -> fc6 (in-place)
I0805 10:05:41.431704 10241 net.cpp:96] Setting up relu6
I0805 10:05:41.431746 10241 net.cpp:103] Top shape: 1 4096 1 1 (4096)
I0805 10:05:41.431815 10241 net.cpp:67] Creating Layer drop6
I0805 10:05:41.431859 10241 net.cpp:394] drop6 <- fc6
I0805 10:05:41.431910 10241 net.cpp:345] drop6 -> fc6 (in-place)
I0805 10:05:41.431983 10241 net.cpp:96] Setting up drop6
I0805 10:05:41.432054 10241 net.cpp:103] Top shape: 1 4096 1 1 (4096)
I0805 10:05:41.432101 10241 net.cpp:67] Creating Layer fc7
I0805 10:05:41.432150 10241 net.cpp:394] fc7 <- fc6
I0805 10:05:41.432278 10241 net.cpp:356] fc7 -> fc7
I0805 10:05:41.432343 10241 net.cpp:96] Setting up fc7
I0805 10:05:41.694665 10241 net.cpp:103] Top shape: 1 4096 1 1 (4096)
I0805 10:05:41.696084 10241 net.cpp:67] Creating Layer relu7
I0805 10:05:41.696147 10241 net.cpp:394] relu7 <- fc7
I0805 10:05:41.696192 10241 net.cpp:345] relu7 -> fc7 (in-place)
I0805 10:05:41.697381 10241 net.cpp:96] Setting up relu7
I0805 10:05:41.697446 10241 net.cpp:103] Top shape: 1 4096 1 1 (4096)
I0805 10:05:41.697513 10241 net.cpp:67] Creating Layer drop7
I0805 10:05:41.697554 10241 net.cpp:394] drop7 <- fc7
I0805 10:05:41.697621 10241 net.cpp:345] drop7 -> fc7 (in-place)
I0805 10:05:41.697670 10241 net.cpp:96] Setting up drop7
I0805 10:05:41.697721 10241 net.cpp:103] Top shape: 1 4096 1 1 (4096)
I0805 10:05:41.697772 10241 net.cpp:67] Creating Layer fc8
I0805 10:05:41.697819 10241 net.cpp:394] fc8 <- fc7
I0805 10:05:41.697875 10241 net.cpp:356] fc8 -> fc8
I0805 10:05:41.697938 10241 net.cpp:96] Setting up fc8
I0805 10:05:41.741020 10241 net.cpp:103] Top shape: 1 1000 1 1 (1000)
I0805 10:05:41.742172 10241 net.cpp:67] Creating Layer prob
I0805 10:05:41.742240 10241 net.cpp:394] prob <- fc8
I0805 10:05:41.742292 10241 net.cpp:356] prob -> prob
I0805 10:05:41.742378 10241 net.cpp:96] Setting up prob
I0805 10:05:41.742450 10241 net.cpp:103] Top shape: 1 1000 1 1 (1000)
I0805 10:05:41.742522 10241 net.cpp:67] Creating Layer argmax
I0805 10:05:41.742565 10241 net.cpp:394] argmax <- prob
I0805 10:05:41.742635 10241 net.cpp:356] argmax -> argmax
I0805 10:05:41.742683 10241 net.cpp:96] Setting up argmax
I0805 10:05:41.743242 10241 net.cpp:103] Top shape: 1 1 1 1 (1)
I0805 10:05:41.743304 10241 net.cpp:172] argmax does not need backward computation.
I0805 10:05:41.743357 10241 net.cpp:172] prob does not need backward computation.
I0805 10:05:41.743419 10241 net.cpp:172] fc8 does not need backward computation.
I0805 10:05:41.743469 10241 net.cpp:172] drop7 does not need backward computation.
I0805 10:05:41.743516 10241 net.cpp:172] relu7 does not need backward computation.
…
I0805 10:37:43.183621 19923 img-client.cpp:222] Image: input/imc/cat-281-227.jpg class: 281
I0805 10:37:43.183676 19923 img-client.cpp:222] Image: input/imc/tp-999-227.jpg class: 999
432.83user 2.03system 10:32.95elapsed 68%CPU (0avgtext+0avgdata 2216496maxresident)k
0inputs+8outputs (0major+217373minor)pagefaults 0swaps
---------------------------------------------------------
colocating with milc
img-dig
********* Setting up benchmark img
********* Running benchmark as ./tonic-img-dig
WARNING: Logging before InitGoogleLogging() is written to STDERR
I0805 10:37:54.116310  8720 net.cpp:39] Initializing net from parameters: 
name: "dig"
layers {
  bottom: "data"
  top: "conv1"
  name: "conv1"
  type: CONVOLUTION
  convolution_param {
    num_output: 20
    kernel_size: 5
    stride: 1
    weight_filler {
      type: "xavier"
    }
    bias_filler {
      type: "constant"
    }
  }
}
layers {
  bottom: "conv1"
  top: "pool1"
  name: "pool1"
  type: POOLING
  pooling_param {
    pool: MAX
    kernel_size: 2
    stride: 2
  }
}
layers {
  bottom: "pool1"
  top: "conv2"
  name: "conv2"
  type: CONVOLUTION
  convolution_param {
    num_output: 50
    kernel_size: 5
    stride: 1
    weight_filler {
      type: "xavier"
    }
    bias_filler {
      type: "constant"
    }
  }
}
layers {
  bottom: "conv2"
  top: "pool2"
  name: "pool2"
  type: POOLING
  pooling_param {
    pool: MAX
    kernel_size: 2
    stride: 2
  }
}
layers {
  bottom: "pool2"
  top: "ip1"
  name: "ip1"
  type: INNER_PRODUCT
  inner_product_param {
    num_output: 500
    weight_filler {
      type: "xavier"
    }
    bias_filler {
      type: "constant"
    }
  }
}
layers {
  bottom: "ip1"
  top: "ip1"
  name: "relu1"
  type: RELU
}
layers {
  bottom: "ip1"
  top: "ip2"
  name: "ip2"
  type: INNER_PRODUCT
  inner_product_param {
    num_output: 10
    weight_filler {
      type: "xavier"
    }
    bias_filler {
      type: "constant"
    }
  }
}
layers {
  bottom: "ip2"
  top: "prob"
  name: "prob"
  type: SOFTMAX
}
layers {
  bottom: "prob"
  top: "argmax"
  name: "argmax"
  type: ARGMAX
}
input: "data"
input_dim: 1
input_dim: 1
input_dim: 28
input_dim: 28
I0805 10:37:54.116893  8720 net.cpp:358] Input 0 -> data
I0805 10:37:54.117079  8720 net.cpp:67] Creating Layer conv1
I0805 10:37:54.117156  8720 net.cpp:394] conv1 <- data
I0805 10:37:54.117210  8720 net.cpp:356] conv1 -> conv1
I0805 10:37:54.117292  8720 net.cpp:96] Setting up conv1
I0805 10:37:54.117869  8720 net.cpp:103] Top shape: 1 20 24 24 (11520)
I0805 10:37:54.118769  8720 net.cpp:67] Creating Layer pool1
I0805 10:37:54.118827  8720 net.cpp:394] pool1 <- conv1
I0805 10:37:54.118871  8720 net.cpp:356] pool1 -> pool1
I0805 10:37:54.118937  8720 net.cpp:96] Setting up pool1
I0805 10:37:54.119042  8720 net.cpp:103] Top shape: 1 20 12 12 (2880)
I0805 10:37:54.119097  8720 net.cpp:67] Creating Layer conv2
I0805 10:37:54.119137  8720 net.cpp:394] conv2 <- pool1
I0805 10:37:54.119361  8720 net.cpp:356] conv2 -> conv2
I0805 10:37:54.119412  8720 net.cpp:96] Setting up conv2
I0805 10:37:54.119803  8720 net.cpp:103] Top shape: 1 50 8 8 (3200)
I0805 10:37:54.120030  8720 net.cpp:67] Creating Layer pool2
I0805 10:37:54.121351  8720 net.cpp:394] pool2 <- conv2
I0805 10:37:54.121431  8720 net.cpp:356] pool2 -> pool2
I0805 10:37:54.121485  8720 net.cpp:96] Setting up pool2
I0805 10:37:54.121542  8720 net.cpp:103] Top shape: 1 50 4 4 (800)
I0805 10:37:54.121592  8720 net.cpp:67] Creating Layer ip1
I0805 10:37:54.121640  8720 net.cpp:394] ip1 <- pool2
I0805 10:37:54.121682  8720 net.cpp:356] ip1 -> ip1
I0805 10:37:54.121744  8720 net.cpp:96] Setting up ip1
I0805 10:37:54.131978  8720 net.cpp:103] Top shape: 1 500 1 1 (500)
I0805 10:37:54.132165  8720 net.cpp:67] Creating Layer relu1
I0805 10:37:54.133203  8720 net.cpp:394] relu1 <- ip1
I0805 10:37:54.133278  8720 net.cpp:345] relu1 -> ip1 (in-place)
I0805 10:37:54.133361  8720 net.cpp:96] Setting up relu1
I0805 10:37:54.133419  8720 net.cpp:103] Top shape: 1 500 1 1 (500)
I0805 10:37:54.133466  8720 net.cpp:67] Creating Layer ip2
I0805 10:37:54.133513  8720 net.cpp:394] ip2 <- ip1
I0805 10:37:54.133561  8720 net.cpp:356] ip2 -> ip2
I0805 10:37:54.133607  8720 net.cpp:96] Setting up ip2
I0805 10:37:54.133745  8720 net.cpp:103] Top shape: 1 10 1 1 (10)
I0805 10:37:54.133815  8720 net.cpp:67] Creating Layer prob
I0805 10:37:54.133853  8720 net.cpp:394] prob <- ip2
I0805 10:37:54.133904  8720 net.cpp:356] prob -> prob
I0805 10:37:54.133949  8720 net.cpp:96] Setting up prob
I0805 10:37:54.134002  8720 net.cpp:103] Top shape: 1 10 1 1 (10)
I0805 10:37:54.134047  8720 net.cpp:67] Creating Layer argmax
I0805 10:37:54.134095  8720 net.cpp:394] argmax <- prob
I0805 10:37:54.134138  8720 net.cpp:356] argmax -> argmax
I0805 10:37:54.134191  8720 net.cpp:96] Setting up argmax
I0805 10:37:54.134239  8720 net.cpp:103] Top shape: 1 1 1 1 (1)
I0805 10:37:54.134287  8720 net.cpp:172] argmax does not need backward computation.
I0805 10:37:54.134346  8720 net.cpp:172] prob does not need backward computation.
I0805 10:37:54.134392  8720 net.cpp:172] ip2 does not need backward computation.
I0805 10:37:54.134428  8720 net.cpp:172] relu1 does not need backward computation.
I0805 10:37:54.134474  8720 net.cpp:172] ip1 does not need backward computation.
…
I0805 11:15:23.229595 16445 img-client.cpp:222] Image: input/dig/8.png class: 8
I0805 11:15:23.229658 16445 img-client.cpp:222] Image: input/dig/9.png class: 9
508.62user 1.67system 12:20.66elapsed 68%CPU (0avgtext+0avgdata 177728maxresident)k
0inputs+8outputs (0major+11941minor)pagefaults 0swaps
---------------------------------------------------------
colocating with milc
img-face
********* Setting up benchmark img
********* Running benchmark as ./tonic-img-face
WARNING: Logging before InitGoogleLogging() is written to STDERR
I0805 11:15:34.157757 19712 net.cpp:39] Initializing net from parameters: 
name: "face"
layers {
  bottom: "data"
  top: "conv1"
  name: "conv1"
  type: CONVOLUTION
  convolution_param {
    num_output: 32
    kernel_size: 11
    stride: 1
  }
}
layers {
  bottom: "conv1"
  top: "pool2"
  name: "pool2"
  type: POOLING
  pooling_param {
    pool: MAX
    kernel_size: 3
    stride: 2
  }
}
layers {
  bottom: "pool2"
  top: "conv3"
  name: "conv3"
  type: CONVOLUTION
  convolution_param {
    num_output: 16
    kernel_size: 9
    stride: 1
  }
}
layers {
  bottom: "conv3"
  top: "local4"
  name: "local4"
  type: LOCAL
  local_param {
    num_output: 16
    kernel_size: 9
    stride: 1
  }
}
layers {
  bottom: "local4"
  top: "local5"
  name: "local5"
  type: LOCAL
  local_param {
    num_output: 16
    kernel_size: 7
    stride: 2
  }
}
layers {
  bottom: "local5"
  top: "local6"
  name: "local6"
  type: LOCAL
  local_param {
    num_output: 16
    kernel_size: 5
    stride: 1
  }
}
layers {
  bottom: "local6"
  top: "fc7"
  name: "fc7"
  type: INNER_PRODUCT
  inner_product_param {
    num_output: 4096
  }
}
layers {
  bottom: "fc7"
  top: "fc8"
  name: "fc8"
  type: INNER_PRODUCT
  inner_product_param {
    num_output: 83
  }
}
layers {
  bottom: "fc8"
  top: "prob"
  name: "prob"
  type: SOFTMAX
}
layers {
  bottom: "prob"
  top: "argmax"
  name: "argmax"
  type: ARGMAX
}
input: "data"
input_dim: 1
input_dim: 3
input_dim: 152
input_dim: 152
I0805 11:15:34.158370 19712 net.cpp:358] Input 0 -> data
I0805 11:15:34.158582 19712 net.cpp:67] Creating Layer conv1
I0805 11:15:34.158644 19712 net.cpp:394] conv1 <- data
I0805 11:15:34.158692 19712 net.cpp:356] conv1 -> conv1
I0805 11:15:34.158784 19712 net.cpp:96] Setting up conv1
I0805 11:15:34.159164 19712 net.cpp:103] Top shape: 1 32 142 142 (645248)
I0805 11:15:34.161532 19712 net.cpp:67] Creating Layer pool2
I0805 11:15:34.161649 19712 net.cpp:394] pool2 <- conv1
I0805 11:15:34.161691 19712 net.cpp:356] pool2 -> pool2
I0805 11:15:34.161773 19712 net.cpp:96] Setting up pool2
I0805 11:15:34.161885 19712 net.cpp:103] Top shape: 1 32 71 71 (161312)
I0805 11:15:34.161939 19712 net.cpp:67] Creating Layer conv3
I0805 11:15:34.161979 19712 net.cpp:394] conv3 <- pool2
I0805 11:15:34.162034 19712 net.cpp:356] conv3 -> conv3
I0805 11:15:34.162080 19712 net.cpp:96] Setting up conv3
I0805 11:15:34.162305 19712 net.cpp:103] Top shape: 1 16 63 63 (63504)
I0805 11:15:34.162374 19712 net.cpp:67] Creating Layer local4
I0805 11:15:34.162413 19712 net.cpp:394] local4 <- conv3
I0805 11:15:34.162467 19712 net.cpp:356] local4 -> local4
I0805 11:15:34.162530 19712 net.cpp:96] Setting up local4
I0805 11:15:34.782310 19712 net.cpp:103] Top shape: 1 16 55 55 (48400)
I0805 11:15:34.783051 19712 net.cpp:67] Creating Layer local5
I0805 11:15:34.783128 19712 net.cpp:394] local5 <- local4
I0805 11:15:34.783196 19712 net.cpp:356] local5 -> local5
I0805 11:15:34.783253 19712 net.cpp:96] Setting up local5
I0805 11:15:34.860947 19712 net.cpp:103] Top shape: 1 16 25 25 (10000)
I0805 11:15:34.861212 19712 net.cpp:67] Creating Layer local6
I0805 11:15:34.861304 19712 net.cpp:394] local6 <- local5
I0805 11:15:34.861367 19712 net.cpp:356] local6 -> local6
I0805 11:15:34.861430 19712 net.cpp:96] Setting up local6
I0805 11:15:34.881062 19712 net.cpp:103] Top shape: 1 16 21 21 (7056)
I0805 11:15:34.882982 19712 net.cpp:67] Creating Layer fc7
I0805 11:15:34.883785 19712 net.cpp:394] fc7 <- local6
I0805 11:15:34.883878 19712 net.cpp:356] fc7 -> fc7
I0805 11:15:34.883960 19712 net.cpp:96] Setting up fc7
I0805 11:15:35.189185 19712 net.cpp:103] Top shape: 1 4096 1 1 (4096)
I0805 11:15:35.189759 19712 net.cpp:67] Creating Layer fc8
I0805 11:15:35.189823 19712 net.cpp:394] fc8 <- fc7
I0805 11:15:35.189898 19712 net.cpp:356] fc8 -> fc8
I0805 11:15:35.190088 19712 net.cpp:96] Setting up fc8
I0805 11:15:35.191567 19712 net.cpp:103] Top shape: 1 83 1 1 (83)
I0805 11:15:35.191828 19712 net.cpp:67] Creating Layer prob
I0805 11:15:35.191874 19712 net.cpp:394] prob <- fc8
I0805 11:15:35.191951 19712 net.cpp:356] prob -> prob
I0805 11:15:35.192013 19712 net.cpp:96] Setting up prob
I0805 11:15:35.192097 19712 net.cpp:103] Top shape: 1 83 1 1 (83)
I0805 11:15:35.192143 19712 net.cpp:67] Creating Layer argmax
I0805 11:15:35.192198 19712 net.cpp:394] argmax <- prob
I0805 11:15:35.192266 19712 net.cpp:356] argmax -> argmax
I0805 11:15:35.192333 19712 net.cpp:96] Setting up argmax
I0805 11:15:35.192554 19712 net.cpp:103] Top shape: 1 1 1 1 (1)
I0805 11:15:35.192600 19712 net.cpp:172] argmax does not need backward computation.
I0805 11:15:35.192675 19712 net.cpp:172] prob does not need backward computation.
I0805 11:15:35.192734 19712 net.cpp:172] fc8 does not need backward computation.
I0805 11:15:35.192786 19712 net.cpp:172] fc7 does not need backward computation.
I0805 11:15:35.192837 19712 net.cpp:172] local6 does not need backward computation.
…
I0805 11:45:07.165025 15364 img-client.cpp:222] Image: input/face/angelina-jolie-03-152.jpg class: 0
I0805 11:45:07.165081 15364 img-client.cpp:222] Image: input/face/daniel-craig-20-152.jpg class: 0
395.64user 2.92system 9:39.52elapsed 68%CPU (0avgtext+0avgdata 3593408maxresident)k
0inputs+8outputs (0major+342261minor)pagefaults 0swaps
---------------------------------------------------------
colocating with milc
nlp-pos
********* Setting up benchmark nlp
********* Running benchmark as ./tonic-nlp-pos
WARNING: Logging before InitGoogleLogging() is written to STDERR
I0805 11:45:18.698287 29566 net.cpp:39] Initializing net from parameters: 
name: "pos"
layers {
  bottom: "data"
  top: "fc1"
  name: "fc1"
  type: INNER_PRODUCT
  inner_product_param {
    num_output: 300
  }
}
layers {
  bottom: "fc1"
  top: "htanh"
  name: "htanh"
  type: HTANH
}
layers {
  bottom: "htanh"
  top: "fc3"
  name: "fc3"
  type: INNER_PRODUCT
  inner_product_param {
    num_output: 45
  }
}
input: "data"
input_dim: 1
input_dim: 300
input_dim: 1
input_dim: 1
I0805 11:45:18.698695 29566 net.cpp:358] Input 0 -> data
I0805 11:45:18.698837 29566 net.cpp:67] Creating Layer fc1
I0805 11:45:18.698894 29566 net.cpp:394] fc1 <- data
I0805 11:45:18.698956 29566 net.cpp:356] fc1 -> fc1
I0805 11:45:18.699045 29566 net.cpp:96] Setting up fc1
I0805 11:45:18.704046 29566 net.cpp:103] Top shape: 1 300 1 1 (300)
I0805 11:45:18.704270 29566 net.cpp:67] Creating Layer htanh
I0805 11:45:18.704323 29566 net.cpp:394] htanh <- fc1
I0805 11:45:18.704367 29566 net.cpp:356] htanh -> htanh
I0805 11:45:18.704430 29566 net.cpp:96] Setting up htanh
I0805 11:45:18.704499 29566 net.cpp:103] Top shape: 1 300 1 1 (300)
I0805 11:45:18.704548 29566 net.cpp:67] Creating Layer fc3
I0805 11:45:18.704597 29566 net.cpp:394] fc3 <- htanh
I0805 11:45:18.704648 29566 net.cpp:356] fc3 -> fc3
I0805 11:45:18.704710 29566 net.cpp:96] Setting up fc3
I0805 11:45:18.704818 29566 net.cpp:103] Top shape: 1 45 1 1 (45)
I0805 11:45:18.704874 29566 net.cpp:172] fc3 does not need backward computation.
I0805 11:45:18.704938 29566 net.cpp:172] htanh does not need backward computation.
I0805 11:45:18.704987 29566 net.cpp:172] fc1 does not need backward computation.
I0805 11:45:18.705024 29566 net.cpp:208] This network produces output fc3
I0805 11:45:18.705088 29566 net.cpp:467] Collecting Learning Rate and Weight Decay.
I0805 11:45:18.705145 29566 net.cpp:219] Network initialization done.
I0805 11:45:18.705183 29566 net.cpp:220] Memory required for data: 2580
I0805 11:45:18.711580 29566 tonic.cpp:31] Reshaping input to dims: 28 300 1 1
I0805 11:45:18.718507 29566 tonic.cpp:37] Reshaping output to dims: 28 45 1 1
Command terminated by signal 9
104.90user 10.95system 2:46.63elapsed 69%CPU (0avgtext+0avgdata 15460256maxresident)k
212376inputs+0outputs (210major+1216329minor)pagefaults 0swaps
---------------------------------------------------------
colocating with milc
nlp-pos
********* Setting up benchmark nlp
********* Running benchmark as ./tonic-nlp-pos
WARNING: Logging before InitGoogleLogging() is written to STDERR
I0805 11:48:15.620544 17301 net.cpp:39] Initializing net from parameters: 
name: "pos"
layers {
  bottom: "data"
  top: "fc1"
  name: "fc1"
  type: INNER_PRODUCT
  inner_product_param {
    num_output: 300
  }
}
layers {
  bottom: "fc1"
  top: "htanh"
  name: "htanh"
  type: HTANH
}
layers {
  bottom: "htanh"
  top: "fc3"
  name: "fc3"
  type: INNER_PRODUCT
  inner_product_param {
    num_output: 45
  }
}
input: "data"
input_dim: 1
input_dim: 300
input_dim: 1
input_dim: 1
I0805 11:48:15.622362 17301 net.cpp:358] Input 0 -> data
I0805 11:48:15.622515 17301 net.cpp:67] Creating Layer fc1
I0805 11:48:15.622567 17301 net.cpp:394] fc1 <- data
I0805 11:48:15.622632 17301 net.cpp:356] fc1 -> fc1
I0805 11:48:15.622705 17301 net.cpp:96] Setting up fc1
I0805 11:48:15.623512 17301 net.cpp:103] Top shape: 1 300 1 1 (300)
I0805 11:48:15.624133 17301 net.cpp:67] Creating Layer htanh
I0805 11:48:15.624198 17301 net.cpp:394] htanh <- fc1
I0805 11:48:15.624241 17301 net.cpp:356] htanh -> htanh
I0805 11:48:15.624300 17301 net.cpp:96] Setting up htanh
I0805 11:48:15.624346 17301 net.cpp:103] Top shape: 1 300 1 1 (300)
I0805 11:48:15.624402 17301 net.cpp:67] Creating Layer fc3
I0805 11:48:15.624440 17301 net.cpp:394] fc3 <- htanh
I0805 11:48:15.624492 17301 net.cpp:356] fc3 -> fc3
I0805 11:48:15.624539 17301 net.cpp:96] Setting up fc3
I0805 11:48:15.624663 17301 net.cpp:103] Top shape: 1 45 1 1 (45)
I0805 11:48:15.624712 17301 net.cpp:172] fc3 does not need backward computation.
I0805 11:48:15.624766 17301 net.cpp:172] htanh does not need backward computation.
I0805 11:48:15.624802 17301 net.cpp:172] fc1 does not need backward computation.
I0805 11:48:15.624850 17301 net.cpp:208] This network produces output fc3
I0805 11:48:15.624897 17301 net.cpp:467] Collecting Learning Rate and Weight Decay.
I0805 11:48:15.624950 17301 net.cpp:219] Network initialization done.
I0805 11:48:15.624987 17301 net.cpp:220] Memory required for data: 2580
I0805 11:48:15.639711 17301 tonic.cpp:31] Reshaping input to dims: 28 300 1 1
I0805 11:48:15.639840 17301 tonic.cpp:37] Reshaping output to dims: 28 45 1 1
---------------------------------------------------------
colocating with milc
nlp-pos
Command terminated by signal 9
104.55user 7.70system 2:44.75elapsed 68%CPU (0avgtext+0avgdata 15482752maxresident)k
188160inputs+0outputs (88major+1217157minor)pagefaults 0swaps
********* Setting up benchmark nlp
********* Running benchmark as ./tonic-nlp-pos
WARNING: Logging before InitGoogleLogging() is written to STDERR
I0805 11:51:09.289552  6467 net.cpp:39] Initializing net from parameters: 
name: "pos"
layers {
  bottom: "data"
  top: "fc1"
  name: "fc1"
  type: INNER_PRODUCT
  inner_product_param {
    num_output: 300
  }
}
layers {
  bottom: "fc1"
  top: "htanh"
  name: "htanh"
  type: HTANH
}
layers {
  bottom: "htanh"
  top: "fc3"
  name: "fc3"
  type: INNER_PRODUCT
  inner_product_param {
    num_output: 45
  }
}
input: "data"
input_dim: 1
input_dim: 300
input_dim: 1
input_dim: 1
I0805 11:51:09.291157  6467 net.cpp:358] Input 0 -> data
I0805 11:51:09.291292  6467 net.cpp:67] Creating Layer fc1
I0805 11:51:09.291347  6467 net.cpp:394] fc1 <- data
I0805 11:51:09.291407  6467 net.cpp:356] fc1 -> fc1
I0805 11:51:09.291481  6467 net.cpp:96] Setting up fc1
I0805 11:51:09.294211  6467 net.cpp:103] Top shape: 1 300 1 1 (300)
I0805 11:51:09.294651  6467 net.cpp:67] Creating Layer htanh
I0805 11:51:09.294916  6467 net.cpp:394] htanh <- fc1
I0805 11:51:09.294977  6467 net.cpp:356] htanh -> htanh
I0805 11:51:09.295032  6467 net.cpp:96] Setting up htanh
I0805 11:51:09.295092  6467 net.cpp:103] Top shape: 1 300 1 1 (300)
I0805 11:51:09.295148  6467 net.cpp:67] Creating Layer fc3
I0805 11:51:09.295187  6467 net.cpp:394] fc3 <- htanh
I0805 11:51:09.295240  6467 net.cpp:356] fc3 -> fc3
I0805 11:51:09.295289  6467 net.cpp:96] Setting up fc3
I0805 11:51:09.295430  6467 net.cpp:103] Top shape: 1 45 1 1 (45)
I0805 11:51:09.295483  6467 net.cpp:172] fc3 does not need backward computation.
I0805 11:51:09.295536  6467 net.cpp:172] htanh does not need backward computation.
I0805 11:51:09.295573  6467 net.cpp:172] fc1 does not need backward computation.
I0805 11:51:09.295676  6467 net.cpp:208] This network produces output fc3
I0805 11:51:09.295737  6467 net.cpp:467] Collecting Learning Rate and Weight Decay.
I0805 11:51:09.295789  6467 net.cpp:219] Network initialization done.
I0805 11:51:09.295830  6467 net.cpp:220] Memory required for data: 2580
I0805 11:51:09.310694  6467 tonic.cpp:31] Reshaping input to dims: 28 300 1 1
I0805 11:51:09.310830  6467 tonic.cpp:37] Reshaping output to dims: 28 45 1 1
Command terminated by signal 9
104.24user 7.80system 2:44.19elapsed 68%CPU (0avgtext+0avgdata 15403520maxresident)k
182224inputs+0outputs (62major+1212123minor)pagefaults 0swaps
---------------------------------------------------------
colocating with milc
nlp-chk
********* Setting up benchmark nlp
********* Running benchmark as ./tonic-nlp-chk
WARNING: Logging before InitGoogleLogging() is written to STDERR
I0805 11:54:04.965327 28158 net.cpp:39] Initializing net from parameters: 
name: "chk"
layers {
  bottom: "data"
  top: "fc1"
  name: "fc1"
  type: INNER_PRODUCT
  inner_product_param {
    num_output: 300
  }
}
layers {
  bottom: "fc1"
  top: "htanh"
  name: "htanh"
  type: HTANH
}
layers {
  bottom: "htanh"
  top: "fc3"
  name: "fc3"
  type: INNER_PRODUCT
  inner_product_param {
    num_output: 42
  }
}
input: "data"
input_dim: 1
input_dim: 300
input_dim: 1
input_dim: 1
I0805 11:54:04.965797 28158 net.cpp:358] Input 0 -> data
I0805 11:54:04.965960 28158 net.cpp:67] Creating Layer fc1
I0805 11:54:04.966012 28158 net.cpp:394] fc1 <- data
I0805 11:54:04.966073 28158 net.cpp:356] fc1 -> fc1
I0805 11:54:04.966151 28158 net.cpp:96] Setting up fc1
I0805 11:54:04.967314 28158 net.cpp:103] Top shape: 1 300 1 1 (300)
I0805 11:54:04.968065 28158 net.cpp:67] Creating Layer htanh
I0805 11:54:04.968132 28158 net.cpp:394] htanh <- fc1
I0805 11:54:04.968188 28158 net.cpp:356] htanh -> htanh
I0805 11:54:04.968248 28158 net.cpp:96] Setting up htanh
I0805 11:54:04.968302 28158 net.cpp:103] Top shape: 1 300 1 1 (300)
I0805 11:54:04.968359 28158 net.cpp:67] Creating Layer fc3
I0805 11:54:04.968408 28158 net.cpp:394] fc3 <- htanh
I0805 11:54:04.968459 28158 net.cpp:356] fc3 -> fc3
I0805 11:54:04.968526 28158 net.cpp:96] Setting up fc3
I0805 11:54:04.968662 28158 net.cpp:103] Top shape: 1 42 1 1 (42)
I0805 11:54:04.968719 28158 net.cpp:172] fc3 does not need backward computation.
I0805 11:54:04.968780 28158 net.cpp:172] htanh does not need backward computation.
I0805 11:54:04.968821 28158 net.cpp:172] fc1 does not need backward computation.
I0805 11:54:04.968873 28158 net.cpp:208] This network produces output fc3
I0805 11:54:04.968924 28158 net.cpp:467] Collecting Learning Rate and Weight Decay.
I0805 11:54:04.968981 28158 net.cpp:219] Network initialization done.
I0805 11:54:04.969020 28158 net.cpp:220] Memory required for data: 2568
I0805 11:54:04.978845 28158 net.cpp:39] Initializing net from parameters: 
name: "pos"
layers {
  bottom: "data"
  top: "fc1"
  name: "fc1"
  type: INNER_PRODUCT
  inner_product_param {
    num_output: 300
  }
}
layers {
  bottom: "fc1"
  top: "htanh"
  name: "htanh"
  type: HTANH
}
layers {
  bottom: "htanh"
  top: "fc3"
  name: "fc3"
  type: INNER_PRODUCT
  inner_product_param {
    num_output: 45
  }
}
input: "data"
input_dim: 1
input_dim: 300
input_dim: 1
input_dim: 1
I0805 11:54:04.979128 28158 net.cpp:358] Input 0 -> data
I0805 11:54:04.979215 28158 net.cpp:67] Creating Layer fc1
I0805 11:54:04.979261 28158 net.cpp:394] fc1 <- data
I0805 11:54:04.979322 28158 net.cpp:356] fc1 -> fc1
I0805 11:54:04.979373 28158 net.cpp:96] Setting up fc1
I0805 11:54:04.979892 28158 net.cpp:103] Top shape: 1 300 1 1 (300)
I0805 11:54:04.982538 28158 net.cpp:67] Creating Layer htanh
I0805 11:54:04.983513 28158 net.cpp:394] htanh <- fc1
I0805 11:54:04.983672 28158 net.cpp:356] htanh -> htanh
I0805 11:54:04.983750 28158 net.cpp:96] Setting up htanh
I0805 11:54:04.983800 28158 net.cpp:103] Top shape: 1 300 1 1 (300)
I0805 11:54:04.983866 28158 net.cpp:67] Creating Layer fc3
I0805 11:54:04.983909 28158 net.cpp:394] fc3 <- htanh
I0805 11:54:04.983964 28158 net.cpp:356] fc3 -> fc3
I0805 11:54:04.984014 28158 net.cpp:96] Setting up fc3
I0805 11:54:04.984110 28158 net.cpp:103] Top shape: 1 45 1 1 (45)
I0805 11:54:04.984176 28158 net.cpp:172] fc3 does not need backward computation.
I0805 11:54:04.984220 28158 net.cpp:172] htanh does not need backward computation.
I0805 11:54:04.984258 28158 net.cpp:172] fc1 does not need backward computation.
I0805 11:54:04.984308 28158 net.cpp:208] This network produces output fc3
I0805 11:54:04.984352 28158 net.cpp:467] Collecting Learning Rate and Weight Decay.
I0805 11:54:04.984405 28158 net.cpp:219] Network initialization done.
I0805 11:54:04.984444 28158 net.cpp:220] Memory required for data: 2580
I0805 11:54:04.998769 28158 tonic.cpp:31] Reshaping input to dims: 28 300 1 1
I0805 11:54:05.000314 28158 tonic.cpp:37] Reshaping output to dims: 28 45 1 1
I0805 11:54:05.005404 28158 tonic.cpp:31] Reshaping input to dims: 28 300 1 1
I0805 11:54:05.005640 28158 tonic.cpp:37] Reshaping output to dims: 28 42 1 1
---------------------------------------------------------
colocating with milc
nlp-chk
Command terminated by signal 9
99.06user 8.38system 2:37.03elapsed 68%CPU (0avgtext+0avgdata 15493424maxresident)k
381808inputs+0outputs (904major+1217917minor)pagefaults 0swaps
********* Setting up benchmark nlp
********* Running benchmark as ./tonic-nlp-chk
WARNING: Logging before InitGoogleLogging() is written to STDERR
I0805 11:56:50.634820 15964 net.cpp:39] Initializing net from parameters: 
name: "chk"
layers {
  bottom: "data"
  top: "fc1"
  name: "fc1"
  type: INNER_PRODUCT
  inner_product_param {
    num_output: 300
  }
}
layers {
  bottom: "fc1"
  top: "htanh"
  name: "htanh"
  type: HTANH
}
layers {
  bottom: "htanh"
  top: "fc3"
  name: "fc3"
  type: INNER_PRODUCT
  inner_product_param {
    num_output: 42
  }
}
input: "data"
input_dim: 1
input_dim: 300
input_dim: 1
input_dim: 1
I0805 11:56:50.635251 15964 net.cpp:358] Input 0 -> data
I0805 11:56:50.635388 15964 net.cpp:67] Creating Layer fc1
I0805 11:56:50.635447 15964 net.cpp:394] fc1 <- data
I0805 11:56:50.635486 15964 net.cpp:356] fc1 -> fc1
I0805 11:56:50.635540 15964 net.cpp:96] Setting up fc1
I0805 11:56:50.639096 15964 net.cpp:103] Top shape: 1 300 1 1 (300)
I0805 11:56:50.640604 15964 net.cpp:67] Creating Layer htanh
I0805 11:56:50.640666 15964 net.cpp:394] htanh <- fc1
I0805 11:56:50.640709 15964 net.cpp:356] htanh -> htanh
I0805 11:56:50.640774 15964 net.cpp:96] Setting up htanh
I0805 11:56:50.640826 15964 net.cpp:103] Top shape: 1 300 1 1 (300)
I0805 11:56:50.640882 15964 net.cpp:67] Creating Layer fc3
I0805 11:56:50.640920 15964 net.cpp:394] fc3 <- htanh
I0805 11:56:50.640970 15964 net.cpp:356] fc3 -> fc3
I0805 11:56:50.641016 15964 net.cpp:96] Setting up fc3
I0805 11:56:50.641141 15964 net.cpp:103] Top shape: 1 42 1 1 (42)
I0805 11:56:50.641192 15964 net.cpp:172] fc3 does not need backward computation.
I0805 11:56:50.641247 15964 net.cpp:172] htanh does not need backward computation.
I0805 11:56:50.641283 15964 net.cpp:172] fc1 does not need backward computation.
I0805 11:56:50.641329 15964 net.cpp:208] This network produces output fc3
I0805 11:56:50.641376 15964 net.cpp:467] Collecting Learning Rate and Weight Decay.
I0805 11:56:50.641428 15964 net.cpp:219] Network initialization done.
I0805 11:56:50.641464 15964 net.cpp:220] Memory required for data: 2568
I0805 11:56:50.658398 15964 net.cpp:39] Initializing net from parameters: 
name: "pos"
layers {
  bottom: "data"
  top: "fc1"
  name: "fc1"
  type: INNER_PRODUCT
  inner_product_param {
    num_output: 300
  }
}
layers {
  bottom: "fc1"
  top: "htanh"
  name: "htanh"
  type: HTANH
}
layers {
  bottom: "htanh"
  top: "fc3"
  name: "fc3"
  type: INNER_PRODUCT
  inner_product_param {
    num_output: 45
  }
}
input: "data"
input_dim: 1
input_dim: 300
input_dim: 1
input_dim: 1
I0805 11:56:50.661824 15964 net.cpp:358] Input 0 -> data
I0805 11:56:50.661953 15964 net.cpp:67] Creating Layer fc1
I0805 11:56:50.662003 15964 net.cpp:394] fc1 <- data
I0805 11:56:50.662040 15964 net.cpp:356] fc1 -> fc1
I0805 11:56:50.662088 15964 net.cpp:96] Setting up fc1
I0805 11:56:50.662379 15964 net.cpp:103] Top shape: 1 300 1 1 (300)
I0805 11:56:50.662444 15964 net.cpp:67] Creating Layer htanh
I0805 11:56:50.662484 15964 net.cpp:394] htanh <- fc1
I0805 11:56:50.662535 15964 net.cpp:356] htanh -> htanh
I0805 11:56:50.662582 15964 net.cpp:96] Setting up htanh
I0805 11:56:50.662633 15964 net.cpp:103] Top shape: 1 300 1 1 (300)
I0805 11:56:50.662677 15964 net.cpp:67] Creating Layer fc3
I0805 11:56:50.662724 15964 net.cpp:394] fc3 <- htanh
I0805 11:56:50.662767 15964 net.cpp:356] fc3 -> fc3
I0805 11:56:50.662820 15964 net.cpp:96] Setting up fc3
I0805 11:56:50.662881 15964 net.cpp:103] Top shape: 1 45 1 1 (45)
I0805 11:56:50.662955 15964 net.cpp:172] fc3 does not need backward computation.
I0805 11:56:50.662997 15964 net.cpp:172] htanh does not need backward computation.
I0805 11:56:50.663044 15964 net.cpp:172] fc1 does not need backward computation.
I0805 11:56:50.663084 15964 net.cpp:208] This network produces output fc3
I0805 11:56:50.663133 15964 net.cpp:467] Collecting Learning Rate and Weight Decay.
I0805 11:56:50.663173 15964 net.cpp:219] Network initialization done.
I0805 11:56:50.663219 15964 net.cpp:220] Memory required for data: 2580
I0805 11:56:50.675983 15964 tonic.cpp:31] Reshaping input to dims: 28 300 1 1
I0805 11:56:50.676121 15964 tonic.cpp:37] Reshaping output to dims: 28 45 1 1
I0805 11:56:50.684643 15964 tonic.cpp:31] Reshaping input to dims: 28 300 1 1
I0805 11:56:50.684763 15964 tonic.cpp:37] Reshaping output to dims: 28 42 1 1
---------------------------------------------------------
colocating with milc
nlp-chk
Command terminated by signal 9
99.06user 7.39system 2:36.29elapsed 68%CPU (0avgtext+0avgdata 15465232maxresident)k
185048inputs+0outputs (67major+1216025minor)pagefaults 0swaps
********* Setting up benchmark nlp
********* Running benchmark as ./tonic-nlp-chk
WARNING: Logging before InitGoogleLogging() is written to STDERR
I0805 11:59:36.549378  3938 net.cpp:39] Initializing net from parameters: 
name: "chk"
layers {
  bottom: "data"
  top: "fc1"
  name: "fc1"
  type: INNER_PRODUCT
  inner_product_param {
    num_output: 300
  }
}
layers {
  bottom: "fc1"
  top: "htanh"
  name: "htanh"
  type: HTANH
}
layers {
  bottom: "htanh"
  top: "fc3"
  name: "fc3"
  type: INNER_PRODUCT
  inner_product_param {
    num_output: 42
  }
}
input: "data"
input_dim: 1
input_dim: 300
input_dim: 1
input_dim: 1
I0805 11:59:36.550003  3938 net.cpp:358] Input 0 -> data
I0805 11:59:36.550135  3938 net.cpp:67] Creating Layer fc1
I0805 11:59:36.550187  3938 net.cpp:394] fc1 <- data
I0805 11:59:36.550259  3938 net.cpp:356] fc1 -> fc1
I0805 11:59:36.550330  3938 net.cpp:96] Setting up fc1
I0805 11:59:36.551771  3938 net.cpp:103] Top shape: 1 300 1 1 (300)
I0805 11:59:36.552676  3938 net.cpp:67] Creating Layer htanh
I0805 11:59:36.552773  3938 net.cpp:394] htanh <- fc1
I0805 11:59:36.552814  3938 net.cpp:356] htanh -> htanh
I0805 11:59:36.552881  3938 net.cpp:96] Setting up htanh
I0805 11:59:36.552937  3938 net.cpp:103] Top shape: 1 300 1 1 (300)
I0805 11:59:36.552994  3938 net.cpp:67] Creating Layer fc3
I0805 11:59:36.553035  3938 net.cpp:394] fc3 <- htanh
I0805 11:59:36.553088  3938 net.cpp:356] fc3 -> fc3
I0805 11:59:36.553145  3938 net.cpp:96] Setting up fc3
I0805 11:59:36.553313  3938 net.cpp:103] Top shape: 1 42 1 1 (42)
I0805 11:59:36.553369  3938 net.cpp:172] fc3 does not need backward computation.
I0805 11:59:36.553427  3938 net.cpp:172] htanh does not need backward computation.
I0805 11:59:36.553467  3938 net.cpp:172] fc1 does not need backward computation.
I0805 11:59:36.553524  3938 net.cpp:208] This network produces output fc3
I0805 11:59:36.553580  3938 net.cpp:467] Collecting Learning Rate and Weight Decay.
I0805 11:59:36.553642  3938 net.cpp:219] Network initialization done.
I0805 11:59:36.553679  3938 net.cpp:220] Memory required for data: 2568
I0805 11:59:36.574188  3938 net.cpp:39] Initializing net from parameters: 
name: "pos"
layers {
  bottom: "data"
  top: "fc1"
  name: "fc1"
  type: INNER_PRODUCT
  inner_product_param {
    num_output: 300
  }
}
layers {
  bottom: "fc1"
  top: "htanh"
  name: "htanh"
  type: HTANH
}
layers {
  bottom: "htanh"
  top: "fc3"
  name: "fc3"
  type: INNER_PRODUCT
  inner_product_param {
    num_output: 45
  }
}
input: "data"
input_dim: 1
input_dim: 300
input_dim: 1
input_dim: 1
I0805 11:59:36.574340  3938 net.cpp:358] Input 0 -> data
I0805 11:59:36.574435  3938 net.cpp:67] Creating Layer fc1
I0805 11:59:36.574478  3938 net.cpp:394] fc1 <- data
I0805 11:59:36.574532  3938 net.cpp:356] fc1 -> fc1
I0805 11:59:36.574579  3938 net.cpp:96] Setting up fc1
I0805 11:59:36.574870  3938 net.cpp:103] Top shape: 1 300 1 1 (300)
I0805 11:59:36.574947  3938 net.cpp:67] Creating Layer htanh
I0805 11:59:36.575000  3938 net.cpp:394] htanh <- fc1
I0805 11:59:36.575042  3938 net.cpp:356] htanh -> htanh
I0805 11:59:36.575093  3938 net.cpp:96] Setting up htanh
I0805 11:59:36.575135  3938 net.cpp:103] Top shape: 1 300 1 1 (300)
I0805 11:59:36.575187  3938 net.cpp:67] Creating Layer fc3
I0805 11:59:36.575225  3938 net.cpp:394] fc3 <- htanh
I0805 11:59:36.579737  3938 net.cpp:356] fc3 -> fc3
I0805 11:59:36.579859  3938 net.cpp:96] Setting up fc3
I0805 11:59:36.579928  3938 net.cpp:103] Top shape: 1 45 1 1 (45)
I0805 11:59:36.580010  3938 net.cpp:172] fc3 does not need backward computation.
I0805 11:59:36.580061  3938 net.cpp:172] htanh does not need backward computation.
I0805 11:59:36.580099  3938 net.cpp:172] fc1 does not need backward computation.
I0805 11:59:36.580145  3938 net.cpp:208] This network produces output fc3
I0805 11:59:36.580188  3938 net.cpp:467] Collecting Learning Rate and Weight Decay.
I0805 11:59:36.580256  3938 net.cpp:219] Network initialization done.
I0805 11:59:36.580293  3938 net.cpp:220] Memory required for data: 2580
I0805 11:59:36.590970  3938 tonic.cpp:31] Reshaping input to dims: 28 300 1 1
I0805 11:59:36.594569  3938 tonic.cpp:37] Reshaping output to dims: 28 45 1 1
I0805 11:59:36.596848  3938 tonic.cpp:31] Reshaping input to dims: 28 300 1 1
I0805 11:59:36.602108  3938 tonic.cpp:37] Reshaping output to dims: 28 42 1 1
---------------------------------------------------------
colocating with milc
nlp-ner
Command terminated by signal 9
99.12user 7.76system 2:36.70elapsed 68%CPU (0avgtext+0avgdata 15480592maxresident)k
214472inputs+0outputs (186major+1217027minor)pagefaults 0swaps
********* Setting up benchmark nlp
********* Running benchmark as ./tonic-nlp-ner
WARNING: Logging before InitGoogleLogging() is written to STDERR
I0805 12:02:22.401906 23979 net.cpp:39] Initializing net from parameters: 
name: "ner"
layers {
  bottom: "data"
  top: "fc1"
  name: "fc1"
  type: INNER_PRODUCT
  inner_product_param {
    num_output: 300
  }
}
layers {
  bottom: "fc1"
  top: "htanh"
  name: "htanh"
  type: HTANH
}
layers {
  bottom: "htanh"
  top: "fc3"
  name: "fc3"
  type: INNER_PRODUCT
  inner_product_param {
    num_output: 17
  }
}
input: "data"
input_dim: 1
input_dim: 375
input_dim: 1
input_dim: 1
I0805 12:02:22.402295 23979 net.cpp:358] Input 0 -> data
I0805 12:02:22.402431 23979 net.cpp:67] Creating Layer fc1
I0805 12:02:22.402484 23979 net.cpp:394] fc1 <- data
I0805 12:02:22.402545 23979 net.cpp:356] fc1 -> fc1
I0805 12:02:22.402617 23979 net.cpp:96] Setting up fc1
I0805 12:02:22.407017 23979 net.cpp:103] Top shape: 1 300 1 1 (300)
I0805 12:02:22.407706 23979 net.cpp:67] Creating Layer htanh
I0805 12:02:22.407778 23979 net.cpp:394] htanh <- fc1
I0805 12:02:22.407824 23979 net.cpp:356] htanh -> htanh
I0805 12:02:22.407886 23979 net.cpp:96] Setting up htanh
I0805 12:02:22.407933 23979 net.cpp:103] Top shape: 1 300 1 1 (300)
I0805 12:02:22.407989 23979 net.cpp:67] Creating Layer fc3
I0805 12:02:22.408030 23979 net.cpp:394] fc3 <- htanh
I0805 12:02:22.408080 23979 net.cpp:356] fc3 -> fc3
I0805 12:02:22.408128 23979 net.cpp:96] Setting up fc3
I0805 12:02:22.408222 23979 net.cpp:103] Top shape: 1 17 1 1 (17)
I0805 12:02:22.408272 23979 net.cpp:172] fc3 does not need backward computation.
I0805 12:02:22.408325 23979 net.cpp:172] htanh does not need backward computation.
I0805 12:02:22.408362 23979 net.cpp:172] fc1 does not need backward computation.
I0805 12:02:22.408409 23979 net.cpp:208] This network produces output fc3
I0805 12:02:22.408457 23979 net.cpp:467] Collecting Learning Rate and Weight Decay.
I0805 12:02:22.408509 23979 net.cpp:219] Network initialization done.
I0805 12:02:22.408547 23979 net.cpp:220] Memory required for data: 2468
I0805 12:02:22.426771 23979 tonic.cpp:31] Reshaping input to dims: 28 375 1 1
I0805 12:02:22.428838 23979 tonic.cpp:37] Reshaping output to dims: 28 17 1 1
Command terminated by signal 9
76.22user 7.22system 2:03.01elapsed 67%CPU (0avgtext+0avgdata 15475744maxresident)k
183200inputs+0outputs (65major+1216590minor)pagefaults 0swaps
---------------------------------------------------------
colocating with milc
nlp-ner
********* Setting up benchmark nlp
********* Running benchmark as ./tonic-nlp-ner
WARNING: Logging before InitGoogleLogging() is written to STDERR
I0805 12:04:36.133780  6578 net.cpp:39] Initializing net from parameters: 
name: "ner"
layers {
  bottom: "data"
  top: "fc1"
  name: "fc1"
  type: INNER_PRODUCT
  inner_product_param {
    num_output: 300
  }
}
layers {
  bottom: "fc1"
  top: "htanh"
  name: "htanh"
  type: HTANH
}
layers {
  bottom: "htanh"
  top: "fc3"
  name: "fc3"
  type: INNER_PRODUCT
  inner_product_param {
    num_output: 17
  }
}
input: "data"
input_dim: 1
input_dim: 375
input_dim: 1
input_dim: 1
I0805 12:04:36.134400  6578 net.cpp:358] Input 0 -> data
I0805 12:04:36.134538  6578 net.cpp:67] Creating Layer fc1
I0805 12:04:36.134588  6578 net.cpp:394] fc1 <- data
I0805 12:04:36.134629  6578 net.cpp:356] fc1 -> fc1
I0805 12:04:36.134702  6578 net.cpp:96] Setting up fc1
I0805 12:04:36.136312  6578 net.cpp:103] Top shape: 1 300 1 1 (300)
I0805 12:04:36.136950  6578 net.cpp:67] Creating Layer htanh
I0805 12:04:36.137001  6578 net.cpp:394] htanh <- fc1
I0805 12:04:36.137037  6578 net.cpp:356] htanh -> htanh
I0805 12:04:36.137087  6578 net.cpp:96] Setting up htanh
I0805 12:04:36.137163  6578 net.cpp:103] Top shape: 1 300 1 1 (300)
I0805 12:04:36.137218  6578 net.cpp:67] Creating Layer fc3
I0805 12:04:36.137256  6578 net.cpp:394] fc3 <- htanh
I0805 12:04:36.137307  6578 net.cpp:356] fc3 -> fc3
I0805 12:04:36.137356  6578 net.cpp:96] Setting up fc3
I0805 12:04:36.137472  6578 net.cpp:103] Top shape: 1 17 1 1 (17)
I0805 12:04:36.137522  6578 net.cpp:172] fc3 does not need backward computation.
I0805 12:04:36.137578  6578 net.cpp:172] htanh does not need backward computation.
I0805 12:04:36.137615  6578 net.cpp:172] fc1 does not need backward computation.
I0805 12:04:36.137660  6578 net.cpp:208] This network produces output fc3
I0805 12:04:36.137719  6578 net.cpp:467] Collecting Learning Rate and Weight Decay.
I0805 12:04:36.137779  6578 net.cpp:219] Network initialization done.
I0805 12:04:36.137825  6578 net.cpp:220] Memory required for data: 2468
I0805 12:04:36.149777  6578 tonic.cpp:31] Reshaping input to dims: 28 375 1 1
I0805 12:04:36.149909  6578 tonic.cpp:37] Reshaping output to dims: 28 17 1 1
---------------------------------------------------------
colocating with milc
nlp-ner
Command terminated by signal 9
76.22user 7.01system 2:02.33elapsed 68%CPU (0avgtext+0avgdata 15478368maxresident)k
181616inputs+0outputs (64major+1216766minor)pagefaults 0swaps
********* Setting up benchmark nlp
********* Running benchmark as ./tonic-nlp-ner
WARNING: Logging before InitGoogleLogging() is written to STDERR
I0805 12:06:48.235221 21788 net.cpp:39] Initializing net from parameters: 
name: "ner"
layers {
  bottom: "data"
  top: "fc1"
  name: "fc1"
  type: INNER_PRODUCT
  inner_product_param {
    num_output: 300
  }
}
layers {
  bottom: "fc1"
  top: "htanh"
  name: "htanh"
  type: HTANH
}
layers {
  bottom: "htanh"
  top: "fc3"
  name: "fc3"
  type: INNER_PRODUCT
  inner_product_param {
    num_output: 17
  }
}
input: "data"
input_dim: 1
input_dim: 375
input_dim: 1
input_dim: 1
I0805 12:06:48.235714 21788 net.cpp:358] Input 0 -> data
I0805 12:06:48.235833 21788 net.cpp:67] Creating Layer fc1
I0805 12:06:48.235884 21788 net.cpp:394] fc1 <- data
I0805 12:06:48.235946 21788 net.cpp:356] fc1 -> fc1
I0805 12:06:48.236018 21788 net.cpp:96] Setting up fc1
I0805 12:06:48.237354 21788 net.cpp:103] Top shape: 1 300 1 1 (300)
I0805 12:06:48.243765 21788 net.cpp:67] Creating Layer htanh
I0805 12:06:48.243913 21788 net.cpp:394] htanh <- fc1
I0805 12:06:48.243953 21788 net.cpp:356] htanh -> htanh
I0805 12:06:48.243999 21788 net.cpp:96] Setting up htanh
I0805 12:06:48.244077 21788 net.cpp:103] Top shape: 1 300 1 1 (300)
I0805 12:06:48.244129 21788 net.cpp:67] Creating Layer fc3
I0805 12:06:48.244160 21788 net.cpp:394] fc3 <- htanh
I0805 12:06:48.244202 21788 net.cpp:356] fc3 -> fc3
I0805 12:06:48.244261 21788 net.cpp:96] Setting up fc3
I0805 12:06:48.244370 21788 net.cpp:103] Top shape: 1 17 1 1 (17)
I0805 12:06:48.244422 21788 net.cpp:172] fc3 does not need backward computation.
I0805 12:06:48.244475 21788 net.cpp:172] htanh does not need backward computation.
I0805 12:06:48.244511 21788 net.cpp:172] fc1 does not need backward computation.
I0805 12:06:48.244556 21788 net.cpp:208] This network produces output fc3
I0805 12:06:48.244607 21788 net.cpp:467] Collecting Learning Rate and Weight Decay.
…
