…
---------------------------------------------------------
colocating with mcf
crf
********* Setting up benchmark crf
********* Running benchmark as ./crf_tag
412.46user 0.41system 9:45.29elapsed 70%CPU (0avgtext+0avgdata 387520maxresident)k
256inputs+8outputs (0major+28830minor)pagefaults 0swaps
---------------------------------------------------------
colocating with mcf
img-imc
********* Setting up benchmark img
********* Running benchmark as ./tonic-img-imc
WARNING: Logging before InitGoogleLogging() is written to STDERR
I0805 02:03:37.016207 19034 net.cpp:39] Initializing net from parameters: 
name: "imc"
layers {
  bottom: "data"
  top: "conv1"
  name: "conv1"
  type: CONVOLUTION
  convolution_param {
    num_output: 96
    kernel_size: 11
    stride: 4
  }
}
layers {
  bottom: "conv1"
  top: "conv1"
  name: "relu1"
  type: RELU
}
layers {
  bottom: "conv1"
  top: "pool1"
  name: "pool1"
  type: POOLING
  pooling_param {
    pool: MAX
    kernel_size: 3
    stride: 2
  }
}
layers {
  bottom: "pool1"
  top: "norm1"
  name: "norm1"
  type: LRN
  lrn_param {
    local_size: 5
    alpha: 0.0001
    beta: 0.75
  }
}
layers {
  bottom: "norm1"
  top: "conv2"
  name: "conv2"
  type: CONVOLUTION
  convolution_param {
    num_output: 256
    pad: 2
    kernel_size: 5
    group: 2
  }
}
layers {
  bottom: "conv2"
  top: "conv2"
  name: "relu2"
  type: RELU
}
layers {
  bottom: "conv2"
  top: "pool2"
  name: "pool2"
  type: POOLING
  pooling_param {
    pool: MAX
    kernel_size: 3
    stride: 2
  }
}
layers {
  bottom: "pool2"
  top: "norm2"
  name: "norm2"
  type: LRN
  lrn_param {
    local_size: 5
    alpha: 0.0001
    beta: 0.75
  }
}
layers {
  bottom: "norm2"
  top: "conv3"
  name: "conv3"
  type: CONVOLUTION
  convolution_param {
    num_output: 384
    pad: 1
    kernel_size: 3
  }
}
layers {
  bottom: "conv3"
  top: "conv3"
  name: "relu3"
  type: RELU
}
layers {
  bottom: "conv3"
  top: "conv4"
  name: "conv4"
  type: CONVOLUTION
  convolution_param {
    num_output: 384
    pad: 1
    kernel_size: 3
    group: 2
  }
}
layers {
  bottom: "conv4"
  top: "conv4"
  name: "relu4"
  type: RELU
}
layers {
  bottom: "conv4"
  top: "conv5"
  name: "conv5"
  type: CONVOLUTION
  convolution_param {
    num_output: 256
    pad: 1
    kernel_size: 3
    group: 2
  }
}
layers {
  bottom: "conv5"
  top: "conv5"
  name: "relu5"
  type: RELU
}
layers {
  bottom: "conv5"
  top: "pool5"
  name: "pool5"
  type: POOLING
  pooling_param {
    pool: MAX
    kernel_size: 3
    stride: 2
  }
}
layers {
  bottom: "pool5"
  top: "fc6"
  name: "fc6"
  type: INNER_PRODUCT
  inner_product_param {
    num_output: 4096
  }
}
layers {
  bottom: "fc6"
  top: "fc6"
  name: "relu6"
  type: RELU
}
layers {
  bottom: "fc6"
  top: "fc6"
  name: "drop6"
  type: DROPOUT
  dropout_param {
    dropout_ratio: 0.5
  }
}
layers {
  bottom: "fc6"
  top: "fc7"
  name: "fc7"
  type: INNER_PRODUCT
  inner_product_param {
    num_output: 4096
  }
}
layers {
  bottom: "fc7"
  top: "fc7"
  name: "relu7"
  type: RELU
}
layers {
  bottom: "fc7"
  top: "fc7"
  name: "drop7"
  type: DROPOUT
  dropout_param {
    dropout_ratio: 0.5
  }
}
layers {
  bottom: "fc7"
  top: "fc8"
  name: "fc8"
  type: INNER_PRODUCT
  inner_product_param {
    num_output: 1000
  }
}
layers {
  bottom: "fc8"
  top: "prob"
  name: "prob"
  type: SOFTMAX
}
layers {
  bottom: "prob"
  top: "argmax"
  name: "argmax"
  type: ARGMAX
}
input: "data"
input_dim: 1
input_dim: 3
input_dim: 227
input_dim: 227
I0805 02:03:37.016724 19034 net.cpp:358] Input 0 -> data
I0805 02:03:37.017563 19034 net.cpp:67] Creating Layer conv1
I0805 02:03:37.017624 19034 net.cpp:394] conv1 <- data
I0805 02:03:37.017669 19034 net.cpp:356] conv1 -> conv1
I0805 02:03:37.017746 19034 net.cpp:96] Setting up conv1
I0805 02:03:37.020318 19034 net.cpp:103] Top shape: 1 96 55 55 (290400)
I0805 02:03:37.020714 19034 net.cpp:67] Creating Layer relu1
I0805 02:03:37.020776 19034 net.cpp:394] relu1 <- conv1
I0805 02:03:37.021010 19034 net.cpp:345] relu1 -> conv1 (in-place)
I0805 02:03:37.021070 19034 net.cpp:96] Setting up relu1
I0805 02:03:37.021119 19034 net.cpp:103] Top shape: 1 96 55 55 (290400)
I0805 02:03:37.021181 19034 net.cpp:67] Creating Layer pool1
I0805 02:03:37.021232 19034 net.cpp:394] pool1 <- conv1
I0805 02:03:37.021275 19034 net.cpp:356] pool1 -> pool1
I0805 02:03:37.021335 19034 net.cpp:96] Setting up pool1
I0805 02:03:37.022598 19034 net.cpp:103] Top shape: 1 96 27 27 (69984)
I0805 02:03:37.022667 19034 net.cpp:67] Creating Layer norm1
I0805 02:03:37.022707 19034 net.cpp:394] norm1 <- pool1
I0805 02:03:37.022766 19034 net.cpp:356] norm1 -> norm1
I0805 02:03:37.022816 19034 net.cpp:96] Setting up norm1
I0805 02:03:37.022876 19034 net.cpp:103] Top shape: 1 96 27 27 (69984)
I0805 02:03:37.022922 19034 net.cpp:67] Creating Layer conv2
I0805 02:03:37.022969 19034 net.cpp:394] conv2 <- norm1
I0805 02:03:37.023012 19034 net.cpp:356] conv2 -> conv2
I0805 02:03:37.023067 19034 net.cpp:96] Setting up conv2
I0805 02:03:37.023963 19034 net.cpp:103] Top shape: 1 256 27 27 (186624)
I0805 02:03:37.024042 19034 net.cpp:67] Creating Layer relu2
I0805 02:03:37.024082 19034 net.cpp:394] relu2 <- conv2
I0805 02:03:37.024142 19034 net.cpp:345] relu2 -> conv2 (in-place)
I0805 02:03:37.024190 19034 net.cpp:96] Setting up relu2
I0805 02:03:37.024240 19034 net.cpp:103] Top shape: 1 256 27 27 (186624)
I0805 02:03:37.024281 19034 net.cpp:67] Creating Layer pool2
I0805 02:03:37.024328 19034 net.cpp:394] pool2 <- conv2
I0805 02:03:37.024380 19034 net.cpp:356] pool2 -> pool2
I0805 02:03:37.024441 19034 net.cpp:96] Setting up pool2
I0805 02:03:37.025214 19034 net.cpp:103] Top shape: 1 256 13 13 (43264)
I0805 02:03:37.025277 19034 net.cpp:67] Creating Layer norm2
I0805 02:03:37.025333 19034 net.cpp:394] norm2 <- pool2
I0805 02:03:37.025384 19034 net.cpp:356] norm2 -> norm2
I0805 02:03:37.025455 19034 net.cpp:96] Setting up norm2
I0805 02:03:37.025496 19034 net.cpp:103] Top shape: 1 256 13 13 (43264)
I0805 02:03:37.025553 19034 net.cpp:67] Creating Layer conv3
I0805 02:03:37.025602 19034 net.cpp:394] conv3 <- norm2
I0805 02:03:37.025645 19034 net.cpp:356] conv3 -> conv3
I0805 02:03:37.025698 19034 net.cpp:96] Setting up conv3
I0805 02:03:37.028923 19034 net.cpp:103] Top shape: 1 384 13 13 (64896)
I0805 02:03:37.035411 19034 net.cpp:67] Creating Layer relu3
I0805 02:03:37.035490 19034 net.cpp:394] relu3 <- conv3
I0805 02:03:37.035553 19034 net.cpp:345] relu3 -> conv3 (in-place)
I0805 02:03:37.035655 19034 net.cpp:96] Setting up relu3
I0805 02:03:37.035701 19034 net.cpp:103] Top shape: 1 384 13 13 (64896)
I0805 02:03:37.035745 19034 net.cpp:67] Creating Layer conv4
I0805 02:03:37.035794 19034 net.cpp:394] conv4 <- conv3
I0805 02:03:37.035841 19034 net.cpp:356] conv4 -> conv4
I0805 02:03:37.035902 19034 net.cpp:96] Setting up conv4
I0805 02:03:37.038247 19034 net.cpp:103] Top shape: 1 384 13 13 (64896)
I0805 02:03:37.038386 19034 net.cpp:67] Creating Layer relu4
I0805 02:03:37.038426 19034 net.cpp:394] relu4 <- conv4
I0805 02:03:37.038514 19034 net.cpp:345] relu4 -> conv4 (in-place)
I0805 02:03:37.043831 19034 net.cpp:96] Setting up relu4
I0805 02:03:37.043886 19034 net.cpp:103] Top shape: 1 384 13 13 (64896)
I0805 02:03:37.043938 19034 net.cpp:67] Creating Layer conv5
I0805 02:03:37.043990 19034 net.cpp:394] conv5 <- conv4
I0805 02:03:37.044052 19034 net.cpp:356] conv5 -> conv5
I0805 02:03:37.044105 19034 net.cpp:96] Setting up conv5
I0805 02:03:37.045328 19034 net.cpp:103] Top shape: 1 256 13 13 (43264)
I0805 02:03:37.045469 19034 net.cpp:67] Creating Layer relu5
I0805 02:03:37.045512 19034 net.cpp:394] relu5 <- conv5
I0805 02:03:37.045581 19034 net.cpp:345] relu5 -> conv5 (in-place)
I0805 02:03:37.046248 19034 net.cpp:96] Setting up relu5
I0805 02:03:37.046295 19034 net.cpp:103] Top shape: 1 256 13 13 (43264)
I0805 02:03:37.046360 19034 net.cpp:67] Creating Layer pool5
I0805 02:03:37.046409 19034 net.cpp:394] pool5 <- conv5
I0805 02:03:37.046452 19034 net.cpp:356] pool5 -> pool5
I0805 02:03:37.046507 19034 net.cpp:96] Setting up pool5
I0805 02:03:37.046551 19034 net.cpp:103] Top shape: 1 256 6 6 (9216)
I0805 02:03:37.046604 19034 net.cpp:67] Creating Layer fc6
I0805 02:03:37.046641 19034 net.cpp:394] fc6 <- pool5
I0805 02:03:37.046692 19034 net.cpp:356] fc6 -> fc6
I0805 02:03:37.046754 19034 net.cpp:96] Setting up fc6
I0805 02:03:37.402286 19034 net.cpp:103] Top shape: 1 4096 1 1 (4096)
I0805 02:03:37.402544 19034 net.cpp:67] Creating Layer relu6
I0805 02:03:37.402626 19034 net.cpp:394] relu6 <- fc6
I0805 02:03:37.402691 19034 net.cpp:345] relu6 -> fc6 (in-place)
I0805 02:03:37.402753 19034 net.cpp:96] Setting up relu6
I0805 02:03:37.402796 19034 net.cpp:103] Top shape: 1 4096 1 1 (4096)
I0805 02:03:37.402849 19034 net.cpp:67] Creating Layer drop6
I0805 02:03:37.402897 19034 net.cpp:394] drop6 <- fc6
I0805 02:03:37.402959 19034 net.cpp:345] drop6 -> fc6 (in-place)
I0805 02:03:37.403040 19034 net.cpp:96] Setting up drop6
I0805 02:03:37.403102 19034 net.cpp:103] Top shape: 1 4096 1 1 (4096)
I0805 02:03:37.403165 19034 net.cpp:67] Creating Layer fc7
I0805 02:03:37.403223 19034 net.cpp:394] fc7 <- fc6
I0805 02:03:37.403311 19034 net.cpp:356] fc7 -> fc7
I0805 02:03:37.403364 19034 net.cpp:96] Setting up fc7
I0805 02:03:37.638090 19034 net.cpp:103] Top shape: 1 4096 1 1 (4096)
I0805 02:03:37.640321 19034 net.cpp:67] Creating Layer relu7
I0805 02:03:37.640421 19034 net.cpp:394] relu7 <- fc7
I0805 02:03:37.640475 19034 net.cpp:345] relu7 -> fc7 (in-place)
I0805 02:03:37.640542 19034 net.cpp:96] Setting up relu7
I0805 02:03:37.640589 19034 net.cpp:103] Top shape: 1 4096 1 1 (4096)
I0805 02:03:37.640643 19034 net.cpp:67] Creating Layer drop7
I0805 02:03:37.640692 19034 net.cpp:394] drop7 <- fc7
I0805 02:03:37.640755 19034 net.cpp:345] drop7 -> fc7 (in-place)
I0805 02:03:37.640804 19034 net.cpp:96] Setting up drop7
I0805 02:03:37.640853 19034 net.cpp:103] Top shape: 1 4096 1 1 (4096)
I0805 02:03:37.640905 19034 net.cpp:67] Creating Layer fc8
I0805 02:03:37.640938 19034 net.cpp:394] fc8 <- fc7
I0805 02:03:37.641007 19034 net.cpp:356] fc8 -> fc8
I0805 02:03:37.641059 19034 net.cpp:96] Setting up fc8
I0805 02:03:37.707685 19034 net.cpp:103] Top shape: 1 1000 1 1 (1000)
I0805 02:03:37.707911 19034 net.cpp:67] Creating Layer prob
I0805 02:03:37.707967 19034 net.cpp:394] prob <- fc8
I0805 02:03:37.708056 19034 net.cpp:356] prob -> prob
I0805 02:03:37.708113 19034 net.cpp:96] Setting up prob
I0805 02:03:37.708212 19034 net.cpp:103] Top shape: 1 1000 1 1 (1000)
I0805 02:03:37.708307 19034 net.cpp:67] Creating Layer argmax
I0805 02:03:37.708353 19034 net.cpp:394] argmax <- prob
I0805 02:03:37.708431 19034 net.cpp:356] argmax -> argmax
I0805 02:03:37.708480 19034 net.cpp:96] Setting up argmax
I0805 02:03:37.709184 19034 net.cpp:103] Top shape: 1 1 1 1 (1)
I0805 02:03:37.709235 19034 net.cpp:172] argmax does not need backward computation.
I0805 02:03:37.709283 19034 net.cpp:172] prob does not need backward computation.
I0805 02:03:37.709331 19034 net.cpp:172] fc8 does not need backward computation.
I0805 02:03:37.709378 19034 net.cpp:172] drop7 does not need backward computation.
I0805 02:03:37.709409 19034 net.cpp:172] relu7 does not need backward computation.
…
I0805 02:34:23.302543 26672 img-client.cpp:222] Image: input/imc/cat-281-227.jpg class: 281
I0805 02:34:23.302593 26672 img-client.cpp:222] Image: input/imc/tp-999-227.jpg class: 999
427.59user 1.38system 10:10.52elapsed 70%CPU (0avgtext+0avgdata 2216512maxresident)k
0inputs+8outputs (0major+217372minor)pagefaults 0swaps
---------------------------------------------------------
colocating with mcf
img-dig
********* Setting up benchmark img
********* Running benchmark as ./tonic-img-dig
WARNING: Logging before InitGoogleLogging() is written to STDERR
I0805 02:34:34.218905 14674 net.cpp:39] Initializing net from parameters: 
name: "dig"
layers {
  bottom: "data"
  top: "conv1"
  name: "conv1"
  type: CONVOLUTION
  convolution_param {
    num_output: 20
    kernel_size: 5
    stride: 1
    weight_filler {
      type: "xavier"
    }
    bias_filler {
      type: "constant"
    }
  }
}
layers {
  bottom: "conv1"
  top: "pool1"
  name: "pool1"
  type: POOLING
  pooling_param {
    pool: MAX
    kernel_size: 2
    stride: 2
  }
}
layers {
  bottom: "pool1"
  top: "conv2"
  name: "conv2"
  type: CONVOLUTION
  convolution_param {
    num_output: 50
    kernel_size: 5
    stride: 1
    weight_filler {
      type: "xavier"
    }
    bias_filler {
      type: "constant"
    }
  }
}
layers {
  bottom: "conv2"
  top: "pool2"
  name: "pool2"
  type: POOLING
  pooling_param {
    pool: MAX
    kernel_size: 2
    stride: 2
  }
}
layers {
  bottom: "pool2"
  top: "ip1"
  name: "ip1"
  type: INNER_PRODUCT
  inner_product_param {
    num_output: 500
    weight_filler {
      type: "xavier"
    }
    bias_filler {
      type: "constant"
    }
  }
}
layers {
  bottom: "ip1"
  top: "ip1"
  name: "relu1"
  type: RELU
}
layers {
  bottom: "ip1"
  top: "ip2"
  name: "ip2"
  type: INNER_PRODUCT
  inner_product_param {
    num_output: 10
    weight_filler {
      type: "xavier"
    }
    bias_filler {
      type: "constant"
    }
  }
}
layers {
  bottom: "ip2"
  top: "prob"
  name: "prob"
  type: SOFTMAX
}
layers {
  bottom: "prob"
  top: "argmax"
  name: "argmax"
  type: ARGMAX
}
input: "data"
input_dim: 1
input_dim: 1
input_dim: 28
input_dim: 28
I0805 02:34:34.221382 14674 net.cpp:358] Input 0 -> data
I0805 02:34:34.221669 14674 net.cpp:67] Creating Layer conv1
I0805 02:34:34.221784 14674 net.cpp:394] conv1 <- data
I0805 02:34:34.221910 14674 net.cpp:356] conv1 -> conv1
I0805 02:34:34.222039 14674 net.cpp:96] Setting up conv1
I0805 02:34:34.222643 14674 net.cpp:103] Top shape: 1 20 24 24 (11520)
I0805 02:34:34.222806 14674 net.cpp:67] Creating Layer pool1
I0805 02:34:34.222919 14674 net.cpp:394] pool1 <- conv1
I0805 02:34:34.223018 14674 net.cpp:356] pool1 -> pool1
I0805 02:34:34.223135 14674 net.cpp:96] Setting up pool1
I0805 02:34:34.223253 14674 net.cpp:103] Top shape: 1 20 12 12 (2880)
I0805 02:34:34.223368 14674 net.cpp:67] Creating Layer conv2
I0805 02:34:34.223458 14674 net.cpp:394] conv2 <- pool1
I0805 02:34:34.223567 14674 net.cpp:356] conv2 -> conv2
I0805 02:34:34.227717 14674 net.cpp:96] Setting up conv2
I0805 02:34:34.228415 14674 net.cpp:103] Top shape: 1 50 8 8 (3200)
I0805 02:34:34.230463 14674 net.cpp:67] Creating Layer pool2
I0805 02:34:34.230644 14674 net.cpp:394] pool2 <- conv2
I0805 02:34:34.230751 14674 net.cpp:356] pool2 -> pool2
I0805 02:34:34.230876 14674 net.cpp:96] Setting up pool2
I0805 02:34:34.230975 14674 net.cpp:103] Top shape: 1 50 4 4 (800)
I0805 02:34:34.231093 14674 net.cpp:67] Creating Layer ip1
I0805 02:34:34.231184 14674 net.cpp:394] ip1 <- pool2
I0805 02:34:34.231295 14674 net.cpp:356] ip1 -> ip1
I0805 02:34:34.231403 14674 net.cpp:96] Setting up ip1
I0805 02:34:34.238512 14674 net.cpp:103] Top shape: 1 500 1 1 (500)
I0805 02:34:34.238759 14674 net.cpp:67] Creating Layer relu1
I0805 02:34:34.238896 14674 net.cpp:394] relu1 <- ip1
I0805 02:34:34.238994 14674 net.cpp:345] relu1 -> ip1 (in-place)
I0805 02:34:34.239114 14674 net.cpp:96] Setting up relu1
I0805 02:34:34.239215 14674 net.cpp:103] Top shape: 1 500 1 1 (500)
I0805 02:34:34.239327 14674 net.cpp:67] Creating Layer ip2
I0805 02:34:34.239416 14674 net.cpp:394] ip2 <- ip1
I0805 02:34:34.239526 14674 net.cpp:356] ip2 -> ip2
I0805 02:34:34.239648 14674 net.cpp:96] Setting up ip2
I0805 02:34:34.239838 14674 net.cpp:103] Top shape: 1 10 1 1 (10)
I0805 02:34:34.239943 14674 net.cpp:67] Creating Layer prob
I0805 02:34:34.240051 14674 net.cpp:394] prob <- ip2
I0805 02:34:34.240203 14674 net.cpp:356] prob -> prob
I0805 02:34:34.240316 14674 net.cpp:96] Setting up prob
I0805 02:34:34.240411 14674 net.cpp:103] Top shape: 1 10 1 1 (10)
I0805 02:34:34.240524 14674 net.cpp:67] Creating Layer argmax
I0805 02:34:34.240612 14674 net.cpp:394] argmax <- prob
I0805 02:34:34.240723 14674 net.cpp:356] argmax -> argmax
I0805 02:34:34.240819 14674 net.cpp:96] Setting up argmax
I0805 02:34:34.240933 14674 net.cpp:103] Top shape: 1 1 1 1 (1)
I0805 02:34:34.241021 14674 net.cpp:172] argmax does not need backward computation.
I0805 02:34:34.241147 14674 net.cpp:172] prob does not need backward computation.
I0805 02:34:34.241233 14674 net.cpp:172] ip2 does not need backward computation.
I0805 02:34:34.241385 14674 net.cpp:172] relu1 does not need backward computation.
I0805 02:34:34.241475 14674 net.cpp:172] ip1 does not need backward computation.
…
I0805 03:10:24.194896 17793 img-client.cpp:222] Image: input/dig/8.png class: 8
I0805 03:10:24.194960 17793 img-client.cpp:222] Image: input/dig/9.png class: 9
500.71user 0.77system 11:48.60elapsed 70%CPU (0avgtext+0avgdata 177728maxresident)k
0inputs+8outputs (0major+11940minor)pagefaults 0swaps
---------------------------------------------------------
colocating with mcf
img-face
********* Setting up benchmark img
********* Running benchmark as ./tonic-img-face
WARNING: Logging before InitGoogleLogging() is written to STDERR
I0805 03:10:35.121363 19364 net.cpp:39] Initializing net from parameters: 
name: "face"
layers {
  bottom: "data"
  top: "conv1"
  name: "conv1"
  type: CONVOLUTION
  convolution_param {
    num_output: 32
    kernel_size: 11
    stride: 1
  }
}
layers {
  bottom: "conv1"
  top: "pool2"
  name: "pool2"
  type: POOLING
  pooling_param {
    pool: MAX
    kernel_size: 3
    stride: 2
  }
}
layers {
  bottom: "pool2"
  top: "conv3"
  name: "conv3"
  type: CONVOLUTION
  convolution_param {
    num_output: 16
    kernel_size: 9
    stride: 1
  }
}
layers {
  bottom: "conv3"
  top: "local4"
  name: "local4"
  type: LOCAL
  local_param {
    num_output: 16
    kernel_size: 9
    stride: 1
  }
}
layers {
  bottom: "local4"
  top: "local5"
  name: "local5"
  type: LOCAL
  local_param {
    num_output: 16
    kernel_size: 7
    stride: 2
  }
}
layers {
  bottom: "local5"
  top: "local6"
  name: "local6"
  type: LOCAL
  local_param {
    num_output: 16
    kernel_size: 5
    stride: 1
  }
}
layers {
  bottom: "local6"
  top: "fc7"
  name: "fc7"
  type: INNER_PRODUCT
  inner_product_param {
    num_output: 4096
  }
}
layers {
  bottom: "fc7"
  top: "fc8"
  name: "fc8"
  type: INNER_PRODUCT
  inner_product_param {
    num_output: 83
  }
}
layers {
  bottom: "fc8"
  top: "prob"
  name: "prob"
  type: SOFTMAX
}
layers {
  bottom: "prob"
  top: "argmax"
  name: "argmax"
  type: ARGMAX
}
input: "data"
input_dim: 1
input_dim: 3
input_dim: 152
input_dim: 152
I0805 03:10:35.127473 19364 net.cpp:358] Input 0 -> data
I0805 03:10:35.127693 19364 net.cpp:67] Creating Layer conv1
I0805 03:10:35.127763 19364 net.cpp:394] conv1 <- data
I0805 03:10:35.127810 19364 net.cpp:356] conv1 -> conv1
I0805 03:10:35.127876 19364 net.cpp:96] Setting up conv1
I0805 03:10:35.128118 19364 net.cpp:103] Top shape: 1 32 142 142 (645248)
I0805 03:10:35.128226 19364 net.cpp:67] Creating Layer pool2
I0805 03:10:35.128286 19364 net.cpp:394] pool2 <- conv1
I0805 03:10:35.128330 19364 net.cpp:356] pool2 -> pool2
I0805 03:10:35.128393 19364 net.cpp:96] Setting up pool2
I0805 03:10:35.128484 19364 net.cpp:103] Top shape: 1 32 71 71 (161312)
I0805 03:10:35.128533 19364 net.cpp:67] Creating Layer conv3
I0805 03:10:35.128571 19364 net.cpp:394] conv3 <- pool2
I0805 03:10:35.128605 19364 net.cpp:356] conv3 -> conv3
I0805 03:10:35.128674 19364 net.cpp:96] Setting up conv3
I0805 03:10:35.128942 19364 net.cpp:103] Top shape: 1 16 63 63 (63504)
I0805 03:10:35.129001 19364 net.cpp:67] Creating Layer local4
I0805 03:10:35.129061 19364 net.cpp:394] local4 <- conv3
I0805 03:10:35.129111 19364 net.cpp:356] local4 -> local4
I0805 03:10:35.129175 19364 net.cpp:96] Setting up local4
I0805 03:10:35.709050 19364 net.cpp:103] Top shape: 1 16 55 55 (48400)
I0805 03:10:35.710350 19364 net.cpp:67] Creating Layer local5
I0805 03:10:35.710412 19364 net.cpp:394] local5 <- local4
I0805 03:10:35.710464 19364 net.cpp:356] local5 -> local5
I0805 03:10:35.710520 19364 net.cpp:96] Setting up local5
I0805 03:10:35.774727 19364 net.cpp:103] Top shape: 1 16 25 25 (10000)
I0805 03:10:35.774955 19364 net.cpp:67] Creating Layer local6
I0805 03:10:35.774999 19364 net.cpp:394] local6 <- local5
I0805 03:10:35.775094 19364 net.cpp:356] local6 -> local6
I0805 03:10:35.775156 19364 net.cpp:96] Setting up local6
I0805 03:10:35.799693 19364 net.cpp:103] Top shape: 1 16 21 21 (7056)
I0805 03:10:35.799886 19364 net.cpp:67] Creating Layer fc7
I0805 03:10:35.799932 19364 net.cpp:394] fc7 <- local6
I0805 03:10:35.800026 19364 net.cpp:356] fc7 -> fc7
I0805 03:10:35.800101 19364 net.cpp:96] Setting up fc7
I0805 03:10:36.059092 19364 net.cpp:103] Top shape: 1 4096 1 1 (4096)
I0805 03:10:36.059336 19364 net.cpp:67] Creating Layer fc8
I0805 03:10:36.059382 19364 net.cpp:394] fc8 <- fc7
I0805 03:10:36.059494 19364 net.cpp:356] fc8 -> fc8
I0805 03:10:36.059572 19364 net.cpp:96] Setting up fc8
I0805 03:10:36.061164 19364 net.cpp:103] Top shape: 1 83 1 1 (83)
I0805 03:10:36.061298 19364 net.cpp:67] Creating Layer prob
I0805 03:10:36.061338 19364 net.cpp:394] prob <- fc8
I0805 03:10:36.061378 19364 net.cpp:356] prob -> prob
I0805 03:10:36.061467 19364 net.cpp:96] Setting up prob
I0805 03:10:36.061547 19364 net.cpp:103] Top shape: 1 83 1 1 (83)
I0805 03:10:36.061607 19364 net.cpp:67] Creating Layer argmax
I0805 03:10:36.061661 19364 net.cpp:394] argmax <- prob
I0805 03:10:36.061717 19364 net.cpp:356] argmax -> argmax
I0805 03:10:36.061775 19364 net.cpp:96] Setting up argmax
I0805 03:10:36.061833 19364 net.cpp:103] Top shape: 1 1 1 1 (1)
I0805 03:10:36.061887 19364 net.cpp:172] argmax does not need backward computation.
I0805 03:10:36.061949 19364 net.cpp:172] prob does not need backward computation.
I0805 03:10:36.062000 19364 net.cpp:172] fc8 does not need backward computation.
I0805 03:10:36.062055 19364 net.cpp:172] fc7 does not need backward computation.
I0805 03:10:36.062108 19364 net.cpp:172] local6 does not need backward computation.
…
I0805 03:38:19.503278 11731 img-client.cpp:222] Image: input/face/angelina-jolie-03-152.jpg class: 0
I0805 03:38:19.503317 11731 img-client.cpp:222] Image: input/face/daniel-craig-20-152.jpg class: 0
382.04user 2.11system 9:04.83elapsed 70%CPU (0avgtext+0avgdata 3593504maxresident)k
0inputs+8outputs (0major+342261minor)pagefaults 0swaps
---------------------------------------------------------
colocating with mcf
nlp-pos
********* Setting up benchmark nlp
********* Running benchmark as ./tonic-nlp-pos
WARNING: Logging before InitGoogleLogging() is written to STDERR
I0805 03:38:30.885326 23721 net.cpp:39] Initializing net from parameters: 
name: "pos"
layers {
  bottom: "data"
  top: "fc1"
  name: "fc1"
  type: INNER_PRODUCT
  inner_product_param {
    num_output: 300
  }
}
layers {
  bottom: "fc1"
  top: "htanh"
  name: "htanh"
  type: HTANH
}
layers {
  bottom: "htanh"
  top: "fc3"
  name: "fc3"
  type: INNER_PRODUCT
  inner_product_param {
    num_output: 45
  }
}
input: "data"
input_dim: 1
input_dim: 300
input_dim: 1
input_dim: 1
I0805 03:38:30.885776 23721 net.cpp:358] Input 0 -> data
I0805 03:38:30.885926 23721 net.cpp:67] Creating Layer fc1
I0805 03:38:30.885982 23721 net.cpp:394] fc1 <- data
I0805 03:38:30.886024 23721 net.cpp:356] fc1 -> fc1
I0805 03:38:30.886104 23721 net.cpp:96] Setting up fc1
I0805 03:38:30.886509 23721 net.cpp:103] Top shape: 1 300 1 1 (300)
I0805 03:38:30.886622 23721 net.cpp:67] Creating Layer htanh
I0805 03:38:30.886665 23721 net.cpp:394] htanh <- fc1
I0805 03:38:30.886720 23721 net.cpp:356] htanh -> htanh
I0805 03:38:30.886766 23721 net.cpp:96] Setting up htanh
I0805 03:38:30.886834 23721 net.cpp:103] Top shape: 1 300 1 1 (300)
I0805 03:38:30.886880 23721 net.cpp:67] Creating Layer fc3
I0805 03:38:30.886939 23721 net.cpp:394] fc3 <- htanh
I0805 03:38:30.886981 23721 net.cpp:356] fc3 -> fc3
I0805 03:38:30.887051 23721 net.cpp:96] Setting up fc3
I0805 03:38:30.887159 23721 net.cpp:103] Top shape: 1 45 1 1 (45)
I0805 03:38:30.887210 23721 net.cpp:172] fc3 does not need backward computation.
I0805 03:38:30.887259 23721 net.cpp:172] htanh does not need backward computation.
I0805 03:38:30.887298 23721 net.cpp:172] fc1 does not need backward computation.
I0805 03:38:30.887346 23721 net.cpp:208] This network produces output fc3
I0805 03:38:30.887403 23721 net.cpp:467] Collecting Learning Rate and Weight Decay.
I0805 03:38:30.887449 23721 net.cpp:219] Network initialization done.
I0805 03:38:30.887483 23721 net.cpp:220] Memory required for data: 2580
I0805 03:38:30.896438 23721 tonic.cpp:31] Reshaping input to dims: 28 300 1 1
I0805 03:38:30.896570 23721 tonic.cpp:37] Reshaping output to dims: 28 45 1 1
Command terminated by signal 9
99.70user 9.62system 2:36.69elapsed 69%CPU (0avgtext+0avgdata 15412560maxresident)k
193040inputs+0outputs (129major+1213239minor)pagefaults 0swaps
---------------------------------------------------------
colocating with mcf
nlp-pos
********* Setting up benchmark nlp
********* Running benchmark as ./tonic-nlp-pos
WARNING: Logging before InitGoogleLogging() is written to STDERR
I0805 05:21:55.141577 11388 net.cpp:39] Initializing net from parameters: 
name: "pos"
layers {
  bottom: "data"
  top: "fc1"
  name: "fc1"
  type: INNER_PRODUCT
  inner_product_param {
    num_output: 300
  }
}
layers {
  bottom: "fc1"
  top: "htanh"
  name: "htanh"
  type: HTANH
}
layers {
  bottom: "htanh"
  top: "fc3"
  name: "fc3"
  type: INNER_PRODUCT
  inner_product_param {
    num_output: 45
  }
}
input: "data"
input_dim: 1
input_dim: 300
input_dim: 1
input_dim: 1
I0805 05:21:55.141975 11388 net.cpp:358] Input 0 -> data
I0805 05:21:55.146505 11388 net.cpp:67] Creating Layer fc1
I0805 05:21:55.146651 11388 net.cpp:394] fc1 <- data
I0805 05:21:55.146708 11388 net.cpp:356] fc1 -> fc1
I0805 05:21:55.146811 11388 net.cpp:96] Setting up fc1
I0805 05:21:55.148054 11388 net.cpp:103] Top shape: 1 300 1 1 (300)
I0805 05:21:55.148376 11388 net.cpp:67] Creating Layer htanh
I0805 05:21:55.148529 11388 net.cpp:394] htanh <- fc1
I0805 05:21:55.148566 11388 net.cpp:356] htanh -> htanh
I0805 05:21:55.148635 11388 net.cpp:96] Setting up htanh
I0805 05:21:55.148701 11388 net.cpp:103] Top shape: 1 300 1 1 (300)
I0805 05:21:55.148748 11388 net.cpp:67] Creating Layer fc3
I0805 05:21:55.148798 11388 net.cpp:394] fc3 <- htanh
I0805 05:21:55.148840 11388 net.cpp:356] fc3 -> fc3
I0805 05:21:55.148896 11388 net.cpp:96] Setting up fc3
I0805 05:21:55.148996 11388 net.cpp:103] Top shape: 1 45 1 1 (45)
I0805 05:21:55.149049 11388 net.cpp:172] fc3 does not need backward computation.
I0805 05:21:55.149096 11388 net.cpp:172] htanh does not need backward computation.
I0805 05:21:55.149132 11388 net.cpp:172] fc1 does not need backward computation.
I0805 05:21:55.149179 11388 net.cpp:208] This network produces output fc3
I0805 05:21:55.149236 11388 net.cpp:467] Collecting Learning Rate and Weight Decay.
I0805 05:21:55.149281 11388 net.cpp:219] Network initialization done.
I0805 05:21:55.149328 11388 net.cpp:220] Memory required for data: 2580
I0805 05:21:55.159185 11388 tonic.cpp:31] Reshaping input to dims: 28 300 1 1
I0805 05:21:55.160331 11388 tonic.cpp:37] Reshaping output to dims: 28 45 1 1
---------------------------------------------------------
colocating with mcf
nlp-pos
Command terminated by signal 9
100.62user 9.07system 2:38.09elapsed 69%CPU (0avgtext+0avgdata 15473120maxresident)k
274440inputs+0outputs (426major+1222283minor)pagefaults 0swaps
********* Setting up benchmark nlp
********* Running benchmark as ./tonic-nlp-pos
WARNING: Logging before InitGoogleLogging() is written to STDERR
I0805 05:24:42.734669 32403 net.cpp:39] Initializing net from parameters: 
name: "pos"
layers {
  bottom: "data"
  top: "fc1"
  name: "fc1"
  type: INNER_PRODUCT
  inner_product_param {
    num_output: 300
  }
}
layers {
  bottom: "fc1"
  top: "htanh"
  name: "htanh"
  type: HTANH
}
layers {
  bottom: "htanh"
  top: "fc3"
  name: "fc3"
  type: INNER_PRODUCT
  inner_product_param {
    num_output: 45
  }
}
input: "data"
input_dim: 1
input_dim: 300
input_dim: 1
input_dim: 1
I0805 05:24:42.735056 32403 net.cpp:358] Input 0 -> data
I0805 05:24:42.735189 32403 net.cpp:67] Creating Layer fc1
I0805 05:24:42.735240 32403 net.cpp:394] fc1 <- data
I0805 05:24:42.735286 32403 net.cpp:356] fc1 -> fc1
I0805 05:24:42.735357 32403 net.cpp:96] Setting up fc1
I0805 05:24:42.736378 32403 net.cpp:103] Top shape: 1 300 1 1 (300)
I0805 05:24:42.736876 32403 net.cpp:67] Creating Layer htanh
I0805 05:24:42.736929 32403 net.cpp:394] htanh <- fc1
I0805 05:24:42.736976 32403 net.cpp:356] htanh -> htanh
I0805 05:24:42.737042 32403 net.cpp:96] Setting up htanh
I0805 05:24:42.737089 32403 net.cpp:103] Top shape: 1 300 1 1 (300)
I0805 05:24:42.737143 32403 net.cpp:67] Creating Layer fc3
I0805 05:24:42.737182 32403 net.cpp:394] fc3 <- htanh
I0805 05:24:42.737232 32403 net.cpp:356] fc3 -> fc3
I0805 05:24:42.737278 32403 net.cpp:96] Setting up fc3
I0805 05:24:42.737422 32403 net.cpp:103] Top shape: 1 45 1 1 (45)
I0805 05:24:42.737484 32403 net.cpp:172] fc3 does not need backward computation.
I0805 05:24:42.737535 32403 net.cpp:172] htanh does not need backward computation.
I0805 05:24:42.737581 32403 net.cpp:172] fc1 does not need backward computation.
I0805 05:24:42.737627 32403 net.cpp:208] This network produces output fc3
I0805 05:24:42.737681 32403 net.cpp:467] Collecting Learning Rate and Weight Decay.
I0805 05:24:42.737735 32403 net.cpp:219] Network initialization done.
I0805 05:24:42.737773 32403 net.cpp:220] Memory required for data: 2580
I0805 05:24:42.746368 32403 tonic.cpp:31] Reshaping input to dims: 28 300 1 1
I0805 05:24:42.747055 32403 tonic.cpp:37] Reshaping output to dims: 28 45 1 1
---------------------------------------------------------
colocating with mcf
nlp-pos
Command terminated by signal 9
99.71user 7.70system 2:36.00elapsed 68%CPU (0avgtext+0avgdata 15464464maxresident)k
277224inputs+0outputs (460major+1216175minor)pagefaults 0swaps
********* Setting up benchmark nlp
********* Running benchmark as ./tonic-nlp-pos
WARNING: Logging before InitGoogleLogging() is written to STDERR
I0805 05:27:27.967056 21152 net.cpp:39] Initializing net from parameters: 
name: "pos"
layers {
  bottom: "data"
  top: "fc1"
  name: "fc1"
  type: INNER_PRODUCT
  inner_product_param {
    num_output: 300
  }
}
layers {
  bottom: "fc1"
  top: "htanh"
  name: "htanh"
  type: HTANH
}
layers {
  bottom: "htanh"
  top: "fc3"
  name: "fc3"
  type: INNER_PRODUCT
  inner_product_param {
    num_output: 45
  }
}
input: "data"
input_dim: 1
input_dim: 300
input_dim: 1
input_dim: 1
I0805 05:27:27.967568 21152 net.cpp:358] Input 0 -> data
I0805 05:27:27.967736 21152 net.cpp:67] Creating Layer fc1
I0805 05:27:27.967789 21152 net.cpp:394] fc1 <- data
I0805 05:27:27.967833 21152 net.cpp:356] fc1 -> fc1
I0805 05:27:27.967921 21152 net.cpp:96] Setting up fc1
I0805 05:27:27.969633 21152 net.cpp:103] Top shape: 1 300 1 1 (300)
I0805 05:27:27.970402 21152 net.cpp:67] Creating Layer htanh
I0805 05:27:27.970449 21152 net.cpp:394] htanh <- fc1
I0805 05:27:27.970520 21152 net.cpp:356] htanh -> htanh
I0805 05:27:27.970576 21152 net.cpp:96] Setting up htanh
I0805 05:27:27.970638 21152 net.cpp:103] Top shape: 1 300 1 1 (300)
I0805 05:27:27.970685 21152 net.cpp:67] Creating Layer fc3
I0805 05:27:27.970737 21152 net.cpp:394] fc3 <- htanh
I0805 05:27:27.970780 21152 net.cpp:356] fc3 -> fc3
I0805 05:27:27.970842 21152 net.cpp:96] Setting up fc3
I0805 05:27:27.970979 21152 net.cpp:103] Top shape: 1 45 1 1 (45)
I0805 05:27:27.971030 21152 net.cpp:172] fc3 does not need backward computation.
I0805 05:27:27.971072 21152 net.cpp:172] htanh does not need backward computation.
I0805 05:27:27.971124 21152 net.cpp:172] fc1 does not need backward computation.
I0805 05:27:27.971161 21152 net.cpp:208] This network produces output fc3
I0805 05:27:27.971220 21152 net.cpp:467] Collecting Learning Rate and Weight Decay.
I0805 05:27:27.971263 21152 net.cpp:219] Network initialization done.
I0805 05:27:27.971315 21152 net.cpp:220] Memory required for data: 2580
I0805 05:27:27.978523 21152 tonic.cpp:31] Reshaping input to dims: 28 300 1 1
I0805 05:27:27.978662 21152 tonic.cpp:37] Reshaping output to dims: 28 45 1 1
Command terminated by signal 9
99.15user 7.42system 2:35.06elapsed 68%CPU (0avgtext+0avgdata 15507072maxresident)k
220080inputs+0outputs (222major+1218704minor)pagefaults 0swaps
---------------------------------------------------------
colocating with mcf
nlp-chk
********* Setting up benchmark nlp
********* Running benchmark as ./tonic-nlp-chk
WARNING: Logging before InitGoogleLogging() is written to STDERR
I0805 05:30:13.268925  9756 net.cpp:39] Initializing net from parameters: 
name: "chk"
layers {
  bottom: "data"
  top: "fc1"
  name: "fc1"
  type: INNER_PRODUCT
  inner_product_param {
    num_output: 300
  }
}
layers {
  bottom: "fc1"
  top: "htanh"
  name: "htanh"
  type: HTANH
}
layers {
  bottom: "htanh"
  top: "fc3"
  name: "fc3"
  type: INNER_PRODUCT
  inner_product_param {
    num_output: 42
  }
}
input: "data"
input_dim: 1
input_dim: 300
input_dim: 1
input_dim: 1
I0805 05:30:13.269268  9756 net.cpp:358] Input 0 -> data
I0805 05:30:13.269398  9756 net.cpp:67] Creating Layer fc1
I0805 05:30:13.269448  9756 net.cpp:394] fc1 <- data
I0805 05:30:13.269508  9756 net.cpp:356] fc1 -> fc1
I0805 05:30:13.269575  9756 net.cpp:96] Setting up fc1
I0805 05:30:13.271143  9756 net.cpp:103] Top shape: 1 300 1 1 (300)
I0805 05:30:13.271759  9756 net.cpp:67] Creating Layer htanh
I0805 05:30:13.271814  9756 net.cpp:394] htanh <- fc1
I0805 05:30:13.271852  9756 net.cpp:356] htanh -> htanh
I0805 05:30:13.271900  9756 net.cpp:96] Setting up htanh
I0805 05:30:13.271958  9756 net.cpp:103] Top shape: 1 300 1 1 (300)
I0805 05:30:13.272013  9756 net.cpp:67] Creating Layer fc3
I0805 05:30:13.272050  9756 net.cpp:394] fc3 <- htanh
I0805 05:30:13.272100  9756 net.cpp:356] fc3 -> fc3
I0805 05:30:13.272146  9756 net.cpp:96] Setting up fc3
I0805 05:30:13.272272  9756 net.cpp:103] Top shape: 1 42 1 1 (42)
I0805 05:30:13.272320  9756 net.cpp:172] fc3 does not need backward computation.
I0805 05:30:13.272372  9756 net.cpp:172] htanh does not need backward computation.
I0805 05:30:13.272408  9756 net.cpp:172] fc1 does not need backward computation.
I0805 05:30:13.272451  9756 net.cpp:208] This network produces output fc3
I0805 05:30:13.272496  9756 net.cpp:467] Collecting Learning Rate and Weight Decay.
I0805 05:30:13.272567  9756 net.cpp:219] Network initialization done.
I0805 05:30:13.272606  9756 net.cpp:220] Memory required for data: 2568
I0805 05:30:13.289624  9756 net.cpp:39] Initializing net from parameters: 
name: "pos"
layers {
  bottom: "data"
  top: "fc1"
  name: "fc1"
  type: INNER_PRODUCT
  inner_product_param {
    num_output: 300
  }
}
layers {
  bottom: "fc1"
  top: "htanh"
  name: "htanh"
  type: HTANH
}
layers {
  bottom: "htanh"
  top: "fc3"
  name: "fc3"
  type: INNER_PRODUCT
  inner_product_param {
    num_output: 45
  }
}
input: "data"
input_dim: 1
input_dim: 300
input_dim: 1
input_dim: 1
I0805 05:30:13.289754  9756 net.cpp:358] Input 0 -> data
I0805 05:30:13.289836  9756 net.cpp:67] Creating Layer fc1
I0805 05:30:13.289881  9756 net.cpp:394] fc1 <- data
I0805 05:30:13.289933  9756 net.cpp:356] fc1 -> fc1
I0805 05:30:13.289979  9756 net.cpp:96] Setting up fc1
I0805 05:30:13.290277  9756 net.cpp:103] Top shape: 1 300 1 1 (300)
I0805 05:30:13.290338  9756 net.cpp:67] Creating Layer htanh
I0805 05:30:13.290375  9756 net.cpp:394] htanh <- fc1
I0805 05:30:13.290428  9756 net.cpp:356] htanh -> htanh
I0805 05:30:13.290482  9756 net.cpp:96] Setting up htanh
I0805 05:30:13.290521  9756 net.cpp:103] Top shape: 1 300 1 1 (300)
I0805 05:30:13.290572  9756 net.cpp:67] Creating Layer fc3
I0805 05:30:13.290611  9756 net.cpp:394] fc3 <- htanh
I0805 05:30:13.290660  9756 net.cpp:356] fc3 -> fc3
I0805 05:30:13.290704  9756 net.cpp:96] Setting up fc3
I0805 05:30:13.290772  9756 net.cpp:103] Top shape: 1 45 1 1 (45)
I0805 05:30:13.290819  9756 net.cpp:172] fc3 does not need backward computation.
I0805 05:30:13.290868  9756 net.cpp:172] htanh does not need backward computation.
I0805 05:30:13.290904  9756 net.cpp:172] fc1 does not need backward computation.
I0805 05:30:13.290947  9756 net.cpp:208] This network produces output fc3
I0805 05:30:13.290988  9756 net.cpp:467] Collecting Learning Rate and Weight Decay.
I0805 05:30:13.291036  9756 net.cpp:219] Network initialization done.
I0805 05:30:13.291071  9756 net.cpp:220] Memory required for data: 2580
I0805 05:30:13.302505  9756 tonic.cpp:31] Reshaping input to dims: 28 300 1 1
I0805 05:30:13.303833  9756 tonic.cpp:37] Reshaping output to dims: 28 45 1 1
I0805 05:30:13.307667  9756 tonic.cpp:31] Reshaping input to dims: 28 300 1 1
I0805 05:30:13.307780  9756 tonic.cpp:37] Reshaping output to dims: 28 42 1 1
Command terminated by signal 9
93.35user 7.40system 2:25.33elapsed 69%CPU (0avgtext+0avgdata 15462656maxresident)k
186080inputs+0outputs (69major+1215771minor)pagefaults 0swaps
---------------------------------------------------------
colocating with mcf
nlp-chk
********* Setting up benchmark nlp
********* Running benchmark as ./tonic-nlp-chk
WARNING: Logging before InitGoogleLogging() is written to STDERR
I0805 05:32:49.492995 29278 net.cpp:39] Initializing net from parameters: 
name: "chk"
layers {
  bottom: "data"
  top: "fc1"
  name: "fc1"
  type: INNER_PRODUCT
  inner_product_param {
    num_output: 300
  }
}
layers {
  bottom: "fc1"
  top: "htanh"
  name: "htanh"
  type: HTANH
}
layers {
  bottom: "htanh"
  top: "fc3"
  name: "fc3"
  type: INNER_PRODUCT
  inner_product_param {
    num_output: 42
  }
}
input: "data"
input_dim: 1
input_dim: 300
input_dim: 1
input_dim: 1
I0805 05:32:49.495242 29278 net.cpp:358] Input 0 -> data
I0805 05:32:49.495369 29278 net.cpp:67] Creating Layer fc1
I0805 05:32:49.495421 29278 net.cpp:394] fc1 <- data
I0805 05:32:49.495481 29278 net.cpp:356] fc1 -> fc1
I0805 05:32:49.495555 29278 net.cpp:96] Setting up fc1
I0805 05:32:49.497319 29278 net.cpp:103] Top shape: 1 300 1 1 (300)
I0805 05:32:49.497723 29278 net.cpp:67] Creating Layer htanh
I0805 05:32:49.497974 29278 net.cpp:394] htanh <- fc1
I0805 05:32:49.498013 29278 net.cpp:356] htanh -> htanh
I0805 05:32:49.498065 29278 net.cpp:96] Setting up htanh
I0805 05:32:49.498121 29278 net.cpp:103] Top shape: 1 300 1 1 (300)
I0805 05:32:49.498168 29278 net.cpp:67] Creating Layer fc3
I0805 05:32:49.498217 29278 net.cpp:394] fc3 <- htanh
I0805 05:32:49.498260 29278 net.cpp:356] fc3 -> fc3
I0805 05:32:49.498317 29278 net.cpp:96] Setting up fc3
I0805 05:32:49.498442 29278 net.cpp:103] Top shape: 1 42 1 1 (42)
I0805 05:32:49.498493 29278 net.cpp:172] fc3 does not need backward computation.
I0805 05:32:49.498534 29278 net.cpp:172] htanh does not need backward computation.
I0805 05:32:49.498582 29278 net.cpp:172] fc1 does not need backward computation.
I0805 05:32:49.498618 29278 net.cpp:208] This network produces output fc3
I0805 05:32:49.498672 29278 net.cpp:467] Collecting Learning Rate and Weight Decay.
I0805 05:32:49.498714 29278 net.cpp:219] Network initialization done.
I0805 05:32:49.498761 29278 net.cpp:220] Memory required for data: 2568
I0805 05:32:49.516343 29278 net.cpp:39] Initializing net from parameters: 
name: "pos"
layers {
  bottom: "data"
  top: "fc1"
  name: "fc1"
  type: INNER_PRODUCT
  inner_product_param {
    num_output: 300
  }
}
layers {
  bottom: "fc1"
  top: "htanh"
  name: "htanh"
  type: HTANH
}
layers {
  bottom: "htanh"
  top: "fc3"
  name: "fc3"
  type: INNER_PRODUCT
  inner_product_param {
    num_output: 45
  }
}
input: "data"
input_dim: 1
input_dim: 300
input_dim: 1
input_dim: 1
I0805 05:32:49.516474 29278 net.cpp:358] Input 0 -> data
I0805 05:32:49.516571 29278 net.cpp:67] Creating Layer fc1
I0805 05:32:49.516616 29278 net.cpp:394] fc1 <- data
I0805 05:32:49.516659 29278 net.cpp:356] fc1 -> fc1
I0805 05:32:49.516715 29278 net.cpp:96] Setting up fc1
I0805 05:32:49.517002 29278 net.cpp:103] Top shape: 1 300 1 1 (300)
I0805 05:32:49.517066 29278 net.cpp:67] Creating Layer htanh
I0805 05:32:49.517104 29278 net.cpp:394] htanh <- fc1
I0805 05:32:49.517151 29278 net.cpp:356] htanh -> htanh
I0805 05:32:49.517197 29278 net.cpp:96] Setting up htanh
I0805 05:32:49.517247 29278 net.cpp:103] Top shape: 1 300 1 1 (300)
I0805 05:32:49.517288 29278 net.cpp:67] Creating Layer fc3
I0805 05:32:49.517336 29278 net.cpp:394] fc3 <- htanh
I0805 05:32:49.517377 29278 net.cpp:356] fc3 -> fc3
I0805 05:32:49.517431 29278 net.cpp:96] Setting up fc3
I0805 05:32:49.517498 29278 net.cpp:103] Top shape: 1 45 1 1 (45)
I0805 05:32:49.517547 29278 net.cpp:172] fc3 does not need backward computation.
I0805 05:32:49.517585 29278 net.cpp:172] htanh does not need backward computation.
I0805 05:32:49.517632 29278 net.cpp:172] fc1 does not need backward computation.
I0805 05:32:49.517668 29278 net.cpp:208] This network produces output fc3
I0805 05:32:49.517716 29278 net.cpp:467] Collecting Learning Rate and Weight Decay.
I0805 05:32:49.517755 29278 net.cpp:219] Network initialization done.
I0805 05:32:49.517801 29278 net.cpp:220] Memory required for data: 2580
I0805 05:32:49.532217 29278 tonic.cpp:31] Reshaping input to dims: 28 300 1 1
I0805 05:32:49.533804 29278 tonic.cpp:37] Reshaping output to dims: 28 45 1 1
I0805 05:32:49.536380 29278 tonic.cpp:31] Reshaping input to dims: 28 300 1 1
I0805 05:32:49.536481 29278 tonic.cpp:37] Reshaping output to dims: 28 42 1 1
Command terminated by signal 9
93.36user 6.32system 2:24.04elapsed 69%CPU (0avgtext+0avgdata 15476016maxresident)k
221320inputs+0outputs (214major+1216695minor)pagefaults 0swaps
---------------------------------------------------------
colocating with mcf
nlp-chk
********* Setting up benchmark nlp
********* Running benchmark as ./tonic-nlp-chk
WARNING: Logging before InitGoogleLogging() is written to STDERR
I0805 05:35:23.917861 16044 net.cpp:39] Initializing net from parameters: 
name: "chk"
layers {
  bottom: "data"
  top: "fc1"
  name: "fc1"
  type: INNER_PRODUCT
  inner_product_param {
    num_output: 300
  }
}
layers {
  bottom: "fc1"
  top: "htanh"
  name: "htanh"
  type: HTANH
}
layers {
  bottom: "htanh"
  top: "fc3"
  name: "fc3"
  type: INNER_PRODUCT
  inner_product_param {
    num_output: 42
  }
}
input: "data"
input_dim: 1
input_dim: 300
input_dim: 1
input_dim: 1
I0805 05:35:23.918231 16044 net.cpp:358] Input 0 -> data
I0805 05:35:23.918357 16044 net.cpp:67] Creating Layer fc1
I0805 05:35:23.918409 16044 net.cpp:394] fc1 <- data
I0805 05:35:23.918449 16044 net.cpp:356] fc1 -> fc1
I0805 05:35:23.918509 16044 net.cpp:96] Setting up fc1
I0805 05:35:23.919615 16044 net.cpp:103] Top shape: 1 300 1 1 (300)
I0805 05:35:23.919930 16044 net.cpp:67] Creating Layer htanh
I0805 05:35:23.920166 16044 net.cpp:394] htanh <- fc1
I0805 05:35:23.920217 16044 net.cpp:356] htanh -> htanh
I0805 05:35:23.920259 16044 net.cpp:96] Setting up htanh
I0805 05:35:23.920300 16044 net.cpp:103] Top shape: 1 300 1 1 (300)
I0805 05:35:23.920343 16044 net.cpp:67] Creating Layer fc3
I0805 05:35:23.920394 16044 net.cpp:394] fc3 <- htanh
I0805 05:35:23.920445 16044 net.cpp:356] fc3 -> fc3
I0805 05:35:23.920491 16044 net.cpp:96] Setting up fc3
I0805 05:35:23.920631 16044 net.cpp:103] Top shape: 1 42 1 1 (42)
I0805 05:35:23.920683 16044 net.cpp:172] fc3 does not need backward computation.
I0805 05:35:23.920723 16044 net.cpp:172] htanh does not need backward computation.
I0805 05:35:23.920770 16044 net.cpp:172] fc1 does not need backward computation.
I0805 05:35:23.920816 16044 net.cpp:208] This network produces output fc3
I0805 05:35:23.920872 16044 net.cpp:467] Collecting Learning Rate and Weight Decay.
I0805 05:35:23.920929 16044 net.cpp:219] Network initialization done.
I0805 05:35:23.920969 16044 net.cpp:220] Memory required for data: 2568
I0805 05:35:23.928412 16044 net.cpp:39] Initializing net from parameters: 
name: "pos"
layers {
  bottom: "data"
  top: "fc1"
  name: "fc1"
  type: INNER_PRODUCT
  inner_product_param {
    num_output: 300
  }
}
layers {
  bottom: "fc1"
  top: "htanh"
  name: "htanh"
  type: HTANH
}
layers {
  bottom: "htanh"
  top: "fc3"
  name: "fc3"
  type: INNER_PRODUCT
  inner_product_param {
    num_output: 45
  }
}
input: "data"
input_dim: 1
input_dim: 300
input_dim: 1
input_dim: 1
I0805 05:35:23.928606 16044 net.cpp:358] Input 0 -> data
I0805 05:35:23.928675 16044 net.cpp:67] Creating Layer fc1
I0805 05:35:23.928717 16044 net.cpp:394] fc1 <- data
I0805 05:35:23.928771 16044 net.cpp:356] fc1 -> fc1
I0805 05:35:23.928817 16044 net.cpp:96] Setting up fc1
I0805 05:35:23.929132 16044 net.cpp:103] Top shape: 1 300 1 1 (300)
I0805 05:35:23.929194 16044 net.cpp:67] Creating Layer htanh
I0805 05:35:23.929240 16044 net.cpp:394] htanh <- fc1
I0805 05:35:23.929283 16044 net.cpp:356] htanh -> htanh
I0805 05:35:23.929335 16044 net.cpp:96] Setting up htanh
I0805 05:35:23.929375 16044 net.cpp:103] Top shape: 1 300 1 1 (300)
I0805 05:35:23.929425 16044 net.cpp:67] Creating Layer fc3
I0805 05:35:23.929464 16044 net.cpp:394] fc3 <- htanh
I0805 05:35:23.929514 16044 net.cpp:356] fc3 -> fc3
I0805 05:35:23.929558 16044 net.cpp:96] Setting up fc3
I0805 05:35:23.929626 16044 net.cpp:103] Top shape: 1 45 1 1 (45)
I0805 05:35:23.929675 16044 net.cpp:172] fc3 does not need backward computation.
I0805 05:35:23.929723 16044 net.cpp:172] htanh does not need backward computation.
I0805 05:35:23.929759 16044 net.cpp:172] fc1 does not need backward computation.
I0805 05:35:23.929806 16044 net.cpp:208] This network produces output fc3
I0805 05:35:23.929847 16044 net.cpp:467] Collecting Learning Rate and Weight Decay.
I0805 05:35:23.929896 16044 net.cpp:219] Network initialization done.
I0805 05:35:23.929932 16044 net.cpp:220] Memory required for data: 2580
I0805 05:35:23.936161 16044 tonic.cpp:31] Reshaping input to dims: 28 300 1 1
I0805 05:35:23.936398 16044 tonic.cpp:37] Reshaping output to dims: 28 45 1 1
I0805 05:35:23.939842 16044 tonic.cpp:31] Reshaping input to dims: 28 300 1 1
I0805 05:35:23.940032 16044 tonic.cpp:37] Reshaping output to dims: 28 42 1 1
Command terminated by signal 9
93.46user 6.54system 2:25.87elapsed 68%CPU (0avgtext+0avgdata 15456816maxresident)k
183832inputs+0outputs (61major+1215277minor)pagefaults 0swaps
---------------------------------------------------------
colocating with mcf
nlp-ner
********* Setting up benchmark nlp
********* Running benchmark as ./tonic-nlp-ner
WARNING: Logging before InitGoogleLogging() is written to STDERR
I0805 05:38:01.575259  3570 net.cpp:39] Initializing net from parameters: 
name: "ner"
layers {
  bottom: "data"
  top: "fc1"
  name: "fc1"
  type: INNER_PRODUCT
  inner_product_param {
    num_output: 300
  }
}
layers {
  bottom: "fc1"
  top: "htanh"
  name: "htanh"
  type: HTANH
}
layers {
  bottom: "htanh"
  top: "fc3"
  name: "fc3"
  type: INNER_PRODUCT
  inner_product_param {
    num_output: 17
  }
}
input: "data"
input_dim: 1
input_dim: 375
input_dim: 1
input_dim: 1
I0805 05:38:01.575650  3570 net.cpp:358] Input 0 -> data
I0805 05:38:01.575762  3570 net.cpp:67] Creating Layer fc1
I0805 05:38:01.575812  3570 net.cpp:394] fc1 <- data
I0805 05:38:01.575872  3570 net.cpp:356] fc1 -> fc1
I0805 05:38:01.575940  3570 net.cpp:96] Setting up fc1
I0805 05:38:01.577458  3570 net.cpp:103] Top shape: 1 300 1 1 (300)
I0805 05:38:01.577816  3570 net.cpp:67] Creating Layer htanh
I0805 05:38:01.578009  3570 net.cpp:394] htanh <- fc1
I0805 05:38:01.578058  3570 net.cpp:356] htanh -> htanh
I0805 05:38:01.578121  3570 net.cpp:96] Setting up htanh
I0805 05:38:01.578168  3570 net.cpp:103] Top shape: 1 300 1 1 (300)
I0805 05:38:01.578223  3570 net.cpp:67] Creating Layer fc3
I0805 05:38:01.578263  3570 net.cpp:394] fc3 <- htanh
I0805 05:38:01.578313  3570 net.cpp:356] fc3 -> fc3
I0805 05:38:01.578371  3570 net.cpp:96] Setting up fc3
I0805 05:38:01.578445  3570 net.cpp:103] Top shape: 1 17 1 1 (17)
I0805 05:38:01.578505  3570 net.cpp:172] fc3 does not need backward computation.
I0805 05:38:01.578555  3570 net.cpp:172] htanh does not need backward computation.
I0805 05:38:01.578604  3570 net.cpp:172] fc1 does not need backward computation.
I0805 05:38:01.578642  3570 net.cpp:208] This network produces output fc3
I0805 05:38:01.578704  3570 net.cpp:467] Collecting Learning Rate and Weight Decay.
I0805 05:38:01.578752  3570 net.cpp:219] Network initialization done.
I0805 05:38:01.578799  3570 net.cpp:220] Memory required for data: 2468
I0805 05:38:01.587337  3570 tonic.cpp:31] Reshaping input to dims: 28 375 1 1
I0805 05:38:01.587466  3570 tonic.cpp:37] Reshaping output to dims: 28 17 1 1
Command terminated by signal 9
72.81user 5.64system 1:54.98elapsed 68%CPU (0avgtext+0avgdata 15465024maxresident)k
182720inputs+0outputs (60major+1213164minor)pagefaults 0swaps
---------------------------------------------------------
colocating with mcf
nlp-ner
********* Setting up benchmark nlp
********* Running benchmark as ./tonic-nlp-ner
WARNING: Logging before InitGoogleLogging() is written to STDERR
I0805 06:46:13.838006 18908 net.cpp:39] Initializing net from parameters: 
name: "ner"
layers {
  bottom: "data"
  top: "fc1"
  name: "fc1"
  type: INNER_PRODUCT
  inner_product_param {
    num_output: 300
  }
}
layers {
  bottom: "fc1"
  top: "htanh"
  name: "htanh"
  type: HTANH
}
layers {
  bottom: "htanh"
  top: "fc3"
  name: "fc3"
  type: INNER_PRODUCT
  inner_product_param {
    num_output: 17
  }
}
input: "data"
input_dim: 1
input_dim: 375
input_dim: 1
input_dim: 1
I0805 06:46:13.845914 18908 net.cpp:358] Input 0 -> data
I0805 06:46:13.846078 18908 net.cpp:67] Creating Layer fc1
I0805 06:46:13.846129 18908 net.cpp:394] fc1 <- data
I0805 06:46:13.846195 18908 net.cpp:356] fc1 -> fc1
I0805 06:46:13.846276 18908 net.cpp:96] Setting up fc1
I0805 06:46:13.847196 18908 net.cpp:103] Top shape: 1 300 1 1 (300)
I0805 06:46:13.847867 18908 net.cpp:67] Creating Layer htanh
I0805 06:46:13.847918 18908 net.cpp:394] htanh <- fc1
I0805 06:46:13.847959 18908 net.cpp:356] htanh -> htanh
I0805 06:46:13.848022 18908 net.cpp:96] Setting up htanh
I0805 06:46:13.848067 18908 net.cpp:103] Top shape: 1 300 1 1 (300)
I0805 06:46:13.848141 18908 net.cpp:67] Creating Layer fc3
I0805 06:46:13.854053 18908 net.cpp:394] fc3 <- htanh
I0805 06:46:13.854238 18908 net.cpp:356] fc3 -> fc3
I0805 06:46:13.854310 18908 net.cpp:96] Setting up fc3
I0805 06:46:13.854389 18908 net.cpp:103] Top shape: 1 17 1 1 (17)
I0805 06:46:13.854460 18908 net.cpp:172] fc3 does not need backward computation.
I0805 06:46:13.854509 18908 net.cpp:172] htanh does not need backward computation.
I0805 06:46:13.854544 18908 net.cpp:172] fc1 does not need backward computation.
I0805 06:46:13.854594 18908 net.cpp:208] This network produces output fc3
I0805 06:46:13.854660 18908 net.cpp:467] Collecting Learning Rate and Weight Decay.
I0805 06:46:13.854706 18908 net.cpp:219] Network initialization done.
I0805 06:46:13.854742 18908 net.cpp:220] Memory required for data: 2468
I0805 06:46:13.864790 18908 tonic.cpp:31] Reshaping input to dims: 28 375 1 1
I0805 06:46:13.864931 18908 tonic.cpp:37] Reshaping output to dims: 28 17 1 1
Command terminated by signal 9
72.23user 5.28system 1:51.66elapsed 69%CPU (0avgtext+0avgdata 15388592maxresident)k
298664inputs+0outputs (533major+1211791minor)pagefaults 0swaps
---------------------------------------------------------
colocating with mcf
nlp-ner
********* Setting up benchmark nlp
********* Running benchmark as ./tonic-nlp-ner
WARNING: Logging before InitGoogleLogging() is written to STDERR
I0805 06:48:16.603579   616 net.cpp:39] Initializing net from parameters: 
name: "ner"
layers {
  bottom: "data"
  top: "fc1"
  name: "fc1"
  type: INNER_PRODUCT
  inner_product_param {
    num_output: 300
  }
}
layers {
  bottom: "fc1"
  top: "htanh"
  name: "htanh"
  type: HTANH
}
layers {
  bottom: "htanh"
  top: "fc3"
  name: "fc3"
  type: INNER_PRODUCT
  inner_product_param {
    num_output: 17
  }
}
input: "data"
input_dim: 1
input_dim: 375
input_dim: 1
input_dim: 1
I0805 06:48:16.603953   616 net.cpp:358] Input 0 -> data
I0805 06:48:16.604082   616 net.cpp:67] Creating Layer fc1
I0805 06:48:16.604130   616 net.cpp:394] fc1 <- data
I0805 06:48:16.604168   616 net.cpp:356] fc1 -> fc1
I0805 06:48:16.604253   616 net.cpp:96] Setting up fc1
I0805 06:48:16.605088   616 net.cpp:103] Top shape: 1 300 1 1 (300)
I0805 06:48:16.605547   616 net.cpp:67] Creating Layer htanh
I0805 06:48:16.605590   616 net.cpp:394] htanh <- fc1
I0805 06:48:16.605653   616 net.cpp:356] htanh -> htanh
I0805 06:48:16.605700   616 net.cpp:96] Setting up htanh
I0805 06:48:16.605754   616 net.cpp:103] Top shape: 1 300 1 1 (300)
I0805 06:48:16.605797   616 net.cpp:67] Creating Layer fc3
I0805 06:48:16.605844   616 net.cpp:394] fc3 <- htanh
I0805 06:48:16.605893   616 net.cpp:356] fc3 -> fc3
I0805 06:48:16.605937   616 net.cpp:96] Setting up fc3
I0805 06:48:16.606021   616 net.cpp:103] Top shape: 1 17 1 1 (17)
I0805 06:48:16.606070   616 net.cpp:172] fc3 does not need backward computation.
I0805 06:48:16.606119   616 net.cpp:172] htanh does not need backward computation.
I0805 06:48:16.606154   616 net.cpp:172] fc1 does not need backward computation.
I0805 06:48:16.606199   616 net.cpp:208] This network produces output fc3
I0805 06:48:16.606253   616 net.cpp:467] Collecting Learning Rate and Weight Decay.
…
