…
---------------------------------------------------------
colocating with libquantum
crf
********* Setting up benchmark crf
********* Running benchmark as ./crf_tag
1173.20user 6.53system 33:40.06elapsed 58%CPU (0avgtext+0avgdata 387520maxresident)k
0inputs+8outputs (0major+28831minor)pagefaults 0swaps
---------------------------------------------------------
colocating with libquantum
img-imc
********* Setting up benchmark img
********* Running benchmark as ./tonic-img-imc
WARNING: Logging before InitGoogleLogging() is written to STDERR
I0802 09:00:13.886718 22364 net.cpp:39] Initializing net from parameters: 
name: "imc"
layers {
  bottom: "data"
  top: "conv1"
  name: "conv1"
  type: CONVOLUTION
  convolution_param {
    num_output: 96
    kernel_size: 11
    stride: 4
  }
}
layers {
  bottom: "conv1"
  top: "conv1"
  name: "relu1"
  type: RELU
}
layers {
  bottom: "conv1"
  top: "pool1"
  name: "pool1"
  type: POOLING
  pooling_param {
    pool: MAX
    kernel_size: 3
    stride: 2
  }
}
layers {
  bottom: "pool1"
  top: "norm1"
  name: "norm1"
  type: LRN
  lrn_param {
    local_size: 5
    alpha: 0.0001
    beta: 0.75
  }
}
layers {
  bottom: "norm1"
  top: "conv2"
  name: "conv2"
  type: CONVOLUTION
  convolution_param {
    num_output: 256
    pad: 2
    kernel_size: 5
    group: 2
  }
}
layers {
  bottom: "conv2"
  top: "conv2"
  name: "relu2"
  type: RELU
}
layers {
  bottom: "conv2"
  top: "pool2"
  name: "pool2"
  type: POOLING
  pooling_param {
    pool: MAX
    kernel_size: 3
    stride: 2
  }
}
layers {
  bottom: "pool2"
  top: "norm2"
  name: "norm2"
  type: LRN
  lrn_param {
    local_size: 5
    alpha: 0.0001
    beta: 0.75
  }
}
layers {
  bottom: "norm2"
  top: "conv3"
  name: "conv3"
  type: CONVOLUTION
  convolution_param {
    num_output: 384
    pad: 1
    kernel_size: 3
  }
}
layers {
  bottom: "conv3"
  top: "conv3"
  name: "relu3"
  type: RELU
}
layers {
  bottom: "conv3"
  top: "conv4"
  name: "conv4"
  type: CONVOLUTION
  convolution_param {
    num_output: 384
    pad: 1
    kernel_size: 3
    group: 2
  }
}
layers {
  bottom: "conv4"
  top: "conv4"
  name: "relu4"
  type: RELU
}
layers {
  bottom: "conv4"
  top: "conv5"
  name: "conv5"
  type: CONVOLUTION
  convolution_param {
    num_output: 256
    pad: 1
    kernel_size: 3
    group: 2
  }
}
layers {
  bottom: "conv5"
  top: "conv5"
  name: "relu5"
  type: RELU
}
layers {
  bottom: "conv5"
  top: "pool5"
  name: "pool5"
  type: POOLING
  pooling_param {
    pool: MAX
    kernel_size: 3
    stride: 2
  }
}
layers {
  bottom: "pool5"
  top: "fc6"
  name: "fc6"
  type: INNER_PRODUCT
  inner_product_param {
    num_output: 4096
  }
}
layers {
  bottom: "fc6"
  top: "fc6"
  name: "relu6"
  type: RELU
}
layers {
  bottom: "fc6"
  top: "fc6"
  name: "drop6"
  type: DROPOUT
  dropout_param {
    dropout_ratio: 0.5
  }
}
layers {
  bottom: "fc6"
  top: "fc7"
  name: "fc7"
  type: INNER_PRODUCT
  inner_product_param {
    num_output: 4096
  }
}
layers {
  bottom: "fc7"
  top: "fc7"
  name: "relu7"
  type: RELU
}
layers {
  bottom: "fc7"
  top: "fc7"
  name: "drop7"
  type: DROPOUT
  dropout_param {
    dropout_ratio: 0.5
  }
}
layers {
  bottom: "fc7"
  top: "fc8"
  name: "fc8"
  type: INNER_PRODUCT
  inner_product_param {
    num_output: 1000
  }
}
layers {
  bottom: "fc8"
  top: "prob"
  name: "prob"
  type: SOFTMAX
}
layers {
  bottom: "prob"
  top: "argmax"
  name: "argmax"
  type: ARGMAX
}
input: "data"
input_dim: 1
input_dim: 3
input_dim: 227
input_dim: 227
I0802 09:00:13.888391 22364 net.cpp:358] Input 0 -> data
I0802 09:00:13.888743 22364 net.cpp:67] Creating Layer conv1
I0802 09:00:13.888815 22364 net.cpp:394] conv1 <- data
I0802 09:00:13.888876 22364 net.cpp:356] conv1 -> conv1
I0802 09:00:13.889021 22364 net.cpp:96] Setting up conv1
I0802 09:00:13.892894 22364 net.cpp:103] Top shape: 1 96 55 55 (290400)
I0802 09:00:13.894507 22364 net.cpp:67] Creating Layer relu1
I0802 09:00:13.894618 22364 net.cpp:394] relu1 <- conv1
I0802 09:00:13.894690 22364 net.cpp:345] relu1 -> conv1 (in-place)
I0802 09:00:13.894922 22364 net.cpp:96] Setting up relu1
I0802 09:00:13.894999 22364 net.cpp:103] Top shape: 1 96 55 55 (290400)
I0802 09:00:13.895068 22364 net.cpp:67] Creating Layer pool1
I0802 09:00:13.895128 22364 net.cpp:394] pool1 <- conv1
I0802 09:00:13.895184 22364 net.cpp:356] pool1 -> pool1
I0802 09:00:13.895274 22364 net.cpp:96] Setting up pool1
I0802 09:00:13.896850 22364 net.cpp:103] Top shape: 1 96 27 27 (69984)
I0802 09:00:13.897245 22364 net.cpp:67] Creating Layer norm1
I0802 09:00:13.897305 22364 net.cpp:394] norm1 <- pool1
I0802 09:00:13.897470 22364 net.cpp:356] norm1 -> norm1
I0802 09:00:13.897579 22364 net.cpp:96] Setting up norm1
I0802 09:00:13.897652 22364 net.cpp:103] Top shape: 1 96 27 27 (69984)
I0802 09:00:13.897780 22364 net.cpp:67] Creating Layer conv2
I0802 09:00:13.897830 22364 net.cpp:394] conv2 <- norm1
I0802 09:00:13.897883 22364 net.cpp:356] conv2 -> conv2
I0802 09:00:13.897953 22364 net.cpp:96] Setting up conv2
I0802 09:00:13.899514 22364 net.cpp:103] Top shape: 1 256 27 27 (186624)
I0802 09:00:13.899988 22364 net.cpp:67] Creating Layer relu2
I0802 09:00:13.900043 22364 net.cpp:394] relu2 <- conv2
I0802 09:00:13.900189 22364 net.cpp:345] relu2 -> conv2 (in-place)
I0802 09:00:13.900275 22364 net.cpp:96] Setting up relu2
I0802 09:00:13.900332 22364 net.cpp:103] Top shape: 1 256 27 27 (186624)
I0802 09:00:13.900390 22364 net.cpp:67] Creating Layer pool2
I0802 09:00:13.900444 22364 net.cpp:394] pool2 <- conv2
I0802 09:00:13.900493 22364 net.cpp:356] pool2 -> pool2
I0802 09:00:13.900563 22364 net.cpp:96] Setting up pool2
I0802 09:00:13.900625 22364 net.cpp:103] Top shape: 1 256 13 13 (43264)
I0802 09:00:13.900713 22364 net.cpp:67] Creating Layer norm2
I0802 09:00:13.900758 22364 net.cpp:394] norm2 <- pool2
I0802 09:00:13.900820 22364 net.cpp:356] norm2 -> norm2
I0802 09:00:13.900887 22364 net.cpp:96] Setting up norm2
I0802 09:00:13.900954 22364 net.cpp:103] Top shape: 1 256 13 13 (43264)
I0802 09:00:13.901031 22364 net.cpp:67] Creating Layer conv3
I0802 09:00:13.901087 22364 net.cpp:394] conv3 <- norm2
I0802 09:00:13.901149 22364 net.cpp:356] conv3 -> conv3
I0802 09:00:13.901217 22364 net.cpp:96] Setting up conv3
I0802 09:00:13.906929 22364 net.cpp:103] Top shape: 1 384 13 13 (64896)
I0802 09:00:13.907563 22364 net.cpp:67] Creating Layer relu3
I0802 09:00:13.907692 22364 net.cpp:394] relu3 <- conv3
I0802 09:00:13.907773 22364 net.cpp:345] relu3 -> conv3 (in-place)
I0802 09:00:13.907951 22364 net.cpp:96] Setting up relu3
I0802 09:00:13.908002 22364 net.cpp:103] Top shape: 1 384 13 13 (64896)
I0802 09:00:13.908074 22364 net.cpp:67] Creating Layer conv4
I0802 09:00:13.908116 22364 net.cpp:394] conv4 <- conv3
I0802 09:00:13.908179 22364 net.cpp:356] conv4 -> conv4
I0802 09:00:13.908251 22364 net.cpp:96] Setting up conv4
I0802 09:00:13.912629 22364 net.cpp:103] Top shape: 1 384 13 13 (64896)
I0802 09:00:13.913326 22364 net.cpp:67] Creating Layer relu4
I0802 09:00:13.913396 22364 net.cpp:394] relu4 <- conv4
I0802 09:00:13.913578 22364 net.cpp:345] relu4 -> conv4 (in-place)
I0802 09:00:13.913668 22364 net.cpp:96] Setting up relu4
I0802 09:00:13.913717 22364 net.cpp:103] Top shape: 1 384 13 13 (64896)
I0802 09:00:13.913807 22364 net.cpp:67] Creating Layer conv5
I0802 09:00:13.913849 22364 net.cpp:394] conv5 <- conv4
I0802 09:00:13.913915 22364 net.cpp:356] conv5 -> conv5
I0802 09:00:13.913974 22364 net.cpp:96] Setting up conv5
I0802 09:00:13.916211 22364 net.cpp:103] Top shape: 1 256 13 13 (43264)
I0802 09:00:13.916908 22364 net.cpp:67] Creating Layer relu5
I0802 09:00:13.916993 22364 net.cpp:394] relu5 <- conv5
I0802 09:00:13.917152 22364 net.cpp:345] relu5 -> conv5 (in-place)
I0802 09:00:13.917268 22364 net.cpp:96] Setting up relu5
I0802 09:00:13.917315 22364 net.cpp:103] Top shape: 1 256 13 13 (43264)
I0802 09:00:13.917378 22364 net.cpp:67] Creating Layer pool5
I0802 09:00:13.917454 22364 net.cpp:394] pool5 <- conv5
I0802 09:00:13.917512 22364 net.cpp:356] pool5 -> pool5
I0802 09:00:13.917596 22364 net.cpp:96] Setting up pool5
I0802 09:00:13.917672 22364 net.cpp:103] Top shape: 1 256 6 6 (9216)
I0802 09:00:13.917757 22364 net.cpp:67] Creating Layer fc6
I0802 09:00:13.917804 22364 net.cpp:394] fc6 <- pool5
I0802 09:00:13.917875 22364 net.cpp:356] fc6 -> fc6
I0802 09:00:13.917992 22364 net.cpp:96] Setting up fc6
I0802 09:00:14.661207 22364 net.cpp:103] Top shape: 1 4096 1 1 (4096)
I0802 09:00:14.662027 22364 net.cpp:67] Creating Layer relu6
I0802 09:00:14.662099 22364 net.cpp:394] relu6 <- fc6
I0802 09:00:14.662163 22364 net.cpp:345] relu6 -> fc6 (in-place)
I0802 09:00:14.662295 22364 net.cpp:96] Setting up relu6
I0802 09:00:14.662363 22364 net.cpp:103] Top shape: 1 4096 1 1 (4096)
I0802 09:00:14.662428 22364 net.cpp:67] Creating Layer drop6
I0802 09:00:14.662475 22364 net.cpp:394] drop6 <- fc6
I0802 09:00:14.662545 22364 net.cpp:345] drop6 -> fc6 (in-place)
I0802 09:00:14.662650 22364 net.cpp:96] Setting up drop6
I0802 09:00:14.662757 22364 net.cpp:103] Top shape: 1 4096 1 1 (4096)
I0802 09:00:14.662822 22364 net.cpp:67] Creating Layer fc7
I0802 09:00:14.662868 22364 net.cpp:394] fc7 <- fc6
I0802 09:00:14.662966 22364 net.cpp:356] fc7 -> fc7
I0802 09:00:14.663041 22364 net.cpp:96] Setting up fc7
I0802 09:00:14.944000 22364 net.cpp:103] Top shape: 1 4096 1 1 (4096)
I0802 09:00:14.944689 22364 net.cpp:67] Creating Layer relu7
I0802 09:00:14.944775 22364 net.cpp:394] relu7 <- fc7
I0802 09:00:14.944855 22364 net.cpp:345] relu7 -> fc7 (in-place)
I0802 09:00:14.944974 22364 net.cpp:96] Setting up relu7
I0802 09:00:14.945039 22364 net.cpp:103] Top shape: 1 4096 1 1 (4096)
I0802 09:00:14.945082 22364 net.cpp:67] Creating Layer drop7
I0802 09:00:14.945127 22364 net.cpp:394] drop7 <- fc7
I0802 09:00:14.945212 22364 net.cpp:345] drop7 -> fc7 (in-place)
I0802 09:00:14.945273 22364 net.cpp:96] Setting up drop7
I0802 09:00:14.945350 22364 net.cpp:103] Top shape: 1 4096 1 1 (4096)
I0802 09:00:14.945422 22364 net.cpp:67] Creating Layer fc8
I0802 09:00:14.945475 22364 net.cpp:394] fc8 <- fc7
I0802 09:00:14.945549 22364 net.cpp:356] fc8 -> fc8
I0802 09:00:14.945647 22364 net.cpp:96] Setting up fc8
I0802 09:00:15.011013 22364 net.cpp:103] Top shape: 1 1000 1 1 (1000)
I0802 09:00:15.011895 22364 net.cpp:67] Creating Layer prob
I0802 09:00:15.011970 22364 net.cpp:394] prob <- fc8
I0802 09:00:15.012048 22364 net.cpp:356] prob -> prob
I0802 09:00:15.012166 22364 net.cpp:96] Setting up prob
I0802 09:00:15.012362 22364 net.cpp:103] Top shape: 1 1000 1 1 (1000)
I0802 09:00:15.012483 22364 net.cpp:67] Creating Layer argmax
I0802 09:00:15.012538 22364 net.cpp:394] argmax <- prob
I0802 09:00:15.012608 22364 net.cpp:356] argmax -> argmax
I0802 09:00:15.012672 22364 net.cpp:96] Setting up argmax
I0802 09:00:15.013649 22364 net.cpp:103] Top shape: 1 1 1 1 (1)
I0802 09:00:15.013785 22364 net.cpp:172] argmax does not need backward computation.
I0802 09:00:15.013838 22364 net.cpp:172] prob does not need backward computation.
I0802 09:00:15.013916 22364 net.cpp:172] fc8 does not need backward computation.
I0802 09:00:15.013969 22364 net.cpp:172] drop7 does not need backward computation.
I0802 09:00:15.014019 22364 net.cpp:172] relu7 does not need backward computation.
…
I0802 10:32:27.799250  8541 img-client.cpp:222] Image: input/imc/cat-281-227.jpg class: 281
I0802 10:32:27.800159  8541 img-client.cpp:222] Image: input/imc/tp-999-227.jpg class: 999
643.34user 4.18system 18:27.34elapsed 58%CPU (0avgtext+0avgdata 2216528maxresident)k
0inputs+8outputs (0major+217372minor)pagefaults 0swaps
---------------------------------------------------------
colocating with libquantum
img-dig
********* Setting up benchmark img
********* Running benchmark as ./tonic-img-dig
WARNING: Logging before InitGoogleLogging() is written to STDERR
I0802 10:32:39.227408 30684 net.cpp:39] Initializing net from parameters: 
name: "dig"
layers {
  bottom: "data"
  top: "conv1"
  name: "conv1"
  type: CONVOLUTION
  convolution_param {
    num_output: 20
    kernel_size: 5
    stride: 1
    weight_filler {
      type: "xavier"
    }
    bias_filler {
      type: "constant"
    }
  }
}
layers {
  bottom: "conv1"
  top: "pool1"
  name: "pool1"
  type: POOLING
  pooling_param {
    pool: MAX
    kernel_size: 2
    stride: 2
  }
}
layers {
  bottom: "pool1"
  top: "conv2"
  name: "conv2"
  type: CONVOLUTION
  convolution_param {
    num_output: 50
    kernel_size: 5
    stride: 1
    weight_filler {
      type: "xavier"
    }
    bias_filler {
      type: "constant"
    }
  }
}
layers {
  bottom: "conv2"
  top: "pool2"
  name: "pool2"
  type: POOLING
  pooling_param {
    pool: MAX
    kernel_size: 2
    stride: 2
  }
}
layers {
  bottom: "pool2"
  top: "ip1"
  name: "ip1"
  type: INNER_PRODUCT
  inner_product_param {
    num_output: 500
    weight_filler {
      type: "xavier"
    }
    bias_filler {
      type: "constant"
    }
  }
}
layers {
  bottom: "ip1"
  top: "ip1"
  name: "relu1"
  type: RELU
}
layers {
  bottom: "ip1"
  top: "ip2"
  name: "ip2"
  type: INNER_PRODUCT
  inner_product_param {
    num_output: 10
    weight_filler {
      type: "xavier"
    }
    bias_filler {
      type: "constant"
    }
  }
}
layers {
  bottom: "ip2"
  top: "prob"
  name: "prob"
  type: SOFTMAX
}
layers {
  bottom: "prob"
  top: "argmax"
  name: "argmax"
  type: ARGMAX
}
input: "data"
input_dim: 1
input_dim: 1
input_dim: 28
input_dim: 28
I0802 10:32:39.229074 30684 net.cpp:358] Input 0 -> data
I0802 10:32:39.229480 30684 net.cpp:67] Creating Layer conv1
I0802 10:32:39.229555 30684 net.cpp:394] conv1 <- data
I0802 10:32:39.229634 30684 net.cpp:356] conv1 -> conv1
I0802 10:32:39.229883 30684 net.cpp:96] Setting up conv1
I0802 10:32:39.230857 30684 net.cpp:103] Top shape: 1 20 24 24 (11520)
I0802 10:32:39.231173 30684 net.cpp:67] Creating Layer pool1
I0802 10:32:39.231235 30684 net.cpp:394] pool1 <- conv1
I0802 10:32:39.231335 30684 net.cpp:356] pool1 -> pool1
I0802 10:32:39.231432 30684 net.cpp:96] Setting up pool1
I0802 10:32:39.231539 30684 net.cpp:103] Top shape: 1 20 12 12 (2880)
I0802 10:32:39.231681 30684 net.cpp:67] Creating Layer conv2
I0802 10:32:39.231739 30684 net.cpp:394] conv2 <- pool1
I0802 10:32:39.231791 30684 net.cpp:356] conv2 -> conv2
I0802 10:32:39.231859 30684 net.cpp:96] Setting up conv2
I0802 10:32:39.232295 30684 net.cpp:103] Top shape: 1 50 8 8 (3200)
I0802 10:32:39.232417 30684 net.cpp:67] Creating Layer pool2
I0802 10:32:39.232465 30684 net.cpp:394] pool2 <- conv2
I0802 10:32:39.232532 30684 net.cpp:356] pool2 -> pool2
I0802 10:32:39.232581 30684 net.cpp:96] Setting up pool2
I0802 10:32:39.232648 30684 net.cpp:103] Top shape: 1 50 4 4 (800)
I0802 10:32:39.232722 30684 net.cpp:67] Creating Layer ip1
I0802 10:32:39.232777 30684 net.cpp:394] ip1 <- pool2
I0802 10:32:39.232834 30684 net.cpp:356] ip1 -> ip1
I0802 10:32:39.232935 30684 net.cpp:96] Setting up ip1
I0802 10:32:39.238935 30684 net.cpp:103] Top shape: 1 500 1 1 (500)
I0802 10:32:39.239747 30684 net.cpp:67] Creating Layer relu1
I0802 10:32:39.239816 30684 net.cpp:394] relu1 <- ip1
I0802 10:32:39.239997 30684 net.cpp:345] relu1 -> ip1 (in-place)
I0802 10:32:39.240102 30684 net.cpp:96] Setting up relu1
I0802 10:32:39.240223 30684 net.cpp:103] Top shape: 1 500 1 1 (500)
I0802 10:32:39.240304 30684 net.cpp:67] Creating Layer ip2
I0802 10:32:39.240350 30684 net.cpp:394] ip2 <- ip1
I0802 10:32:39.240418 30684 net.cpp:356] ip2 -> ip2
I0802 10:32:39.240489 30684 net.cpp:96] Setting up ip2
I0802 10:32:39.240721 30684 net.cpp:103] Top shape: 1 10 1 1 (10)
I0802 10:32:39.240816 30684 net.cpp:67] Creating Layer prob
I0802 10:32:39.240893 30684 net.cpp:394] prob <- ip2
I0802 10:32:39.240952 30684 net.cpp:356] prob -> prob
I0802 10:32:39.241029 30684 net.cpp:96] Setting up prob
I0802 10:32:39.241096 30684 net.cpp:103] Top shape: 1 10 1 1 (10)
I0802 10:32:39.241179 30684 net.cpp:67] Creating Layer argmax
I0802 10:32:39.241228 30684 net.cpp:394] argmax <- prob
I0802 10:32:39.241305 30684 net.cpp:356] argmax -> argmax
I0802 10:32:39.241390 30684 net.cpp:96] Setting up argmax
I0802 10:32:39.241498 30684 net.cpp:103] Top shape: 1 1 1 1 (1)
I0802 10:32:39.241550 30684 net.cpp:172] argmax does not need backward computation.
I0802 10:32:39.241641 30684 net.cpp:172] prob does not need backward computation.
I0802 10:32:39.241684 30684 net.cpp:172] ip2 does not need backward computation.
I0802 10:32:39.241742 30684 net.cpp:172] relu1 does not need backward computation.
I0802 10:32:39.241789 30684 net.cpp:172] ip1 does not need backward computation.
…
I0802 12:09:47.088141  2391 img-client.cpp:222] Image: input/dig/8.png class: 8
I0802 12:09:47.088235  2391 img-client.cpp:222] Image: input/dig/9.png class: 9
668.22user 4.00system 19:13.02elapsed 58%CPU (0avgtext+0avgdata 177712maxresident)k
0inputs+8outputs (0major+11940minor)pagefaults 0swaps
---------------------------------------------------------
colocating with libquantum
img-face
********* Setting up benchmark img
********* Running benchmark as ./tonic-img-face
WARNING: Logging before InitGoogleLogging() is written to STDERR
I0802 12:09:58.434960 26995 net.cpp:39] Initializing net from parameters: 
name: "face"
layers {
  bottom: "data"
  top: "conv1"
  name: "conv1"
  type: CONVOLUTION
  convolution_param {
    num_output: 32
    kernel_size: 11
    stride: 1
  }
}
layers {
  bottom: "conv1"
  top: "pool2"
  name: "pool2"
  type: POOLING
  pooling_param {
    pool: MAX
    kernel_size: 3
    stride: 2
  }
}
layers {
  bottom: "pool2"
  top: "conv3"
  name: "conv3"
  type: CONVOLUTION
  convolution_param {
    num_output: 16
    kernel_size: 9
    stride: 1
  }
}
layers {
  bottom: "conv3"
  top: "local4"
  name: "local4"
  type: LOCAL
  local_param {
    num_output: 16
    kernel_size: 9
    stride: 1
  }
}
layers {
  bottom: "local4"
  top: "local5"
  name: "local5"
  type: LOCAL
  local_param {
    num_output: 16
    kernel_size: 7
    stride: 2
  }
}
layers {
  bottom: "local5"
  top: "local6"
  name: "local6"
  type: LOCAL
  local_param {
    num_output: 16
    kernel_size: 5
    stride: 1
  }
}
layers {
  bottom: "local6"
  top: "fc7"
  name: "fc7"
  type: INNER_PRODUCT
  inner_product_param {
    num_output: 4096
  }
}
layers {
  bottom: "fc7"
  top: "fc8"
  name: "fc8"
  type: INNER_PRODUCT
  inner_product_param {
    num_output: 83
  }
}
layers {
  bottom: "fc8"
  top: "prob"
  name: "prob"
  type: SOFTMAX
}
layers {
  bottom: "prob"
  top: "argmax"
  name: "argmax"
  type: ARGMAX
}
input: "data"
input_dim: 1
input_dim: 3
input_dim: 152
input_dim: 152
I0802 12:09:58.436775 26995 net.cpp:358] Input 0 -> data
I0802 12:09:58.437221 26995 net.cpp:67] Creating Layer conv1
I0802 12:09:58.437311 26995 net.cpp:394] conv1 <- data
I0802 12:09:58.437391 26995 net.cpp:356] conv1 -> conv1
I0802 12:09:58.437543 26995 net.cpp:96] Setting up conv1
I0802 12:09:58.438268 26995 net.cpp:103] Top shape: 1 32 142 142 (645248)
I0802 12:09:58.438515 26995 net.cpp:67] Creating Layer pool2
I0802 12:09:58.438565 26995 net.cpp:394] pool2 <- conv1
I0802 12:09:58.438634 26995 net.cpp:356] pool2 -> pool2
I0802 12:09:58.438714 26995 net.cpp:96] Setting up pool2
I0802 12:09:58.438848 26995 net.cpp:103] Top shape: 1 32 71 71 (161312)
I0802 12:09:58.438911 26995 net.cpp:67] Creating Layer conv3
I0802 12:09:58.438977 26995 net.cpp:394] conv3 <- pool2
I0802 12:09:58.439030 26995 net.cpp:356] conv3 -> conv3
I0802 12:09:58.439102 26995 net.cpp:96] Setting up conv3
I0802 12:09:58.439657 26995 net.cpp:103] Top shape: 1 16 63 63 (63504)
I0802 12:09:58.439777 26995 net.cpp:67] Creating Layer local4
I0802 12:09:58.439839 26995 net.cpp:394] local4 <- conv3
I0802 12:09:58.439930 26995 net.cpp:356] local4 -> local4
I0802 12:09:58.440006 26995 net.cpp:96] Setting up local4
I0802 12:10:00.190579 26995 net.cpp:103] Top shape: 1 16 55 55 (48400)
I0802 12:10:00.191277 26995 net.cpp:67] Creating Layer local5
I0802 12:10:00.191347 26995 net.cpp:394] local5 <- local4
I0802 12:10:00.191442 26995 net.cpp:356] local5 -> local5
I0802 12:10:00.191542 26995 net.cpp:96] Setting up local5
I0802 12:10:00.379338 26995 net.cpp:103] Top shape: 1 16 25 25 (10000)
I0802 12:10:00.380206 26995 net.cpp:67] Creating Layer local6
I0802 12:10:00.380281 26995 net.cpp:394] local6 <- local5
I0802 12:10:00.380389 26995 net.cpp:356] local6 -> local6
I0802 12:10:00.380508 26995 net.cpp:96] Setting up local6
I0802 12:10:00.418390 26995 net.cpp:103] Top shape: 1 16 21 21 (7056)
I0802 12:10:00.419049 26995 net.cpp:67] Creating Layer fc7
I0802 12:10:00.419136 26995 net.cpp:394] fc7 <- local6
I0802 12:10:00.419255 26995 net.cpp:356] fc7 -> fc7
I0802 12:10:00.419415 26995 net.cpp:96] Setting up fc7
I0802 12:10:01.193517 26995 net.cpp:103] Top shape: 1 4096 1 1 (4096)
I0802 12:10:01.197190 26995 net.cpp:67] Creating Layer fc8
I0802 12:10:01.197679 26995 net.cpp:394] fc8 <- fc7
I0802 12:10:01.197883 26995 net.cpp:356] fc8 -> fc8
I0802 12:10:01.198051 26995 net.cpp:96] Setting up fc8
I0802 12:10:01.211554 26995 net.cpp:103] Top shape: 1 83 1 1 (83)
I0802 12:10:01.215013 26995 net.cpp:67] Creating Layer prob
I0802 12:10:01.215478 26995 net.cpp:394] prob <- fc8
I0802 12:10:01.215781 26995 net.cpp:356] prob -> prob
I0802 12:10:01.215911 26995 net.cpp:96] Setting up prob
I0802 12:10:01.216032 26995 net.cpp:103] Top shape: 1 83 1 1 (83)
I0802 12:10:01.216101 26995 net.cpp:67] Creating Layer argmax
I0802 12:10:01.216142 26995 net.cpp:394] argmax <- prob
I0802 12:10:01.216184 26995 net.cpp:356] argmax -> argmax
I0802 12:10:01.216254 26995 net.cpp:96] Setting up argmax
I0802 12:10:01.216327 26995 net.cpp:103] Top shape: 1 1 1 1 (1)
I0802 12:10:01.216382 26995 net.cpp:172] argmax does not need backward computation.
I0802 12:10:01.216482 26995 net.cpp:172] prob does not need backward computation.
I0802 12:10:01.216541 26995 net.cpp:172] fc8 does not need backward computation.
I0802 12:10:01.216598 26995 net.cpp:172] fc7 does not need backward computation.
I0802 12:10:01.216653 26995 net.cpp:172] local6 does not need backward computation.
…
I0802 13:50:19.794168  6634 img-client.cpp:222] Image: input/face/angelina-jolie-03-152.jpg class: 0
I0802 13:50:19.794544  6634 img-client.cpp:222] Image: input/face/daniel-craig-20-152.jpg class: 0
679.94user 4.52system 19:08.19elapsed 59%CPU (0avgtext+0avgdata 3593456maxresident)k
0inputs+8outputs (0major+342261minor)pagefaults 0swaps
---------------------------------------------------------
colocating with libquantum
nlp-pos
********* Setting up benchmark nlp
********* Running benchmark as ./tonic-nlp-pos
WARNING: Logging before InitGoogleLogging() is written to STDERR
I0802 13:50:31.895247  6059 net.cpp:39] Initializing net from parameters: 
name: "pos"
layers {
  bottom: "data"
  top: "fc1"
  name: "fc1"
  type: INNER_PRODUCT
  inner_product_param {
    num_output: 300
  }
}
layers {
  bottom: "fc1"
  top: "htanh"
  name: "htanh"
  type: HTANH
}
layers {
  bottom: "htanh"
  top: "fc3"
  name: "fc3"
  type: INNER_PRODUCT
  inner_product_param {
    num_output: 45
  }
}
input: "data"
input_dim: 1
input_dim: 300
input_dim: 1
input_dim: 1
I0802 13:50:31.901782  6059 net.cpp:358] Input 0 -> data
I0802 13:50:31.902158  6059 net.cpp:67] Creating Layer fc1
I0802 13:50:31.902238  6059 net.cpp:394] fc1 <- data
I0802 13:50:31.902318  6059 net.cpp:356] fc1 -> fc1
I0802 13:50:31.902483  6059 net.cpp:96] Setting up fc1
I0802 13:50:31.903174  6059 net.cpp:103] Top shape: 1 300 1 1 (300)
I0802 13:50:31.903448  6059 net.cpp:67] Creating Layer htanh
I0802 13:50:31.903518  6059 net.cpp:394] htanh <- fc1
I0802 13:50:31.903556  6059 net.cpp:356] htanh -> htanh
I0802 13:50:31.903838  6059 net.cpp:96] Setting up htanh
I0802 13:50:31.903945  6059 net.cpp:103] Top shape: 1 300 1 1 (300)
I0802 13:50:31.904012  6059 net.cpp:67] Creating Layer fc3
I0802 13:50:31.904064  6059 net.cpp:394] fc3 <- htanh
I0802 13:50:31.904137  6059 net.cpp:356] fc3 -> fc3
I0802 13:50:31.904201  6059 net.cpp:96] Setting up fc3
I0802 13:50:31.904347  6059 net.cpp:103] Top shape: 1 45 1 1 (45)
I0802 13:50:31.904412  6059 net.cpp:172] fc3 does not need backward computation.
I0802 13:50:31.904495  6059 net.cpp:172] htanh does not need backward computation.
I0802 13:50:31.904566  6059 net.cpp:172] fc1 does not need backward computation.
I0802 13:50:31.904618  6059 net.cpp:208] This network produces output fc3
I0802 13:50:31.904718  6059 net.cpp:467] Collecting Learning Rate and Weight Decay.
I0802 13:50:31.906370  6059 net.cpp:219] Network initialization done.
I0802 13:50:31.906479  6059 net.cpp:220] Memory required for data: 2580
I0802 13:50:31.930220  6059 tonic.cpp:31] Reshaping input to dims: 28 300 1 1
I0802 13:50:31.931520  6059 tonic.cpp:37] Reshaping output to dims: 28 45 1 1
---------------------------------------------------------
colocating with libquantum
nlp-pos
Command terminated by signal 9
128.61user 19.20system 4:11.49elapsed 58%CPU (0avgtext+0avgdata 15531984maxresident)k
1505960inputs+0outputs (5597major+1220335minor)pagefaults 0swaps
********* Setting up benchmark nlp
********* Running benchmark as ./tonic-nlp-pos
WARNING: Logging before InitGoogleLogging() is written to STDERR
I0802 13:54:44.783757 23441 net.cpp:39] Initializing net from parameters: 
name: "pos"
layers {
  bottom: "data"
  top: "fc1"
  name: "fc1"
  type: INNER_PRODUCT
  inner_product_param {
    num_output: 300
  }
}
layers {
  bottom: "fc1"
  top: "htanh"
  name: "htanh"
  type: HTANH
}
layers {
  bottom: "htanh"
  top: "fc3"
  name: "fc3"
  type: INNER_PRODUCT
  inner_product_param {
    num_output: 45
  }
}
input: "data"
input_dim: 1
input_dim: 300
input_dim: 1
input_dim: 1
I0802 13:54:44.785275 23441 net.cpp:358] Input 0 -> data
I0802 13:54:44.785570 23441 net.cpp:67] Creating Layer fc1
I0802 13:54:44.785641 23441 net.cpp:394] fc1 <- data
I0802 13:54:44.785696 23441 net.cpp:356] fc1 -> fc1
I0802 13:54:44.785831 23441 net.cpp:96] Setting up fc1
I0802 13:54:44.788105 23441 net.cpp:103] Top shape: 1 300 1 1 (300)
I0802 13:54:44.789574 23441 net.cpp:67] Creating Layer htanh
I0802 13:54:44.789660 23441 net.cpp:394] htanh <- fc1
I0802 13:54:44.789721 23441 net.cpp:356] htanh -> htanh
I0802 13:54:44.789929 23441 net.cpp:96] Setting up htanh
I0802 13:54:44.789997 23441 net.cpp:103] Top shape: 1 300 1 1 (300)
I0802 13:54:44.790055 23441 net.cpp:67] Creating Layer fc3
I0802 13:54:44.790101 23441 net.cpp:394] fc3 <- htanh
I0802 13:54:44.790166 23441 net.cpp:356] fc3 -> fc3
I0802 13:54:44.790251 23441 net.cpp:96] Setting up fc3
I0802 13:54:44.790472 23441 net.cpp:103] Top shape: 1 45 1 1 (45)
I0802 13:54:44.790539 23441 net.cpp:172] fc3 does not need backward computation.
I0802 13:54:44.790594 23441 net.cpp:172] htanh does not need backward computation.
I0802 13:54:44.790657 23441 net.cpp:172] fc1 does not need backward computation.
I0802 13:54:44.790705 23441 net.cpp:208] This network produces output fc3
I0802 13:54:44.790786 23441 net.cpp:467] Collecting Learning Rate and Weight Decay.
I0802 13:54:44.790858 23441 net.cpp:219] Network initialization done.
I0802 13:54:44.790917 23441 net.cpp:220] Memory required for data: 2580
I0802 13:54:44.821718 23441 tonic.cpp:31] Reshaping input to dims: 28 300 1 1
I0802 13:54:44.825242 23441 tonic.cpp:37] Reshaping output to dims: 28 45 1 1
Command terminated by signal 9
125.98user 10.75system 3:59.31elapsed 57%CPU (0avgtext+0avgdata 15462288maxresident)k
260576inputs+0outputs (383major+1216035minor)pagefaults 0swaps
---------------------------------------------------------
colocating with libquantum
nlp-pos
********* Setting up benchmark nlp
********* Running benchmark as ./tonic-nlp-pos
WARNING: Logging before InitGoogleLogging() is written to STDERR
I0802 13:58:54.340507  8533 net.cpp:39] Initializing net from parameters: 
name: "pos"
layers {
  bottom: "data"
  top: "fc1"
  name: "fc1"
  type: INNER_PRODUCT
  inner_product_param {
    num_output: 300
  }
}
layers {
  bottom: "fc1"
  top: "htanh"
  name: "htanh"
  type: HTANH
}
layers {
  bottom: "htanh"
  top: "fc3"
  name: "fc3"
  type: INNER_PRODUCT
  inner_product_param {
    num_output: 45
  }
}
input: "data"
input_dim: 1
input_dim: 300
input_dim: 1
input_dim: 1
I0802 13:58:54.343297  8533 net.cpp:358] Input 0 -> data
I0802 13:58:54.346217  8533 net.cpp:67] Creating Layer fc1
I0802 13:58:54.347980  8533 net.cpp:394] fc1 <- data
I0802 13:58:54.348400  8533 net.cpp:356] fc1 -> fc1
I0802 13:58:54.348693  8533 net.cpp:96] Setting up fc1
I0802 13:58:54.353198  8533 net.cpp:103] Top shape: 1 300 1 1 (300)
I0802 13:58:54.354989  8533 net.cpp:67] Creating Layer htanh
I0802 13:58:54.355101  8533 net.cpp:394] htanh <- fc1
I0802 13:58:54.355165  8533 net.cpp:356] htanh -> htanh
I0802 13:58:54.355274  8533 net.cpp:96] Setting up htanh
I0802 13:58:54.355342  8533 net.cpp:103] Top shape: 1 300 1 1 (300)
I0802 13:58:54.355401  8533 net.cpp:67] Creating Layer fc3
I0802 13:58:54.355468  8533 net.cpp:394] fc3 <- htanh
I0802 13:58:54.355521  8533 net.cpp:356] fc3 -> fc3
I0802 13:58:54.355665  8533 net.cpp:96] Setting up fc3
I0802 13:58:54.355943  8533 net.cpp:103] Top shape: 1 45 1 1 (45)
I0802 13:58:54.359200  8533 net.cpp:172] fc3 does not need backward computation.
I0802 13:58:54.359781  8533 net.cpp:172] htanh does not need backward computation.
I0802 13:58:54.359848  8533 net.cpp:172] fc1 does not need backward computation.
I0802 13:58:54.359886  8533 net.cpp:208] This network produces output fc3
I0802 13:58:54.360013  8533 net.cpp:467] Collecting Learning Rate and Weight Decay.
I0802 13:58:54.360088  8533 net.cpp:219] Network initialization done.
I0802 13:58:54.360133  8533 net.cpp:220] Memory required for data: 2580
I0802 13:58:54.384881  8533 tonic.cpp:31] Reshaping input to dims: 28 300 1 1
I0802 13:58:54.385445  8533 tonic.cpp:37] Reshaping output to dims: 28 45 1 1
---------------------------------------------------------
colocating with libquantum
nlp-pos
Command terminated by signal 9
126.11user 11.12system 3:59.14elapsed 57%CPU (0avgtext+0avgdata 15522160maxresident)k
181976inputs+0outputs (62major+1219457minor)pagefaults 0swaps
********* Setting up benchmark nlp
********* Running benchmark as ./tonic-nlp-pos
WARNING: Logging before InitGoogleLogging() is written to STDERR
I0802 14:03:03.608028 25913 net.cpp:39] Initializing net from parameters: 
name: "pos"
layers {
  bottom: "data"
  top: "fc1"
  name: "fc1"
  type: INNER_PRODUCT
  inner_product_param {
    num_output: 300
  }
}
layers {
  bottom: "fc1"
  top: "htanh"
  name: "htanh"
  type: HTANH
}
layers {
  bottom: "htanh"
  top: "fc3"
  name: "fc3"
  type: INNER_PRODUCT
  inner_product_param {
    num_output: 45
  }
}
input: "data"
input_dim: 1
input_dim: 300
input_dim: 1
input_dim: 1
I0802 14:03:03.614140 25913 net.cpp:358] Input 0 -> data
I0802 14:03:03.614485 25913 net.cpp:67] Creating Layer fc1
I0802 14:03:03.614565 25913 net.cpp:394] fc1 <- data
I0802 14:03:03.614662 25913 net.cpp:356] fc1 -> fc1
I0802 14:03:03.614802 25913 net.cpp:96] Setting up fc1
I0802 14:03:03.617115 25913 net.cpp:103] Top shape: 1 300 1 1 (300)
I0802 14:03:03.620425 25913 net.cpp:67] Creating Layer htanh
I0802 14:03:03.620645 25913 net.cpp:394] htanh <- fc1
I0802 14:03:03.620699 25913 net.cpp:356] htanh -> htanh
I0802 14:03:03.620857 25913 net.cpp:96] Setting up htanh
I0802 14:03:03.620936 25913 net.cpp:103] Top shape: 1 300 1 1 (300)
I0802 14:03:03.620990 25913 net.cpp:67] Creating Layer fc3
I0802 14:03:03.621058 25913 net.cpp:394] fc3 <- htanh
I0802 14:03:03.621114 25913 net.cpp:356] fc3 -> fc3
I0802 14:03:03.621193 25913 net.cpp:96] Setting up fc3
I0802 14:03:03.621428 25913 net.cpp:103] Top shape: 1 45 1 1 (45)
I0802 14:03:03.621495 25913 net.cpp:172] fc3 does not need backward computation.
I0802 14:03:03.621548 25913 net.cpp:172] htanh does not need backward computation.
I0802 14:03:03.621606 25913 net.cpp:172] fc1 does not need backward computation.
I0802 14:03:03.621654 25913 net.cpp:208] This network produces output fc3
I0802 14:03:03.621732 25913 net.cpp:467] Collecting Learning Rate and Weight Decay.
I0802 14:03:03.621783 25913 net.cpp:219] Network initialization done.
I0802 14:03:03.621850 25913 net.cpp:220] Memory required for data: 2580
I0802 14:03:03.654357 25913 tonic.cpp:31] Reshaping input to dims: 28 300 1 1
I0802 14:03:03.663913 25913 tonic.cpp:37] Reshaping output to dims: 28 45 1 1
---------------------------------------------------------
colocating with libquantum
nlp-pos
Command terminated by signal 9
126.19user 10.37system 3:56.86elapsed 57%CPU (0avgtext+0avgdata 15480224maxresident)k
219592inputs+0outputs (219major+1217038minor)pagefaults 0swaps
********* Setting up benchmark nlp
********* Running benchmark as ./tonic-nlp-pos
WARNING: Logging before InitGoogleLogging() is written to STDERR
I0802 14:07:10.408818 10894 net.cpp:39] Initializing net from parameters: 
name: "pos"
layers {
  bottom: "data"
  top: "fc1"
  name: "fc1"
  type: INNER_PRODUCT
  inner_product_param {
    num_output: 300
  }
}
layers {
  bottom: "fc1"
  top: "htanh"
  name: "htanh"
  type: HTANH
}
layers {
  bottom: "htanh"
  top: "fc3"
  name: "fc3"
  type: INNER_PRODUCT
  inner_product_param {
    num_output: 45
  }
}
input: "data"
input_dim: 1
input_dim: 300
input_dim: 1
input_dim: 1
I0802 14:07:10.414238 10894 net.cpp:358] Input 0 -> data
I0802 14:07:10.414594 10894 net.cpp:67] Creating Layer fc1
I0802 14:07:10.414664 10894 net.cpp:394] fc1 <- data
I0802 14:07:10.414767 10894 net.cpp:356] fc1 -> fc1
I0802 14:07:10.414904 10894 net.cpp:96] Setting up fc1
I0802 14:07:10.417767 10894 net.cpp:103] Top shape: 1 300 1 1 (300)
I0802 14:07:10.420281 10894 net.cpp:67] Creating Layer htanh
I0802 14:07:10.421758 10894 net.cpp:394] htanh <- fc1
I0802 14:07:10.421982 10894 net.cpp:356] htanh -> htanh
I0802 14:07:10.422195 10894 net.cpp:96] Setting up htanh
I0802 14:07:10.422307 10894 net.cpp:103] Top shape: 1 300 1 1 (300)
I0802 14:07:10.422379 10894 net.cpp:67] Creating Layer fc3
I0802 14:07:10.422435 10894 net.cpp:394] fc3 <- htanh
I0802 14:07:10.422485 10894 net.cpp:356] fc3 -> fc3
I0802 14:07:10.422557 10894 net.cpp:96] Setting up fc3
I0802 14:07:10.422741 10894 net.cpp:103] Top shape: 1 45 1 1 (45)
I0802 14:07:10.425732 10894 net.cpp:172] fc3 does not need backward computation.
I0802 14:07:10.426162 10894 net.cpp:172] htanh does not need backward computation.
I0802 14:07:10.426213 10894 net.cpp:172] fc1 does not need backward computation.
I0802 14:07:10.426367 10894 net.cpp:208] This network produces output fc3
I0802 14:07:10.426489 10894 net.cpp:467] Collecting Learning Rate and Weight Decay.
I0802 14:07:10.426548 10894 net.cpp:219] Network initialization done.
I0802 14:07:10.426609 10894 net.cpp:220] Memory required for data: 2580
I0802 14:07:10.451964 10894 tonic.cpp:31] Reshaping input to dims: 28 300 1 1
I0802 14:07:10.452993 10894 tonic.cpp:37] Reshaping output to dims: 28 45 1 1
Command terminated by signal 9
127.11user 10.42system 4:00.86elapsed 57%CPU (0avgtext+0avgdata 15484544maxresident)k
191752inputs+0outputs (104major+1217204minor)pagefaults 0swaps
---------------------------------------------------------
colocating with libquantum
nlp-chk
********* Setting up benchmark nlp
********* Running benchmark as ./tonic-nlp-chk
WARNING: Logging before InitGoogleLogging() is written to STDERR
I0802 14:11:21.756305 28581 net.cpp:39] Initializing net from parameters: 
name: "chk"
layers {
  bottom: "data"
  top: "fc1"
  name: "fc1"
  type: INNER_PRODUCT
  inner_product_param {
    num_output: 300
  }
}
layers {
  bottom: "fc1"
  top: "htanh"
  name: "htanh"
  type: HTANH
}
layers {
  bottom: "htanh"
  top: "fc3"
  name: "fc3"
  type: INNER_PRODUCT
  inner_product_param {
    num_output: 42
  }
}
input: "data"
input_dim: 1
input_dim: 300
input_dim: 1
input_dim: 1
I0802 14:11:21.760185 28581 net.cpp:358] Input 0 -> data
I0802 14:11:21.760499 28581 net.cpp:67] Creating Layer fc1
I0802 14:11:21.761247 28581 net.cpp:394] fc1 <- data
I0802 14:11:21.761339 28581 net.cpp:356] fc1 -> fc1
I0802 14:11:21.761467 28581 net.cpp:96] Setting up fc1
I0802 14:11:21.765162 28581 net.cpp:103] Top shape: 1 300 1 1 (300)
I0802 14:11:21.766868 28581 net.cpp:67] Creating Layer htanh
I0802 14:11:21.766969 28581 net.cpp:394] htanh <- fc1
I0802 14:11:21.767031 28581 net.cpp:356] htanh -> htanh
I0802 14:11:21.767134 28581 net.cpp:96] Setting up htanh
I0802 14:11:21.767200 28581 net.cpp:103] Top shape: 1 300 1 1 (300)
I0802 14:11:21.767261 28581 net.cpp:67] Creating Layer fc3
I0802 14:11:21.767321 28581 net.cpp:394] fc3 <- htanh
I0802 14:11:21.767393 28581 net.cpp:356] fc3 -> fc3
I0802 14:11:21.768120 28581 net.cpp:96] Setting up fc3
I0802 14:11:21.768323 28581 net.cpp:103] Top shape: 1 42 1 1 (42)
I0802 14:11:21.768394 28581 net.cpp:172] fc3 does not need backward computation.
I0802 14:11:21.768558 28581 net.cpp:172] htanh does not need backward computation.
I0802 14:11:21.768599 28581 net.cpp:172] fc1 does not need backward computation.
I0802 14:11:21.768652 28581 net.cpp:208] This network produces output fc3
I0802 14:11:21.768734 28581 net.cpp:467] Collecting Learning Rate and Weight Decay.
I0802 14:11:21.768790 28581 net.cpp:219] Network initialization done.
I0802 14:11:21.768836 28581 net.cpp:220] Memory required for data: 2568
I0802 14:11:21.807092 28581 net.cpp:39] Initializing net from parameters: 
name: "pos"
layers {
  bottom: "data"
  top: "fc1"
  name: "fc1"
  type: INNER_PRODUCT
  inner_product_param {
    num_output: 300
  }
}
layers {
  bottom: "fc1"
  top: "htanh"
  name: "htanh"
  type: HTANH
}
layers {
  bottom: "htanh"
  top: "fc3"
  name: "fc3"
  type: INNER_PRODUCT
  inner_product_param {
    num_output: 45
  }
}
input: "data"
input_dim: 1
input_dim: 300
input_dim: 1
input_dim: 1
I0802 14:11:21.812892 28581 net.cpp:358] Input 0 -> data
I0802 14:11:21.813329 28581 net.cpp:67] Creating Layer fc1
I0802 14:11:21.813390 28581 net.cpp:394] fc1 <- data
I0802 14:11:21.813897 28581 net.cpp:356] fc1 -> fc1
I0802 14:11:21.813982 28581 net.cpp:96] Setting up fc1
I0802 14:11:21.820201 28581 net.cpp:103] Top shape: 1 300 1 1 (300)
I0802 14:11:21.824082 28581 net.cpp:67] Creating Layer htanh
I0802 14:11:21.824494 28581 net.cpp:394] htanh <- fc1
I0802 14:11:21.824565 28581 net.cpp:356] htanh -> htanh
I0802 14:11:21.824753 28581 net.cpp:96] Setting up htanh
I0802 14:11:21.824817 28581 net.cpp:103] Top shape: 1 300 1 1 (300)
I0802 14:11:21.824892 28581 net.cpp:67] Creating Layer fc3
I0802 14:11:21.824939 28581 net.cpp:394] fc3 <- htanh
I0802 14:11:21.825004 28581 net.cpp:356] fc3 -> fc3
I0802 14:11:21.825060 28581 net.cpp:96] Setting up fc3
I0802 14:11:21.825186 28581 net.cpp:103] Top shape: 1 45 1 1 (45)
I0802 14:11:21.825261 28581 net.cpp:172] fc3 does not need backward computation.
I0802 14:11:21.825315 28581 net.cpp:172] htanh does not need backward computation.
I0802 14:11:21.825356 28581 net.cpp:172] fc1 does not need backward computation.
I0802 14:11:21.825407 28581 net.cpp:208] This network produces output fc3
I0802 14:11:21.825453 28581 net.cpp:467] Collecting Learning Rate and Weight Decay.
I0802 14:11:21.825510 28581 net.cpp:219] Network initialization done.
I0802 14:11:21.825549 28581 net.cpp:220] Memory required for data: 2580
I0802 14:11:21.843443 28581 tonic.cpp:31] Reshaping input to dims: 28 300 1 1
I0802 14:11:21.848201 28581 tonic.cpp:37] Reshaping output to dims: 28 45 1 1
I0802 14:11:21.853909 28581 tonic.cpp:31] Reshaping input to dims: 28 300 1 1
I0802 14:11:21.854388 28581 tonic.cpp:37] Reshaping output to dims: 28 42 1 1
---------------------------------------------------------
colocating with libquantum
nlp-chk
Command terminated by signal 9
117.74user 10.92system 3:45.23elapsed 57%CPU (0avgtext+0avgdata 15468064maxresident)k
261672inputs+0outputs (380major+1216389minor)pagefaults 0swaps
********* Setting up benchmark nlp
********* Running benchmark as ./tonic-nlp-chk
WARNING: Logging before InitGoogleLogging() is written to STDERR
I0802 14:15:17.192502 12552 net.cpp:39] Initializing net from parameters: 
name: "chk"
layers {
  bottom: "data"
  top: "fc1"
  name: "fc1"
  type: INNER_PRODUCT
  inner_product_param {
    num_output: 300
  }
}
layers {
  bottom: "fc1"
  top: "htanh"
  name: "htanh"
  type: HTANH
}
layers {
  bottom: "htanh"
  top: "fc3"
  name: "fc3"
  type: INNER_PRODUCT
  inner_product_param {
    num_output: 42
  }
}
input: "data"
input_dim: 1
input_dim: 300
input_dim: 1
input_dim: 1
I0802 14:15:17.200933 12552 net.cpp:358] Input 0 -> data
I0802 14:15:17.201341 12552 net.cpp:67] Creating Layer fc1
I0802 14:15:17.201408 12552 net.cpp:394] fc1 <- data
I0802 14:15:17.201477 12552 net.cpp:356] fc1 -> fc1
I0802 14:15:17.201633 12552 net.cpp:96] Setting up fc1
I0802 14:15:17.203559 12552 net.cpp:103] Top shape: 1 300 1 1 (300)
I0802 14:15:17.205132 12552 net.cpp:67] Creating Layer htanh
I0802 14:15:17.205220 12552 net.cpp:394] htanh <- fc1
I0802 14:15:17.205292 12552 net.cpp:356] htanh -> htanh
I0802 14:15:17.205445 12552 net.cpp:96] Setting up htanh
I0802 14:15:17.205476 12552 net.cpp:103] Top shape: 1 300 1 1 (300)
I0802 14:15:17.205494 12552 net.cpp:67] Creating Layer fc3
I0802 14:15:17.205499 12552 net.cpp:394] fc3 <- htanh
I0802 14:15:17.205508 12552 net.cpp:356] fc3 -> fc3
I0802 14:15:17.205519 12552 net.cpp:96] Setting up fc3
I0802 14:15:17.205683 12552 net.cpp:103] Top shape: 1 42 1 1 (42)
I0802 14:15:17.205698 12552 net.cpp:172] fc3 does not need backward computation.
I0802 14:15:17.205708 12552 net.cpp:172] htanh does not need backward computation.
I0802 14:15:17.205711 12552 net.cpp:172] fc1 does not need backward computation.
I0802 14:15:17.205716 12552 net.cpp:208] This network produces output fc3
I0802 14:15:17.205739 12552 net.cpp:467] Collecting Learning Rate and Weight Decay.
I0802 14:15:17.205754 12552 net.cpp:219] Network initialization done.
I0802 14:15:17.205757 12552 net.cpp:220] Memory required for data: 2568
I0802 14:15:17.229631 12552 net.cpp:39] Initializing net from parameters: 
name: "pos"
layers {
  bottom: "data"
  top: "fc1"
  name: "fc1"
  type: INNER_PRODUCT
  inner_product_param {
    num_output: 300
  }
}
layers {
  bottom: "fc1"
  top: "htanh"
  name: "htanh"
  type: HTANH
}
layers {
  bottom: "htanh"
  top: "fc3"
  name: "fc3"
  type: INNER_PRODUCT
  inner_product_param {
    num_output: 45
  }
}
input: "data"
input_dim: 1
input_dim: 300
input_dim: 1
input_dim: 1
I0802 14:15:17.230170 12552 net.cpp:358] Input 0 -> data
I0802 14:15:17.230365 12552 net.cpp:67] Creating Layer fc1
I0802 14:15:17.230417 12552 net.cpp:394] fc1 <- data
I0802 14:15:17.230470 12552 net.cpp:356] fc1 -> fc1
I0802 14:15:17.230550 12552 net.cpp:96] Setting up fc1
I0802 14:15:17.231142 12552 net.cpp:103] Top shape: 1 300 1 1 (300)
I0802 14:15:17.231278 12552 net.cpp:67] Creating Layer htanh
I0802 14:15:17.231328 12552 net.cpp:394] htanh <- fc1
I0802 14:15:17.231402 12552 net.cpp:356] htanh -> htanh
I0802 14:15:17.231464 12552 net.cpp:96] Setting up htanh
I0802 14:15:17.231536 12552 net.cpp:103] Top shape: 1 300 1 1 (300)
I0802 14:15:17.231696 12552 net.cpp:67] Creating Layer fc3
I0802 14:15:17.231757 12552 net.cpp:394] fc3 <- htanh
I0802 14:15:17.231812 12552 net.cpp:356] fc3 -> fc3
I0802 14:15:17.231907 12552 net.cpp:96] Setting up fc3
I0802 14:15:17.232053 12552 net.cpp:103] Top shape: 1 45 1 1 (45)
I0802 14:15:17.232118 12552 net.cpp:172] fc3 does not need backward computation.
I0802 14:15:17.232166 12552 net.cpp:172] htanh does not need backward computation.
I0802 14:15:17.232218 12552 net.cpp:172] fc1 does not need backward computation.
I0802 14:15:17.232259 12552 net.cpp:208] This network produces output fc3
I0802 14:15:17.232322 12552 net.cpp:467] Collecting Learning Rate and Weight Decay.
I0802 14:15:17.232370 12552 net.cpp:219] Network initialization done.
I0802 14:15:17.232445 12552 net.cpp:220] Memory required for data: 2580
I0802 14:15:17.242611 12552 tonic.cpp:31] Reshaping input to dims: 28 300 1 1
I0802 14:15:17.243161 12552 tonic.cpp:37] Reshaping output to dims: 28 45 1 1
I0802 14:15:17.247992 12552 tonic.cpp:31] Reshaping input to dims: 28 300 1 1
I0802 14:15:17.248467 12552 tonic.cpp:37] Reshaping output to dims: 28 42 1 1
---------------------------------------------------------
colocating with libquantum
nlp-chk
Command terminated by signal 9
118.46user 11.26system 3:46.55elapsed 57%CPU (0avgtext+0avgdata 15512400maxresident)k
945096inputs+0outputs (3260major+1220036minor)pagefaults 0swaps
********* Setting up benchmark nlp
********* Running benchmark as ./tonic-nlp-chk
WARNING: Logging before InitGoogleLogging() is written to STDERR
I0802 14:19:11.666893 28886 net.cpp:39] Initializing net from parameters: 
name: "chk"
layers {
  bottom: "data"
  top: "fc1"
  name: "fc1"
  type: INNER_PRODUCT
  inner_product_param {
    num_output: 300
  }
}
layers {
  bottom: "fc1"
  top: "htanh"
  name: "htanh"
  type: HTANH
}
layers {
  bottom: "htanh"
  top: "fc3"
  name: "fc3"
  type: INNER_PRODUCT
  inner_product_param {
    num_output: 42
  }
}
input: "data"
input_dim: 1
input_dim: 300
input_dim: 1
input_dim: 1
I0802 14:19:11.671020 28886 net.cpp:358] Input 0 -> data
I0802 14:19:11.673913 28886 net.cpp:67] Creating Layer fc1
I0802 14:19:11.674316 28886 net.cpp:394] fc1 <- data
I0802 14:19:11.674386 28886 net.cpp:356] fc1 -> fc1
I0802 14:19:11.674655 28886 net.cpp:96] Setting up fc1
I0802 14:19:11.677153 28886 net.cpp:103] Top shape: 1 300 1 1 (300)
I0802 14:19:11.679689 28886 net.cpp:67] Creating Layer htanh
I0802 14:19:11.682972 28886 net.cpp:394] htanh <- fc1
I0802 14:19:11.683465 28886 net.cpp:356] htanh -> htanh
I0802 14:19:11.683785 28886 net.cpp:96] Setting up htanh
I0802 14:19:11.683903 28886 net.cpp:103] Top shape: 1 300 1 1 (300)
I0802 14:19:11.683974 28886 net.cpp:67] Creating Layer fc3
I0802 14:19:11.684041 28886 net.cpp:394] fc3 <- htanh
I0802 14:19:11.684094 28886 net.cpp:356] fc3 -> fc3
I0802 14:19:11.684183 28886 net.cpp:96] Setting up fc3
I0802 14:19:11.684425 28886 net.cpp:103] Top shape: 1 42 1 1 (42)
I0802 14:19:11.684514 28886 net.cpp:172] fc3 does not need backward computation.
I0802 14:19:11.684567 28886 net.cpp:172] htanh does not need backward computation.
I0802 14:19:11.684653 28886 net.cpp:172] fc1 does not need backward computation.
I0802 14:19:11.684698 28886 net.cpp:208] This network produces output fc3
I0802 14:19:11.684789 28886 net.cpp:467] Collecting Learning Rate and Weight Decay.
I0802 14:19:11.684850 28886 net.cpp:219] Network initialization done.
I0802 14:19:11.684921 28886 net.cpp:220] Memory required for data: 2568
I0802 14:19:11.720199 28886 net.cpp:39] Initializing net from parameters: 
name: "pos"
layers {
  bottom: "data"
  top: "fc1"
  name: "fc1"
  type: INNER_PRODUCT
  inner_product_param {
    num_output: 300
  }
}
layers {
  bottom: "fc1"
  top: "htanh"
  name: "htanh"
  type: HTANH
}
layers {
  bottom: "htanh"
  top: "fc3"
  name: "fc3"
  type: INNER_PRODUCT
  inner_product_param {
    num_output: 45
  }
}
input: "data"
input_dim: 1
input_dim: 300
input_dim: 1
input_dim: 1
I0802 14:19:11.724074 28886 net.cpp:358] Input 0 -> data
I0802 14:19:11.724613 28886 net.cpp:67] Creating Layer fc1
I0802 14:19:11.724812 28886 net.cpp:394] fc1 <- data
I0802 14:19:11.724867 28886 net.cpp:356] fc1 -> fc1
I0802 14:19:11.725042 28886 net.cpp:96] Setting up fc1
I0802 14:19:11.725625 28886 net.cpp:103] Top shape: 1 300 1 1 (300)
I0802 14:19:11.725749 28886 net.cpp:67] Creating Layer htanh
I0802 14:19:11.725801 28886 net.cpp:394] htanh <- fc1
I0802 14:19:11.725875 28886 net.cpp:356] htanh -> htanh
I0802 14:19:11.725934 28886 net.cpp:96] Setting up htanh
I0802 14:19:11.725996 28886 net.cpp:103] Top shape: 1 300 1 1 (300)
I0802 14:19:11.726048 28886 net.cpp:67] Creating Layer fc3
I0802 14:19:11.726106 28886 net.cpp:394] fc3 <- htanh
I0802 14:19:11.726155 28886 net.cpp:356] fc3 -> fc3
I0802 14:19:11.726227 28886 net.cpp:96] Setting up fc3
I0802 14:19:11.726348 28886 net.cpp:103] Top shape: 1 45 1 1 (45)
I0802 14:19:11.726405 28886 net.cpp:172] fc3 does not need backward computation.
I0802 14:19:11.726454 28886 net.cpp:172] htanh does not need backward computation.
I0802 14:19:11.726524 28886 net.cpp:172] fc1 does not need backward computation.
I0802 14:19:11.726572 28886 net.cpp:208] This network produces output fc3
I0802 14:19:11.726635 28886 net.cpp:467] Collecting Learning Rate and Weight Decay.
I0802 14:19:11.726687 28886 net.cpp:219] Network initialization done.
I0802 14:19:11.726744 28886 net.cpp:220] Memory required for data: 2580
I0802 14:19:11.757725 28886 tonic.cpp:31] Reshaping input to dims: 28 300 1 1
I0802 14:19:11.758319 28886 tonic.cpp:37] Reshaping output to dims: 28 45 1 1
I0802 14:19:11.768254 28886 tonic.cpp:31] Reshaping input to dims: 28 300 1 1
I0802 14:19:11.768782 28886 tonic.cpp:37] Reshaping output to dims: 28 42 1 1
---------------------------------------------------------
colocating with libquantum
nlp-chk
Command terminated by signal 9
118.03user 10.73system 3:46.81elapsed 56%CPU (0avgtext+0avgdata 15495248maxresident)k
184976inputs+0outputs (67major+1217810minor)pagefaults 0swaps
********* Setting up benchmark nlp
********* Running benchmark as ./tonic-nlp-chk
WARNING: Logging before InitGoogleLogging() is written to STDERR
I0802 14:23:08.599040 12757 net.cpp:39] Initializing net from parameters: 
name: "chk"
layers {
  bottom: "data"
  top: "fc1"
  name: "fc1"
  type: INNER_PRODUCT
  inner_product_param {
    num_output: 300
  }
}
layers {
  bottom: "fc1"
  top: "htanh"
  name: "htanh"
  type: HTANH
}
layers {
  bottom: "htanh"
  top: "fc3"
  name: "fc3"
  type: INNER_PRODUCT
  inner_product_param {
    num_output: 42
  }
}
input: "data"
input_dim: 1
input_dim: 300
input_dim: 1
input_dim: 1
I0802 14:23:08.601531 12757 net.cpp:358] Input 0 -> data
I0802 14:23:08.603914 12757 net.cpp:67] Creating Layer fc1
I0802 14:23:08.604277 12757 net.cpp:394] fc1 <- data
I0802 14:23:08.604349 12757 net.cpp:356] fc1 -> fc1
I0802 14:23:08.604550 12757 net.cpp:96] Setting up fc1
I0802 14:23:08.606808 12757 net.cpp:103] Top shape: 1 300 1 1 (300)
I0802 14:23:08.609246 12757 net.cpp:67] Creating Layer htanh
I0802 14:23:08.612107 12757 net.cpp:394] htanh <- fc1
I0802 14:23:08.612587 12757 net.cpp:356] htanh -> htanh
I0802 14:23:08.612854 12757 net.cpp:96] Setting up htanh
I0802 14:23:08.612988 12757 net.cpp:103] Top shape: 1 300 1 1 (300)
I0802 14:23:08.613101 12757 net.cpp:67] Creating Layer fc3
I0802 14:23:08.613158 12757 net.cpp:394] fc3 <- htanh
I0802 14:23:08.613212 12757 net.cpp:356] fc3 -> fc3
I0802 14:23:08.613312 12757 net.cpp:96] Setting up fc3
I0802 14:23:08.613503 12757 net.cpp:103] Top shape: 1 42 1 1 (42)
I0802 14:23:08.613592 12757 net.cpp:172] fc3 does not need backward computation.
I0802 14:23:08.613656 12757 net.cpp:172] htanh does not need backward computation.
I0802 14:23:08.613731 12757 net.cpp:172] fc1 does not need backward computation.
I0802 14:23:08.613778 12757 net.cpp:208] This network produces output fc3
I0802 14:23:08.613873 12757 net.cpp:467] Collecting Learning Rate and Weight Decay.
I0802 14:23:08.613941 12757 net.cpp:219] Network initialization done.
I0802 14:23:08.614007 12757 net.cpp:220] Memory required for data: 2568
I0802 14:23:08.651253 12757 net.cpp:39] Initializing net from parameters: 
name: "pos"
layers {
  bottom: "data"
  top: "fc1"
  name: "fc1"
  type: INNER_PRODUCT
  inner_product_param {
    num_output: 300
  }
}
layers {
  bottom: "fc1"
  top: "htanh"
  name: "htanh"
  type: HTANH
}
layers {
  bottom: "htanh"
  top: "fc3"
  name: "fc3"
  type: INNER_PRODUCT
  inner_product_param {
    num_output: 45
  }
}
input: "data"
input_dim: 1
input_dim: 300
input_dim: 1
input_dim: 1
I0802 14:23:08.660034 12757 net.cpp:358] Input 0 -> data
I0802 14:23:08.660531 12757 net.cpp:67] Creating Layer fc1
I0802 14:23:08.660722 12757 net.cpp:394] fc1 <- data
I0802 14:23:08.660786 12757 net.cpp:356] fc1 -> fc1
I0802 14:23:08.660892 12757 net.cpp:96] Setting up fc1
I0802 14:23:08.661499 12757 net.cpp:103] Top shape: 1 300 1 1 (300)
I0802 14:23:08.661649 12757 net.cpp:67] Creating Layer htanh
I0802 14:23:08.661701 12757 net.cpp:394] htanh <- fc1
I0802 14:23:08.661774 12757 net.cpp:356] htanh -> htanh
I0802 14:23:08.661839 12757 net.cpp:96] Setting up htanh
I0802 14:23:08.661911 12757 net.cpp:103] Top shape: 1 300 1 1 (300)
I0802 14:23:08.661965 12757 net.cpp:67] Creating Layer fc3
I0802 14:23:08.662030 12757 net.cpp:394] fc3 <- htanh
I0802 14:23:08.662094 12757 net.cpp:356] fc3 -> fc3
I0802 14:23:08.662169 12757 net.cpp:96] Setting up fc3
I0802 14:23:08.662283 12757 net.cpp:103] Top shape: 1 45 1 1 (45)
I0802 14:23:08.662348 12757 net.cpp:172] fc3 does not need backward computation.
I0802 14:23:08.662395 12757 net.cpp:172] htanh does not need backward computation.
I0802 14:23:08.662446 12757 net.cpp:172] fc1 does not need backward computation.
I0802 14:23:08.662488 12757 net.cpp:208] This network produces output fc3
I0802 14:23:08.662575 12757 net.cpp:467] Collecting Learning Rate and Weight Decay.
I0802 14:23:08.662636 12757 net.cpp:219] Network initialization done.
I0802 14:23:08.662694 12757 net.cpp:220] Memory required for data: 2580
I0802 14:23:08.679431 12757 tonic.cpp:31] Reshaping input to dims: 28 300 1 1
I0802 14:23:08.682808 12757 tonic.cpp:37] Reshaping output to dims: 28 45 1 1
I0802 14:23:08.690035 12757 tonic.cpp:31] Reshaping input to dims: 28 300 1 1
I0802 14:23:08.690641 12757 tonic.cpp:37] Reshaping output to dims: 28 42 1 1
Command terminated by signal 9
115.86user 10.28system 3:40.31elapsed 57%CPU (0avgtext+0avgdata 15413760maxresident)k
203112inputs+0outputs (145major+1212832minor)pagefaults 0swaps
---------------------------------------------------------
colocating with libquantum
nlp-chk
********* Setting up benchmark nlp
********* Running benchmark as ./tonic-nlp-chk
WARNING: Logging before InitGoogleLogging() is written to STDERR
I0802 14:27:00.102126 28764 net.cpp:39] Initializing net from parameters: 
name: "chk"
layers {
  bottom: "data"
  top: "fc1"
  name: "fc1"
  type: INNER_PRODUCT
  inner_product_param {
    num_output: 300
  }
}
layers {
  bottom: "fc1"
  top: "htanh"
  name: "htanh"
  type: HTANH
}
layers {
  bottom: "htanh"
  top: "fc3"
  name: "fc3"
  type: INNER_PRODUCT
  inner_product_param {
    num_output: 42
  }
}
input: "data"
input_dim: 1
input_dim: 300
input_dim: 1
input_dim: 1
I0802 14:27:00.103508 28764 net.cpp:358] Input 0 -> data
I0802 14:27:00.106123 28764 net.cpp:67] Creating Layer fc1
I0802 14:27:00.106534 28764 net.cpp:394] fc1 <- data
I0802 14:27:00.106607 28764 net.cpp:356] fc1 -> fc1
I0802 14:27:00.106863 28764 net.cpp:96] Setting up fc1
I0802 14:27:00.109325 28764 net.cpp:103] Top shape: 1 300 1 1 (300)
I0802 14:27:00.110052 28764 net.cpp:67] Creating Layer htanh
I0802 14:27:00.110121 28764 net.cpp:394] htanh <- fc1
I0802 14:27:00.110306 28764 net.cpp:356] htanh -> htanh
I0802 14:27:00.110389 28764 net.cpp:96] Setting up htanh
I0802 14:27:00.110455 28764 net.cpp:103] Top shape: 1 300 1 1 (300)
I0802 14:27:00.111032 28764 net.cpp:67] Creating Layer fc3
I0802 14:27:00.111099 28764 net.cpp:394] fc3 <- htanh
I0802 14:27:00.111140 28764 net.cpp:356] fc3 -> fc3
I0802 14:27:00.111188 28764 net.cpp:96] Setting up fc3
I0802 14:27:00.111362 28764 net.cpp:103] Top shape: 1 42 1 1 (42)
I0802 14:27:00.111431 28764 net.cpp:172] fc3 does not need backward computation.
I0802 14:27:00.111485 28764 net.cpp:172] htanh does not need backward computation.
I0802 14:27:00.111523 28764 net.cpp:172] fc1 does not need backward computation.
I0802 14:27:00.111582 28764 net.cpp:208] This network produces output fc3
I0802 14:27:00.111814 28764 net.cpp:467] Collecting Learning Rate and Weight Decay.
I0802 14:27:00.112434 28764 net.cpp:219] Network initialization done.
I0802 14:27:00.112517 28764 net.cpp:220] Memory required for data: 2568
I0802 14:27:00.174087 28764 net.cpp:39] Initializing net from parameters: 
name: "pos"
layers {
  bottom: "data"
  top: "fc1"
  name: "fc1"
  type: INNER_PRODUCT
  inner_product_param {
    num_output: 300
  }
}
layers {
  bottom: "fc1"
  top: "htanh"
  name: "htanh"
  type: HTANH
}
layers {
  bottom: "htanh"
  top: "fc3"
  name: "fc3"
  type: INNER_PRODUCT
  inner_product_param {
    num_output: 45
  }
}
input: "data"
input_dim: 1
input_dim: 300
input_dim: 1
input_dim: 1
I0802 14:27:00.174273 28764 net.cpp:358] Input 0 -> data
I0802 14:27:00.174351 28764 net.cpp:67] Creating Layer fc1
I0802 14:27:00.174360 28764 net.cpp:394] fc1 <- data
I0802 14:27:00.174372 28764 net.cpp:356] fc1 -> fc1
I0802 14:27:00.174387 28764 net.cpp:96] Setting up fc1
I0802 14:27:00.174916 28764 net.cpp:103] Top shape: 1 300 1 1 (300)
I0802 14:27:00.174958 28764 net.cpp:67] Creating Layer htanh
I0802 14:27:00.174964 28764 net.cpp:394] htanh <- fc1
I0802 14:27:00.174975 28764 net.cpp:356] htanh -> htanh
I0802 14:27:00.174986 28764 net.cpp:96] Setting up htanh
I0802 14:27:00.174994 28764 net.cpp:103] Top shape: 1 300 1 1 (300)
I0802 14:27:00.175003 28764 net.cpp:67] Creating Layer fc3
I0802 14:27:00.175007 28764 net.cpp:394] fc3 <- htanh
I0802 14:27:00.175015 28764 net.cpp:356] fc3 -> fc3
I0802 14:27:00.175022 28764 net.cpp:96] Setting up fc3
I0802 14:27:00.175071 28764 net.cpp:103] Top shape: 1 45 1 1 (45)
I0802 14:27:00.175081 28764 net.cpp:172] fc3 does not need backward computation.
I0802 14:27:00.175087 28764 net.cpp:172] htanh does not need backward computation.
I0802 14:27:00.175091 28764 net.cpp:172] fc1 does not need backward computation.
I0802 14:27:00.175096 28764 net.cpp:208] This network produces output fc3
I0802 14:27:00.175108 28764 net.cpp:467] Collecting Learning Rate and Weight Decay.
I0802 14:27:00.175115 28764 net.cpp:219] Network initialization done.
I0802 14:27:00.175119 28764 net.cpp:220] Memory required for data: 2580
I0802 14:27:00.194319 28764 tonic.cpp:31] Reshaping input to dims: 28 300 1 1
I0802 14:27:00.194653 28764 tonic.cpp:37] Reshaping output to dims: 28 45 1 1
I0802 14:27:00.200615 28764 tonic.cpp:31] Reshaping input to dims: 28 300 1 1
I0802 14:27:00.201128 28764 tonic.cpp:37] Reshaping output to dims: 28 42 1 1
Command terminated by signal 9
116.45user 10.64system 3:44.18elapsed 56%CPU (0avgtext+0avgdata 15430128maxresident)k
213208inputs+0outputs (189major+1212012minor)pagefaults 0swaps
---------------------------------------------------------
colocating with libquantum
nlp-ner
********* Setting up benchmark nlp
********* Running benchmark as ./tonic-nlp-ner
WARNING: Logging before InitGoogleLogging() is written to STDERR
I0802 14:30:55.352488 13042 net.cpp:39] Initializing net from parameters: 
name: "ner"
layers {
  bottom: "data"
  top: "fc1"
  name: "fc1"
  type: INNER_PRODUCT
  inner_product_param {
    num_output: 300
  }
}
layers {
  bottom: "fc1"
  top: "htanh"
  name: "htanh"
  type: HTANH
}
layers {
  bottom: "htanh"
  top: "fc3"
  name: "fc3"
  type: INNER_PRODUCT
  inner_product_param {
    num_output: 17
  }
}
input: "data"
input_dim: 1
input_dim: 375
input_dim: 1
input_dim: 1
I0802 14:30:55.360687 13042 net.cpp:358] Input 0 -> data
I0802 14:30:55.360980 13042 net.cpp:67] Creating Layer fc1
I0802 14:30:55.361052 13042 net.cpp:394] fc1 <- data
I0802 14:30:55.361147 13042 net.cpp:356] fc1 -> fc1
I0802 14:30:55.361276 13042 net.cpp:96] Setting up fc1
I0802 14:30:55.368976 13042 net.cpp:103] Top shape: 1 300 1 1 (300)
I0802 14:30:55.370733 13042 net.cpp:67] Creating Layer htanh
I0802 14:30:55.370843 13042 net.cpp:394] htanh <- fc1
I0802 14:30:55.370910 13042 net.cpp:356] htanh -> htanh
I0802 14:30:55.371016 13042 net.cpp:96] Setting up htanh
I0802 14:30:55.371101 13042 net.cpp:103] Top shape: 1 300 1 1 (300)
I0802 14:30:55.371161 13042 net.cpp:67] Creating Layer fc3
I0802 14:30:55.371201 13042 net.cpp:394] fc3 <- htanh
I0802 14:30:55.371265 13042 net.cpp:356] fc3 -> fc3
I0802 14:30:55.371335 13042 net.cpp:96] Setting up fc3
I0802 14:30:55.371510 13042 net.cpp:103] Top shape: 1 17 1 1 (17)
I0802 14:30:55.371562 13042 net.cpp:172] fc3 does not need backward computation.
I0802 14:30:55.371728 13042 net.cpp:172] htanh does not need backward computation.
I0802 14:30:55.371778 13042 net.cpp:172] fc1 does not need backward computation.
I0802 14:30:55.371836 13042 net.cpp:208] This network produces output fc3
I0802 14:30:55.371911 13042 net.cpp:467] Collecting Learning Rate and Weight Decay.
I0802 14:30:55.371969 13042 net.cpp:219] Network initialization done.
I0802 14:30:55.372014 13042 net.cpp:220] Memory required for data: 2468
I0802 14:30:55.404876 13042 tonic.cpp:31] Reshaping input to dims: 28 375 1 1
I0802 14:30:55.405433 13042 tonic.cpp:37] Reshaping output to dims: 28 17 1 1
---------------------------------------------------------
colocating with libquantum
nlp-ner
Command terminated by signal 9
92.42user 9.75system 2:56.66elapsed 57%CPU (0avgtext+0avgdata 15471584maxresident)k
187640inputs+0outputs (83major+1216394minor)pagefaults 0swaps
********* Setting up benchmark nlp
********* Running benchmark as ./tonic-nlp-ner
WARNING: Logging before InitGoogleLogging() is written to STDERR
I0802 14:34:01.852867 26054 net.cpp:39] Initializing net from parameters: 
name: "ner"
layers {
  bottom: "data"
  top: "fc1"
  name: "fc1"
  type: INNER_PRODUCT
  inner_product_param {
    num_output: 300
  }
}
layers {
  bottom: "fc1"
  top: "htanh"
  name: "htanh"
  type: HTANH
}
layers {
  bottom: "htanh"
  top: "fc3"
  name: "fc3"
  type: INNER_PRODUCT
  inner_product_param {
    num_output: 17
  }
}
input: "data"
input_dim: 1
input_dim: 375
input_dim: 1
input_dim: 1
I0802 14:34:01.857167 26054 net.cpp:358] Input 0 -> data
I0802 14:34:01.857519 26054 net.cpp:67] Creating Layer fc1
I0802 14:34:01.857595 26054 net.cpp:394] fc1 <- data
I0802 14:34:01.857661 26054 net.cpp:356] fc1 -> fc1
I0802 14:34:01.857795 26054 net.cpp:96] Setting up fc1
I0802 14:34:01.861659 26054 net.cpp:103] Top shape: 1 300 1 1 (300)
I0802 14:34:01.863365 26054 net.cpp:67] Creating Layer htanh
I0802 14:34:01.863468 26054 net.cpp:394] htanh <- fc1
I0802 14:34:01.864187 26054 net.cpp:356] htanh -> htanh
I0802 14:34:01.864292 26054 net.cpp:96] Setting up htanh
I0802 14:34:01.864383 26054 net.cpp:103] Top shape: 1 300 1 1 (300)
I0802 14:34:01.864465 26054 net.cpp:67] Creating Layer fc3
I0802 14:34:01.864506 26054 net.cpp:394] fc3 <- htanh
I0802 14:34:01.864573 26054 net.cpp:356] fc3 -> fc3
I0802 14:34:01.864646 26054 net.cpp:96] Setting up fc3
I0802 14:34:01.864776 26054 net.cpp:103] Top shape: 1 17 1 1 (17)
I0802 14:34:01.864852 26054 net.cpp:172] fc3 does not need backward computation.
I0802 14:34:01.864908 26054 net.cpp:172] htanh does not need backward computation.
I0802 14:34:01.864962 26054 net.cpp:172] fc1 does not need backward computation.
I0802 14:34:01.865030 26054 net.cpp:208] This network produces output fc3
I0802 14:34:01.865119 26054 net.cpp:467] Collecting Learning Rate and Weight Decay.
I0802 14:34:01.865186 26054 net.cpp:219] Network initialization done.
I0802 14:34:01.865231 26054 net.cpp:220] Memory required for data: 2468
I0802 14:34:01.892688 26054 tonic.cpp:31] Reshaping input to dims: 28 375 1 1
I0802 14:34:01.893895 26054 tonic.cpp:37] Reshaping output to dims: 28 17 1 1
Command terminated by signal 9
91.72user 9.90system 2:57.15elapsed 57%CPU (0avgtext+0avgdata 15432704maxresident)k
182832inputs+0outputs (65major+1213854minor)pagefaults 0swaps
---------------------------------------------------------
colocating with libquantum
nlp-ner
********* Setting up benchmark nlp
********* Running benchmark as ./tonic-nlp-ner
WARNING: Logging before InitGoogleLogging() is written to STDERR
I0802 14:37:10.471218  6271 net.cpp:39] Initializing net from parameters: 
name: "ner"
layers {
  bottom: "data"
  top: "fc1"
  name: "fc1"
  type: INNER_PRODUCT
  inner_product_param {
    num_output: 300
  }
}
layers {
  bottom: "fc1"
  top: "htanh"
  name: "htanh"
  type: HTANH
}
layers {
  bottom: "htanh"
  top: "fc3"
  name: "fc3"
  type: INNER_PRODUCT
  inner_product_param {
    num_output: 17
  }
}
input: "data"
input_dim: 1
input_dim: 375
input_dim: 1
input_dim: 1
I0802 14:37:10.472528  6271 net.cpp:358] Input 0 -> data
I0802 14:37:10.472785  6271 net.cpp:67] Creating Layer fc1
I0802 14:37:10.472853  6271 net.cpp:394] fc1 <- data
I0802 14:37:10.472930  6271 net.cpp:356] fc1 -> fc1
I0802 14:37:10.473050  6271 net.cpp:96] Setting up fc1
I0802 14:37:10.475451  6271 net.cpp:103] Top shape: 1 300 1 1 (300)
I0802 14:37:10.477516  6271 net.cpp:67] Creating Layer htanh
I0802 14:37:10.477663  6271 net.cpp:394] htanh <- fc1
I0802 14:37:10.477730  6271 net.cpp:356] htanh -> htanh
I0802 14:37:10.477856  6271 net.cpp:96] Setting up htanh
I0802 14:37:10.477963  6271 net.cpp:103] Top shape: 1 300 1 1 (300)
I0802 14:37:10.478029  6271 net.cpp:67] Creating Layer fc3
I0802 14:37:10.478075  6271 net.cpp:394] fc3 <- htanh
I0802 14:37:10.478139  6271 net.cpp:356] fc3 -> fc3
I0802 14:37:10.478217  6271 net.cpp:96] Setting up fc3
I0802 14:37:10.478416  6271 net.cpp:103] Top shape: 1 17 1 1 (17)
I0802 14:37:10.478468  6271 net.cpp:172] fc3 does not need backward computation.
I0802 14:37:10.478534  6271 net.cpp:172] htanh does not need backward computation.
I0802 14:37:10.478585  6271 net.cpp:172] fc1 does not need backward computation.
I0802 14:37:10.478653  6271 net.cpp:208] This network produces output fc3
I0802 14:37:10.478739  6271 net.cpp:467] Collecting Learning Rate and Weight Decay.
I0802 14:37:10.478811  6271 net.cpp:219] Network initialization done.
I0802 14:37:10.478857  6271 net.cpp:220] Memory required for data: 2468
I0802 14:37:10.501251  6271 tonic.cpp:31] Reshaping input to dims: 28 375 1 1
I0802 14:37:10.501703  6271 tonic.cpp:37] Reshaping output to dims: 28 17 1 1
Command terminated by signal 9
93.17user 10.08system 3:02.14elapsed 56%CPU (0avgtext+0avgdata 15437936maxresident)k
182728inputs+0outputs (64major+1214274minor)pagefaults 0swaps
---------------------------------------------------------
colocating with libquantum
nlp-ner
********* Setting up benchmark nlp
********* Running benchmark as ./tonic-nlp-ner
WARNING: Logging before InitGoogleLogging() is written to STDERR
I0802 14:40:24.077975 19433 net.cpp:39] Initializing net from parameters: 
name: "ner"
layers {
  bottom: "data"
  top: "fc1"
  name: "fc1"
  type: INNER_PRODUCT
  inner_product_param {
    num_output: 300
  }
}
layers {
  bottom: "fc1"
  top: "htanh"
  name: "htanh"
  type: HTANH
}
layers {
  bottom: "htanh"
  top: "fc3"
  name: "fc3"
  type: INNER_PRODUCT
  inner_product_param {
    num_output: 17
  }
}
input: "data"
input_dim: 1
input_dim: 375
input_dim: 1
input_dim: 1
I0802 14:40:24.083253 19433 net.cpp:358] Input 0 -> data
I0802 14:40:24.083721 19433 net.cpp:67] Creating Layer fc1
I0802 14:40:24.083803 19433 net.cpp:394] fc1 <- data
I0802 14:40:24.083863 19433 net.cpp:356] fc1 -> fc1
I0802 14:40:24.084008 19433 net.cpp:96] Setting up fc1
I0802 14:40:24.088121 19433 net.cpp:103] Top shape: 1 300 1 1 (300)
I0802 14:40:24.089723 19433 net.cpp:67] Creating Layer htanh
I0802 14:40:24.089833 19433 net.cpp:394] htanh <- fc1
I0802 14:40:24.089896 19433 net.cpp:356] htanh -> htanh
I0802 14:40:24.090078 19433 net.cpp:96] Setting up htanh
I0802 14:40:24.092294 19433 net.cpp:103] Top shape: 1 300 1 1 (300)
I0802 14:40:24.092710 19433 net.cpp:67] Creating Layer fc3
I0802 14:40:24.092777 19433 net.cpp:394] fc3 <- htanh
I0802 14:40:24.092943 19433 net.cpp:356] fc3 -> fc3
I0802 14:40:24.093062 19433 net.cpp:96] Setting up fc3
I0802 14:40:24.093188 19433 net.cpp:103] Top shape: 1 17 1 1 (17)
I0802 14:40:24.093276 19433 net.cpp:172] fc3 does not need backward computation.
I0802 14:40:24.093338 19433 net.cpp:172] htanh does not need backward computation.
I0802 14:40:24.093379 19433 net.cpp:172] fc1 does not need backward computation.
I0802 14:40:24.093439 19433 net.cpp:208] This network produces output fc3
I0802 14:40:24.093528 19433 net.cpp:467] Collecting Learning Rate and Weight Decay.
I0802 14:40:24.093585 19433 net.cpp:219] Network initialization done.
I0802 14:40:24.093636 19433 net.cpp:220] Memory required for data: 2468
I0802 14:40:24.124902 19433 tonic.cpp:31] Reshaping input to dims: 28 375 1 1
I0802 14:40:24.125500 19433 tonic.cpp:37] Reshaping output to dims: 28 17 1 1
---------------------------------------------------------
colocating with libquantum
nlp-ner
Command terminated by signal 9
92.67user 9.71system 2:58.93elapsed 57%CPU (0avgtext+0avgdata 15462976maxresident)k
183008inputs+0outputs (65major+1215801minor)pagefaults 0swaps
********* Setting up benchmark nlp
********* Running benchmark as ./tonic-nlp-ner
WARNING: Logging before InitGoogleLogging() is written to STDERR
I0802 14:43:32.666156 32110 net.cpp:39] Initializing net from parameters: 
name: "ner"
layers {
  bottom: "data"
  top: "fc1"
  name: "fc1"
  type: INNER_PRODUCT
  inner_product_param {
    num_output: 300
  }
}
layers {
  bottom: "fc1"
  top: "htanh"
  name: "htanh"
  type: HTANH
}
layers {
  bottom: "htanh"
  top: "fc3"
  name: "fc3"
  type: INNER_PRODUCT
  inner_product_param {
    num_output: 17
  }
}
input: "data"
input_dim: 1
input_dim: 375
input_dim: 1
input_dim: 1
I0802 14:43:32.669314 32110 net.cpp:358] Input 0 -> data
I0802 14:43:32.671221 32110 net.cpp:67] Creating Layer fc1
I0802 14:43:32.671546 32110 net.cpp:394] fc1 <- data
I0802 14:43:32.671852 32110 net.cpp:356] fc1 -> fc1
I0802 14:43:32.672001 32110 net.cpp:96] Setting up fc1
I0802 14:43:32.674592 32110 net.cpp:103] Top shape: 1 300 1 1 (300)
I0802 14:43:32.676602 32110 net.cpp:67] Creating Layer htanh
I0802 14:43:32.676741 32110 net.cpp:394] htanh <- fc1
I0802 14:43:32.676801 32110 net.cpp:356] htanh -> htanh
I0802 14:43:32.676908 32110 net.cpp:96] Setting up htanh
I0802 14:43:32.676991 32110 net.cpp:103] Top shape: 1 300 1 1 (300)
I0802 14:43:32.677054 32110 net.cpp:67] Creating Layer fc3
I0802 14:43:32.677094 32110 net.cpp:394] fc3 <- htanh
I0802 14:43:32.677156 32110 net.cpp:356] fc3 -> fc3
I0802 14:43:32.677214 32110 net.cpp:96] Setting up fc3
I0802 14:43:32.677379 32110 net.cpp:103] Top shape: 1 17 1 1 (17)
I0802 14:43:32.677439 32110 net.cpp:172] fc3 does not need backward computation.
I0802 14:43:32.677510 32110 net.cpp:172] htanh does not need backward computation.
I0802 14:43:32.677562 32110 net.cpp:172] fc1 does not need backward computation.
I0802 14:43:32.677603 32110 net.cpp:208] This network produces output fc3
I0802 14:43:32.677698 32110 net.cpp:467] Collecting Learning Rate and Weight Decay.
…
