…
********* Running benchmark as ./crf_tag
324.35user 0.16system 6:51.58elapsed 78%CPU (0avgtext+0avgdata 387520maxresident)k
0inputs+8outputs (0major+28830minor)pagefaults 0swaps
---------------------------------------------------------
crf
********* Setting up benchmark crf
********* Running benchmark as ./crf_tag
---------------------------------------------------------
img-imc
********* Setting up benchmark img
********* Running benchmark as ./tonic-img-imc
WARNING: Logging before InitGoogleLogging() is written to STDERR
I0730 14:32:47.771378 16387 net.cpp:39] Initializing net from parameters: 
name: "imc"
layers {
  bottom: "data"
  top: "conv1"
  name: "conv1"
  type: CONVOLUTION
  convolution_param {
    num_output: 96
    kernel_size: 11
    stride: 4
  }
}
layers {
  bottom: "conv1"
  top: "conv1"
  name: "relu1"
  type: RELU
}
layers {
  bottom: "conv1"
  top: "pool1"
  name: "pool1"
  type: POOLING
  pooling_param {
    pool: MAX
    kernel_size: 3
    stride: 2
  }
}
layers {
  bottom: "pool1"
  top: "norm1"
  name: "norm1"
  type: LRN
  lrn_param {
    local_size: 5
    alpha: 0.0001
    beta: 0.75
  }
}
layers {
  bottom: "norm1"
  top: "conv2"
  name: "conv2"
  type: CONVOLUTION
  convolution_param {
    num_output: 256
    pad: 2
    kernel_size: 5
    group: 2
  }
}
layers {
  bottom: "conv2"
  top: "conv2"
  name: "relu2"
  type: RELU
}
layers {
  bottom: "conv2"
  top: "pool2"
  name: "pool2"
  type: POOLING
  pooling_param {
    pool: MAX
    kernel_size: 3
    stride: 2
  }
}
layers {
  bottom: "pool2"
  top: "norm2"
  name: "norm2"
  type: LRN
  lrn_param {
    local_size: 5
    alpha: 0.0001
    beta: 0.75
  }
}
layers {
  bottom: "norm2"
  top: "conv3"
  name: "conv3"
  type: CONVOLUTION
  convolution_param {
    num_output: 384
    pad: 1
    kernel_size: 3
  }
}
layers {
  bottom: "conv3"
  top: "conv3"
  name: "relu3"
  type: RELU
}
layers {
  bottom: "conv3"
  top: "conv4"
  name: "conv4"
  type: CONVOLUTION
  convolution_param {
    num_output: 384
    pad: 1
    kernel_size: 3
    group: 2
  }
}
layers {
  bottom: "conv4"
  top: "conv4"
  name: "relu4"
  type: RELU
}
layers {
  bottom: "conv4"
  top: "conv5"
  name: "conv5"
  type: CONVOLUTION
  convolution_param {
    num_output: 256
    pad: 1
    kernel_size: 3
    group: 2
  }
}
layers {
  bottom: "conv5"
  top: "conv5"
  name: "relu5"
  type: RELU
}
layers {
  bottom: "conv5"
  top: "pool5"
  name: "pool5"
  type: POOLING
  pooling_param {
    pool: MAX
    kernel_size: 3
    stride: 2
  }
}
layers {
  bottom: "pool5"
  top: "fc6"
  name: "fc6"
  type: INNER_PRODUCT
  inner_product_param {
    num_output: 4096
  }
}
layers {
  bottom: "fc6"
  top: "fc6"
  name: "relu6"
  type: RELU
}
layers {
  bottom: "fc6"
  top: "fc6"
  name: "drop6"
  type: DROPOUT
  dropout_param {
    dropout_ratio: 0.5
  }
}
layers {
  bottom: "fc6"
  top: "fc7"
  name: "fc7"
  type: INNER_PRODUCT
  inner_product_param {
    num_output: 4096
  }
}
layers {
  bottom: "fc7"
  top: "fc7"
  name: "relu7"
  type: RELU
}
layers {
  bottom: "fc7"
  top: "fc7"
  name: "drop7"
  type: DROPOUT
  dropout_param {
    dropout_ratio: 0.5
  }
}
layers {
  bottom: "fc7"
  top: "fc8"
  name: "fc8"
  type: INNER_PRODUCT
  inner_product_param {
    num_output: 1000
  }
}
layers {
  bottom: "fc8"
  top: "prob"
  name: "prob"
  type: SOFTMAX
}
layers {
  bottom: "prob"
  top: "argmax"
  name: "argmax"
  type: ARGMAX
}
input: "data"
input_dim: 1
input_dim: 3
input_dim: 227
input_dim: 227
I0730 14:32:47.771813 16387 net.cpp:358] Input 0 -> data
I0730 14:32:47.771967 16387 net.cpp:67] Creating Layer conv1
I0730 14:32:47.772053 16387 net.cpp:394] conv1 <- data
I0730 14:32:47.772104 16387 net.cpp:356] conv1 -> conv1
I0730 14:32:47.772183 16387 net.cpp:96] Setting up conv1
I0730 14:32:47.774760 16387 net.cpp:103] Top shape: 1 96 55 55 (290400)
I0730 14:32:47.775049 16387 net.cpp:67] Creating Layer relu1
I0730 14:32:47.775125 16387 net.cpp:394] relu1 <- conv1
I0730 14:32:47.775244 16387 net.cpp:345] relu1 -> conv1 (in-place)
I0730 14:32:47.775301 16387 net.cpp:96] Setting up relu1
I0730 14:32:47.775365 16387 net.cpp:103] Top shape: 1 96 55 55 (290400)
I0730 14:32:47.775413 16387 net.cpp:67] Creating Layer pool1
I0730 14:32:47.775466 16387 net.cpp:394] pool1 <- conv1
I0730 14:32:47.775507 16387 net.cpp:356] pool1 -> pool1
I0730 14:32:47.775571 16387 net.cpp:96] Setting up pool1
I0730 14:32:47.780056 16387 net.cpp:103] Top shape: 1 96 27 27 (69984)
I0730 14:32:47.780115 16387 net.cpp:67] Creating Layer norm1
I0730 14:32:47.780155 16387 net.cpp:394] norm1 <- pool1
I0730 14:32:47.780217 16387 net.cpp:356] norm1 -> norm1
I0730 14:32:47.780266 16387 net.cpp:96] Setting up norm1
I0730 14:32:47.780340 16387 net.cpp:103] Top shape: 1 96 27 27 (69984)
I0730 14:32:47.780385 16387 net.cpp:67] Creating Layer conv2
I0730 14:32:47.780436 16387 net.cpp:394] conv2 <- norm1
I0730 14:32:47.780478 16387 net.cpp:356] conv2 -> conv2
I0730 14:32:47.780534 16387 net.cpp:96] Setting up conv2
I0730 14:32:47.783726 16387 net.cpp:103] Top shape: 1 256 27 27 (186624)
I0730 14:32:47.784376 16387 net.cpp:67] Creating Layer relu2
I0730 14:32:47.784423 16387 net.cpp:394] relu2 <- conv2
I0730 14:32:47.784481 16387 net.cpp:345] relu2 -> conv2 (in-place)
I0730 14:32:47.789322 16387 net.cpp:96] Setting up relu2
I0730 14:32:47.789386 16387 net.cpp:103] Top shape: 1 256 27 27 (186624)
I0730 14:32:47.789427 16387 net.cpp:67] Creating Layer pool2
I0730 14:32:47.789505 16387 net.cpp:394] pool2 <- conv2
I0730 14:32:47.789547 16387 net.cpp:356] pool2 -> pool2
I0730 14:32:47.789609 16387 net.cpp:96] Setting up pool2
I0730 14:32:47.789652 16387 net.cpp:103] Top shape: 1 256 13 13 (43264)
I0730 14:32:47.789710 16387 net.cpp:67] Creating Layer norm2
I0730 14:32:47.789749 16387 net.cpp:394] norm2 <- pool2
I0730 14:32:47.789821 16387 net.cpp:356] norm2 -> norm2
I0730 14:32:47.789870 16387 net.cpp:96] Setting up norm2
I0730 14:32:47.789918 16387 net.cpp:103] Top shape: 1 256 13 13 (43264)
I0730 14:32:47.789963 16387 net.cpp:67] Creating Layer conv3
I0730 14:32:47.790009 16387 net.cpp:394] conv3 <- norm2
I0730 14:32:47.790050 16387 net.cpp:356] conv3 -> conv3
I0730 14:32:47.790101 16387 net.cpp:96] Setting up conv3
I0730 14:32:47.811631 16387 net.cpp:103] Top shape: 1 384 13 13 (64896)
I0730 14:32:47.815001 16387 net.cpp:67] Creating Layer relu3
I0730 14:32:47.815052 16387 net.cpp:394] relu3 <- conv3
I0730 14:32:47.815127 16387 net.cpp:345] relu3 -> conv3 (in-place)
I0730 14:32:47.815181 16387 net.cpp:96] Setting up relu3
I0730 14:32:47.815232 16387 net.cpp:103] Top shape: 1 384 13 13 (64896)
I0730 14:32:47.815274 16387 net.cpp:67] Creating Layer conv4
I0730 14:32:47.815320 16387 net.cpp:394] conv4 <- conv3
I0730 14:32:47.815394 16387 net.cpp:356] conv4 -> conv4
I0730 14:32:47.815445 16387 net.cpp:96] Setting up conv4
I0730 14:32:47.830633 16387 net.cpp:103] Top shape: 1 384 13 13 (64896)
I0730 14:32:47.830698 16387 net.cpp:67] Creating Layer relu4
I0730 14:32:47.830746 16387 net.cpp:394] relu4 <- conv4
I0730 14:32:47.830821 16387 net.cpp:345] relu4 -> conv4 (in-place)
I0730 14:32:47.830868 16387 net.cpp:96] Setting up relu4
I0730 14:32:47.830916 16387 net.cpp:103] Top shape: 1 384 13 13 (64896)
I0730 14:32:47.830957 16387 net.cpp:67] Creating Layer conv5
I0730 14:32:47.831003 16387 net.cpp:394] conv5 <- conv4
I0730 14:32:47.831071 16387 net.cpp:356] conv5 -> conv5
I0730 14:32:47.831120 16387 net.cpp:96] Setting up conv5
I0730 14:32:47.835489 16387 net.cpp:103] Top shape: 1 256 13 13 (43264)
I0730 14:32:47.840028 16387 net.cpp:67] Creating Layer relu5
I0730 14:32:47.840077 16387 net.cpp:394] relu5 <- conv5
I0730 14:32:47.840147 16387 net.cpp:345] relu5 -> conv5 (in-place)
I0730 14:32:47.840198 16387 net.cpp:96] Setting up relu5
I0730 14:32:47.840235 16387 net.cpp:103] Top shape: 1 256 13 13 (43264)
I0730 14:32:47.840291 16387 net.cpp:67] Creating Layer pool5
I0730 14:32:47.840333 16387 net.cpp:394] pool5 <- conv5
I0730 14:32:47.840389 16387 net.cpp:356] pool5 -> pool5
I0730 14:32:47.840433 16387 net.cpp:96] Setting up pool5
I0730 14:32:47.840489 16387 net.cpp:103] Top shape: 1 256 6 6 (9216)
I0730 14:32:47.840533 16387 net.cpp:67] Creating Layer fc6
I0730 14:32:47.840584 16387 net.cpp:394] fc6 <- pool5
I0730 14:32:47.840626 16387 net.cpp:356] fc6 -> fc6
I0730 14:32:47.840690 16387 net.cpp:96] Setting up fc6
I0730 14:32:48.870319 16387 net.cpp:103] Top shape: 1 4096 1 1 (4096)
I0730 14:32:48.871572 16387 net.cpp:67] Creating Layer relu6
I0730 14:32:48.871737 16387 net.cpp:394] relu6 <- fc6
I0730 14:32:48.871820 16387 net.cpp:345] relu6 -> fc6 (in-place)
I0730 14:32:48.871870 16387 net.cpp:96] Setting up relu6
I0730 14:32:48.872019 16387 net.cpp:103] Top shape: 1 4096 1 1 (4096)
I0730 14:32:48.872068 16387 net.cpp:67] Creating Layer drop6
I0730 14:32:48.872118 16387 net.cpp:394] drop6 <- fc6
I0730 14:32:48.873472 16387 net.cpp:345] drop6 -> fc6 (in-place)
I0730 14:32:48.873528 16387 net.cpp:96] Setting up drop6
I0730 14:32:48.873605 16387 net.cpp:103] Top shape: 1 4096 1 1 (4096)
I0730 14:32:48.873663 16387 net.cpp:67] Creating Layer fc7
I0730 14:32:48.873700 16387 net.cpp:394] fc7 <- fc6
I0730 14:32:48.873756 16387 net.cpp:356] fc7 -> fc7
I0730 14:32:48.873806 16387 net.cpp:96] Setting up fc7
I0730 14:32:49.313259 16387 net.cpp:103] Top shape: 1 4096 1 1 (4096)
I0730 14:32:49.321506 16387 net.cpp:67] Creating Layer relu7
I0730 14:32:49.321554 16387 net.cpp:394] relu7 <- fc7
I0730 14:32:49.321625 16387 net.cpp:345] relu7 -> fc7 (in-place)
I0730 14:32:49.321694 16387 net.cpp:96] Setting up relu7
I0730 14:32:49.321737 16387 net.cpp:103] Top shape: 1 4096 1 1 (4096)
I0730 14:32:49.321787 16387 net.cpp:67] Creating Layer drop7
I0730 14:32:49.321835 16387 net.cpp:394] drop7 <- fc7
I0730 14:32:49.321895 16387 net.cpp:345] drop7 -> fc7 (in-place)
I0730 14:32:49.321940 16387 net.cpp:96] Setting up drop7
I0730 14:32:49.321990 16387 net.cpp:103] Top shape: 1 4096 1 1 (4096)
I0730 14:32:49.322039 16387 net.cpp:67] Creating Layer fc8
I0730 14:32:49.322085 16387 net.cpp:394] fc8 <- fc7
I0730 14:32:49.322136 16387 net.cpp:356] fc8 -> fc8
I0730 14:32:49.322198 16387 net.cpp:96] Setting up fc8
I0730 14:32:49.364848 16387 net.cpp:103] Top shape: 1 1000 1 1 (1000)
I0730 14:32:49.365020 16387 net.cpp:67] Creating Layer prob
I0730 14:32:49.365064 16387 net.cpp:394] prob <- fc8
I0730 14:32:49.365135 16387 net.cpp:356] prob -> prob
I0730 14:32:49.365193 16387 net.cpp:96] Setting up prob
I0730 14:32:49.365274 16387 net.cpp:103] Top shape: 1 1000 1 1 (1000)
I0730 14:32:49.365355 16387 net.cpp:67] Creating Layer argmax
I0730 14:32:49.365398 16387 net.cpp:394] argmax <- prob
I0730 14:32:49.365453 16387 net.cpp:356] argmax -> argmax
I0730 14:32:49.365506 16387 net.cpp:96] Setting up argmax
I0730 14:32:49.366003 16387 net.cpp:103] Top shape: 1 1 1 1 (1)
I0730 14:32:49.366014 16387 net.cpp:172] argmax does not need backward computation.
I0730 14:32:49.366029 16387 net.cpp:172] prob does not need backward computation.
I0730 14:32:49.366032 16387 net.cpp:172] fc8 does not need backward computation.
I0730 14:32:49.366035 16387 net.cpp:172] drop7 does not need backward computation.
I0730 14:32:49.366039 16387 net.cpp:172] relu7 does not need backward computation.
…
I0730 15:23:18.987184  7739 img-client.cpp:222] Image: input/imc/cat-281-227.jpg class: 281
I0730 15:23:18.987222  7739 img-client.cpp:222] Image: input/imc/tp-999-227.jpg class: 999
385.50user 0.64system 8:27.03elapsed 76%CPU (0avgtext+0avgdata 2216512maxresident)k
0inputs+8outputs (0major+217372minor)pagefaults 0swaps
---------------------------------------------------------
img-dig
********* Setting up benchmark img
********* Running benchmark as ./tonic-img-dig
WARNING: Logging before InitGoogleLogging() is written to STDERR
I0730 15:23:20.338048 12684 net.cpp:39] Initializing net from parameters: 
name: "dig"
layers {
  bottom: "data"
  top: "conv1"
  name: "conv1"
  type: CONVOLUTION
  convolution_param {
    num_output: 20
    kernel_size: 5
    stride: 1
    weight_filler {
      type: "xavier"
    }
    bias_filler {
      type: "constant"
    }
  }
}
layers {
  bottom: "conv1"
  top: "pool1"
  name: "pool1"
  type: POOLING
  pooling_param {
    pool: MAX
    kernel_size: 2
    stride: 2
  }
}
layers {
  bottom: "pool1"
  top: "conv2"
  name: "conv2"
  type: CONVOLUTION
  convolution_param {
    num_output: 50
    kernel_size: 5
    stride: 1
    weight_filler {
      type: "xavier"
    }
    bias_filler {
      type: "constant"
    }
  }
}
layers {
  bottom: "conv2"
  top: "pool2"
  name: "pool2"
  type: POOLING
  pooling_param {
    pool: MAX
    kernel_size: 2
    stride: 2
  }
}
layers {
  bottom: "pool2"
  top: "ip1"
  name: "ip1"
  type: INNER_PRODUCT
  inner_product_param {
    num_output: 500
    weight_filler {
      type: "xavier"
    }
    bias_filler {
      type: "constant"
    }
  }
}
layers {
  bottom: "ip1"
  top: "ip1"
  name: "relu1"
  type: RELU
}
layers {
  bottom: "ip1"
  top: "ip2"
  name: "ip2"
  type: INNER_PRODUCT
  inner_product_param {
    num_output: 10
    weight_filler {
      type: "xavier"
    }
    bias_filler {
      type: "constant"
    }
  }
}
layers {
  bottom: "ip2"
  top: "prob"
  name: "prob"
  type: SOFTMAX
}
layers {
  bottom: "prob"
  top: "argmax"
  name: "argmax"
  type: ARGMAX
}
input: "data"
input_dim: 1
input_dim: 1
input_dim: 28
input_dim: 28
I0730 15:23:20.338461 12684 net.cpp:358] Input 0 -> data
I0730 15:23:20.338620 12684 net.cpp:67] Creating Layer conv1
I0730 15:23:20.338692 12684 net.cpp:394] conv1 <- data
I0730 15:23:20.338749 12684 net.cpp:356] conv1 -> conv1
I0730 15:23:20.338825 12684 net.cpp:96] Setting up conv1
I0730 15:23:20.339339 12684 net.cpp:103] Top shape: 1 20 24 24 (11520)
I0730 15:23:20.339447 12684 net.cpp:67] Creating Layer pool1
I0730 15:23:20.339488 12684 net.cpp:394] pool1 <- conv1
I0730 15:23:20.339535 12684 net.cpp:356] pool1 -> pool1
I0730 15:23:20.339584 12684 net.cpp:96] Setting up pool1
I0730 15:23:20.339658 12684 net.cpp:103] Top shape: 1 20 12 12 (2880)
I0730 15:23:20.339704 12684 net.cpp:67] Creating Layer conv2
I0730 15:23:20.339762 12684 net.cpp:394] conv2 <- pool1
I0730 15:23:20.339804 12684 net.cpp:356] conv2 -> conv2
I0730 15:23:20.339846 12684 net.cpp:96] Setting up conv2
I0730 15:23:20.340247 12684 net.cpp:103] Top shape: 1 50 8 8 (3200)
I0730 15:23:20.340312 12684 net.cpp:67] Creating Layer pool2
I0730 15:23:20.340351 12684 net.cpp:394] pool2 <- conv2
I0730 15:23:20.340391 12684 net.cpp:356] pool2 -> pool2
I0730 15:23:20.340445 12684 net.cpp:96] Setting up pool2
I0730 15:23:20.340494 12684 net.cpp:103] Top shape: 1 50 4 4 (800)
I0730 15:23:20.340535 12684 net.cpp:67] Creating Layer ip1
I0730 15:23:20.340581 12684 net.cpp:394] ip1 <- pool2
I0730 15:23:20.340621 12684 net.cpp:356] ip1 -> ip1
I0730 15:23:20.340675 12684 net.cpp:96] Setting up ip1
I0730 15:23:20.345340 12684 net.cpp:103] Top shape: 1 500 1 1 (500)
I0730 15:23:20.345401 12684 net.cpp:67] Creating Layer relu1
I0730 15:23:20.345438 12684 net.cpp:394] relu1 <- ip1
I0730 15:23:20.345489 12684 net.cpp:345] relu1 -> ip1 (in-place)
I0730 15:23:20.345532 12684 net.cpp:96] Setting up relu1
I0730 15:23:20.345584 12684 net.cpp:103] Top shape: 1 500 1 1 (500)
I0730 15:23:20.345626 12684 net.cpp:67] Creating Layer ip2
I0730 15:23:20.345672 12684 net.cpp:394] ip2 <- ip1
I0730 15:23:20.345712 12684 net.cpp:356] ip2 -> ip2
I0730 15:23:20.345763 12684 net.cpp:96] Setting up ip2
I0730 15:23:20.345892 12684 net.cpp:103] Top shape: 1 10 1 1 (10)
I0730 15:23:20.345944 12684 net.cpp:67] Creating Layer prob
I0730 15:23:20.345981 12684 net.cpp:394] prob <- ip2
I0730 15:23:20.346030 12684 net.cpp:356] prob -> prob
I0730 15:23:20.346071 12684 net.cpp:96] Setting up prob
I0730 15:23:20.346123 12684 net.cpp:103] Top shape: 1 10 1 1 (10)
I0730 15:23:20.346164 12684 net.cpp:67] Creating Layer argmax
I0730 15:23:20.346210 12684 net.cpp:394] argmax <- prob
I0730 15:23:20.346249 12684 net.cpp:356] argmax -> argmax
I0730 15:23:20.346302 12684 net.cpp:96] Setting up argmax
I0730 15:23:20.346343 12684 net.cpp:103] Top shape: 1 1 1 1 (1)
I0730 15:23:20.346390 12684 net.cpp:172] argmax does not need backward computation.
I0730 15:23:20.346432 12684 net.cpp:172] prob does not need backward computation.
I0730 15:23:20.346477 12684 net.cpp:172] ip2 does not need backward computation.
I0730 15:23:20.346510 12684 net.cpp:172] relu1 does not need backward computation.
I0730 15:23:20.346552 12684 net.cpp:172] ip1 does not need backward computation.
…
I0730 16:12:53.709270  7109 img-client.cpp:222] Image: input/dig/8.png class: 8
I0730 16:12:53.709331  7109 img-client.cpp:222] Image: input/dig/9.png class: 9
459.04user 0.19system 9:52.15elapsed 77%CPU (0avgtext+0avgdata 177712maxresident)k
0inputs+8outputs (0major+11942minor)pagefaults 0swaps
---------------------------------------------------------
img-face
********* Setting up benchmark img
********* Running benchmark as ./tonic-img-face
WARNING: Logging before InitGoogleLogging() is written to STDERR
I0730 16:12:55.019199 20653 net.cpp:39] Initializing net from parameters: 
name: "face"
layers {
  bottom: "data"
  top: "conv1"
  name: "conv1"
  type: CONVOLUTION
  convolution_param {
    num_output: 32
    kernel_size: 11
    stride: 1
  }
}
layers {
  bottom: "conv1"
  top: "pool2"
  name: "pool2"
  type: POOLING
  pooling_param {
    pool: MAX
    kernel_size: 3
    stride: 2
  }
}
layers {
  bottom: "pool2"
  top: "conv3"
  name: "conv3"
  type: CONVOLUTION
  convolution_param {
    num_output: 16
    kernel_size: 9
    stride: 1
  }
}
layers {
  bottom: "conv3"
  top: "local4"
  name: "local4"
  type: LOCAL
  local_param {
    num_output: 16
    kernel_size: 9
    stride: 1
  }
}
layers {
  bottom: "local4"
  top: "local5"
  name: "local5"
  type: LOCAL
  local_param {
    num_output: 16
    kernel_size: 7
    stride: 2
  }
}
layers {
  bottom: "local5"
  top: "local6"
  name: "local6"
  type: LOCAL
  local_param {
    num_output: 16
    kernel_size: 5
    stride: 1
  }
}
layers {
  bottom: "local6"
  top: "fc7"
  name: "fc7"
  type: INNER_PRODUCT
  inner_product_param {
    num_output: 4096
  }
}
layers {
  bottom: "fc7"
  top: "fc8"
  name: "fc8"
  type: INNER_PRODUCT
  inner_product_param {
    num_output: 83
  }
}
layers {
  bottom: "fc8"
  top: "prob"
  name: "prob"
  type: SOFTMAX
}
layers {
  bottom: "prob"
  top: "argmax"
  name: "argmax"
  type: ARGMAX
}
input: "data"
input_dim: 1
input_dim: 3
input_dim: 152
input_dim: 152
I0730 16:12:55.019575 20653 net.cpp:358] Input 0 -> data
I0730 16:12:55.019732 20653 net.cpp:67] Creating Layer conv1
I0730 16:12:55.019791 20653 net.cpp:394] conv1 <- data
I0730 16:12:55.019841 20653 net.cpp:356] conv1 -> conv1
I0730 16:12:55.019918 20653 net.cpp:96] Setting up conv1
I0730 16:12:55.020190 20653 net.cpp:103] Top shape: 1 32 142 142 (645248)
I0730 16:12:55.020295 20653 net.cpp:67] Creating Layer pool2
I0730 16:12:55.020337 20653 net.cpp:394] pool2 <- conv1
I0730 16:12:55.020390 20653 net.cpp:356] pool2 -> pool2
I0730 16:12:55.020437 20653 net.cpp:96] Setting up pool2
I0730 16:12:55.020522 20653 net.cpp:103] Top shape: 1 32 71 71 (161312)
I0730 16:12:55.020570 20653 net.cpp:67] Creating Layer conv3
I0730 16:12:55.020617 20653 net.cpp:394] conv3 <- pool2
I0730 16:12:55.020656 20653 net.cpp:356] conv3 -> conv3
I0730 16:12:55.020709 20653 net.cpp:96] Setting up conv3
I0730 16:12:55.020896 20653 net.cpp:103] Top shape: 1 16 63 63 (63504)
I0730 16:12:55.020967 20653 net.cpp:67] Creating Layer local4
I0730 16:12:55.021005 20653 net.cpp:394] local4 <- conv3
I0730 16:12:55.021055 20653 net.cpp:356] local4 -> local4
I0730 16:12:55.021102 20653 net.cpp:96] Setting up local4
I0730 16:12:55.831033 20653 net.cpp:103] Top shape: 1 16 55 55 (48400)
I0730 16:12:55.831233 20653 net.cpp:67] Creating Layer local5
I0730 16:12:55.831270 20653 net.cpp:394] local5 <- local4
I0730 16:12:55.831359 20653 net.cpp:356] local5 -> local5
I0730 16:12:55.831424 20653 net.cpp:96] Setting up local5
I0730 16:12:55.902111 20653 net.cpp:103] Top shape: 1 16 25 25 (10000)
I0730 16:12:55.902286 20653 net.cpp:67] Creating Layer local6
I0730 16:12:55.902326 20653 net.cpp:394] local6 <- local5
I0730 16:12:55.902431 20653 net.cpp:356] local6 -> local6
I0730 16:12:55.902487 20653 net.cpp:96] Setting up local6
I0730 16:12:55.926003 20653 net.cpp:103] Top shape: 1 16 21 21 (7056)
I0730 16:12:55.926183 20653 net.cpp:67] Creating Layer fc7
I0730 16:12:55.926228 20653 net.cpp:394] fc7 <- local6
I0730 16:12:55.926309 20653 net.cpp:356] fc7 -> fc7
I0730 16:12:55.926372 20653 net.cpp:96] Setting up fc7
I0730 16:12:56.351332 20653 net.cpp:103] Top shape: 1 4096 1 1 (4096)
I0730 16:12:56.356205 20653 net.cpp:67] Creating Layer fc8
I0730 16:12:56.357240 20653 net.cpp:394] fc8 <- fc7
I0730 16:12:56.357301 20653 net.cpp:356] fc8 -> fc8
I0730 16:12:56.357379 20653 net.cpp:96] Setting up fc8
I0730 16:12:56.358197 20653 net.cpp:103] Top shape: 1 83 1 1 (83)
I0730 16:12:56.358273 20653 net.cpp:67] Creating Layer prob
I0730 16:12:56.358316 20653 net.cpp:394] prob <- fc8
I0730 16:12:56.358367 20653 net.cpp:356] prob -> prob
I0730 16:12:56.358422 20653 net.cpp:96] Setting up prob
I0730 16:12:56.358484 20653 net.cpp:103] Top shape: 1 83 1 1 (83)
I0730 16:12:56.358530 20653 net.cpp:67] Creating Layer argmax
I0730 16:12:56.358578 20653 net.cpp:394] argmax <- prob
I0730 16:12:56.358629 20653 net.cpp:356] argmax -> argmax
I0730 16:12:56.358680 20653 net.cpp:96] Setting up argmax
I0730 16:12:56.358733 20653 net.cpp:103] Top shape: 1 1 1 1 (1)
I0730 16:12:56.358779 20653 net.cpp:172] argmax does not need backward computation.
I0730 16:12:56.358837 20653 net.cpp:172] prob does not need backward computation.
I0730 16:12:56.358882 20653 net.cpp:172] fc8 does not need backward computation.
I0730 16:12:56.358927 20653 net.cpp:172] fc7 does not need backward computation.
I0730 16:12:56.358971 20653 net.cpp:172] local6 does not need backward computation.
…
I0730 16:50:55.633432  4009 img-client.cpp:222] Image: input/face/angelina-jolie-03-152.jpg class: 0
I0730 16:50:55.633472  4009 img-client.cpp:222] Image: input/face/daniel-craig-20-152.jpg class: 0
329.58user 1.07system 7:33.80elapsed 72%CPU (0avgtext+0avgdata 3593520maxresident)k
0inputs+8outputs (0major+342262minor)pagefaults 0swaps
---------------------------------------------------------
nlp-pos
********* Setting up benchmark nlp
********* Running benchmark as ./tonic-nlp-pos
WARNING: Logging before InitGoogleLogging() is written to STDERR
I0730 16:50:57.303134  7920 net.cpp:39] Initializing net from parameters: 
name: "pos"
layers {
  bottom: "data"
  top: "fc1"
  name: "fc1"
  type: INNER_PRODUCT
  inner_product_param {
    num_output: 300
  }
}
layers {
  bottom: "fc1"
  top: "htanh"
  name: "htanh"
  type: HTANH
}
layers {
  bottom: "htanh"
  top: "fc3"
  name: "fc3"
  type: INNER_PRODUCT
  inner_product_param {
    num_output: 45
  }
}
input: "data"
input_dim: 1
input_dim: 300
input_dim: 1
input_dim: 1
I0730 16:50:57.303506  7920 net.cpp:358] Input 0 -> data
I0730 16:50:57.303668  7920 net.cpp:67] Creating Layer fc1
I0730 16:50:57.303726  7920 net.cpp:394] fc1 <- data
I0730 16:50:57.303786  7920 net.cpp:356] fc1 -> fc1
I0730 16:50:57.303858  7920 net.cpp:96] Setting up fc1
I0730 16:50:57.304813  7920 net.cpp:103] Top shape: 1 300 1 1 (300)
I0730 16:50:57.306216  7920 net.cpp:67] Creating Layer htanh
I0730 16:50:57.306758  7920 net.cpp:394] htanh <- fc1
I0730 16:50:57.306802  7920 net.cpp:356] htanh -> htanh
I0730 16:50:57.306859  7920 net.cpp:96] Setting up htanh
I0730 16:50:57.306920  7920 net.cpp:103] Top shape: 1 300 1 1 (300)
I0730 16:50:57.306968  7920 net.cpp:67] Creating Layer fc3
I0730 16:50:57.307006  7920 net.cpp:394] fc3 <- htanh
I0730 16:50:57.307056  7920 net.cpp:356] fc3 -> fc3
I0730 16:50:57.307102  7920 net.cpp:96] Setting up fc3
I0730 16:50:57.307195  7920 net.cpp:103] Top shape: 1 45 1 1 (45)
I0730 16:50:57.307245  7920 net.cpp:172] fc3 does not need backward computation.
I0730 16:50:57.307301  7920 net.cpp:172] htanh does not need backward computation.
I0730 16:50:57.307335  7920 net.cpp:172] fc1 does not need backward computation.
I0730 16:50:57.307395  7920 net.cpp:208] This network produces output fc3
I0730 16:50:57.307443  7920 net.cpp:467] Collecting Learning Rate and Weight Decay.
I0730 16:50:57.307497  7920 net.cpp:219] Network initialization done.
I0730 16:50:57.307533  7920 net.cpp:220] Memory required for data: 2580
I0730 16:50:57.320564  7920 tonic.cpp:31] Reshaping input to dims: 28 300 1 1
I0730 16:50:57.320643  7920 tonic.cpp:37] Reshaping output to dims: 28 45 1 1
Command terminated by signal 9
93.75user 5.28system 7:13.76elapsed 22%CPU (0avgtext+0avgdata 15252880maxresident)k
162888inputs+0outputs (2major+1202547minor)pagefaults 0swaps
---------------------------------------------------------
nlp-pos
********* Setting up benchmark nlp
********* Running benchmark as ./tonic-nlp-pos
WARNING: Logging before InitGoogleLogging() is written to STDERR
I0730 16:58:12.764909 21058 net.cpp:39] Initializing net from parameters: 
name: "pos"
layers {
  bottom: "data"
  top: "fc1"
  name: "fc1"
  type: INNER_PRODUCT
  inner_product_param {
    num_output: 300
  }
}
layers {
  bottom: "fc1"
  top: "htanh"
  name: "htanh"
  type: HTANH
}
layers {
  bottom: "htanh"
  top: "fc3"
  name: "fc3"
  type: INNER_PRODUCT
  inner_product_param {
    num_output: 45
  }
}
input: "data"
input_dim: 1
input_dim: 300
input_dim: 1
input_dim: 1
I0730 16:58:12.765194 21058 net.cpp:358] Input 0 -> data
I0730 16:58:12.765297 21058 net.cpp:67] Creating Layer fc1
I0730 16:58:12.765346 21058 net.cpp:394] fc1 <- data
I0730 16:58:12.765403 21058 net.cpp:356] fc1 -> fc1
I0730 16:58:12.765466 21058 net.cpp:96] Setting up fc1
I0730 16:58:12.770826 21058 net.cpp:103] Top shape: 1 300 1 1 (300)
I0730 16:58:12.771092 21058 net.cpp:67] Creating Layer htanh
I0730 16:58:12.771147 21058 net.cpp:394] htanh <- fc1
I0730 16:58:12.771386 21058 net.cpp:356] htanh -> htanh
I0730 16:58:12.771433 21058 net.cpp:96] Setting up htanh
I0730 16:58:12.771479 21058 net.cpp:103] Top shape: 1 300 1 1 (300)
I0730 16:58:12.771533 21058 net.cpp:67] Creating Layer fc3
I0730 16:58:12.771580 21058 net.cpp:394] fc3 <- htanh
I0730 16:58:12.771620 21058 net.cpp:356] fc3 -> fc3
I0730 16:58:12.771672 21058 net.cpp:96] Setting up fc3
I0730 16:58:12.771778 21058 net.cpp:103] Top shape: 1 45 1 1 (45)
I0730 16:58:12.771828 21058 net.cpp:172] fc3 does not need backward computation.
I0730 16:58:12.771867 21058 net.cpp:172] htanh does not need backward computation.
I0730 16:58:12.771913 21058 net.cpp:172] fc1 does not need backward computation.
I0730 16:58:12.771949 21058 net.cpp:208] This network produces output fc3
I0730 16:58:12.772023 21058 net.cpp:467] Collecting Learning Rate and Weight Decay.
I0730 16:58:12.772069 21058 net.cpp:219] Network initialization done.
I0730 16:58:12.772116 21058 net.cpp:220] Memory required for data: 2580
I0730 16:58:12.784401 21058 tonic.cpp:31] Reshaping input to dims: 28 300 1 1
I0730 16:58:12.784483 21058 tonic.cpp:37] Reshaping output to dims: 28 45 1 1
---------------------------------------------------------
nlp-pos
ssh_exchange_identification: Connection closed by remote host
Command terminated by signal 9
94.89user 5.52system 2:12.64elapsed 75%CPU (0avgtext+0avgdata 15528208maxresident)k
428296inputs+0outputs (1055major+1220404minor)pagefaults 0swaps
---------------------------------------------------------
nlp-pos
********* Setting up benchmark nlp
********* Running benchmark as ./tonic-nlp-pos
WARNING: Logging before InitGoogleLogging() is written to STDERR
I0730 17:00:26.545316  4958 net.cpp:39] Initializing net from parameters: 
name: "pos"
layers {
  bottom: "data"
  top: "fc1"
  name: "fc1"
  type: INNER_PRODUCT
  inner_product_param {
    num_output: 300
  }
}
layers {
  bottom: "fc1"
  top: "htanh"
  name: "htanh"
  type: HTANH
}
layers {
  bottom: "htanh"
  top: "fc3"
  name: "fc3"
  type: INNER_PRODUCT
  inner_product_param {
    num_output: 45
  }
}
input: "data"
input_dim: 1
input_dim: 300
input_dim: 1
input_dim: 1
I0730 17:00:26.545650  4958 net.cpp:358] Input 0 -> data
I0730 17:00:26.545771  4958 net.cpp:67] Creating Layer fc1
I0730 17:00:26.545820  4958 net.cpp:394] fc1 <- data
I0730 17:00:26.545861  4958 net.cpp:356] fc1 -> fc1
I0730 17:00:26.545927  4958 net.cpp:96] Setting up fc1
I0730 17:00:26.547185  4958 net.cpp:103] Top shape: 1 300 1 1 (300)
I0730 17:00:26.547436  4958 net.cpp:67] Creating Layer htanh
I0730 17:00:26.547488  4958 net.cpp:394] htanh <- fc1
I0730 17:00:26.547538  4958 net.cpp:356] htanh -> htanh
I0730 17:00:26.547740  4958 net.cpp:96] Setting up htanh
I0730 17:00:26.547794  4958 net.cpp:103] Top shape: 1 300 1 1 (300)
I0730 17:00:26.547840  4958 net.cpp:67] Creating Layer fc3
I0730 17:00:26.547888  4958 net.cpp:394] fc3 <- htanh
I0730 17:00:26.547930  4958 net.cpp:356] fc3 -> fc3
I0730 17:00:26.547982  4958 net.cpp:96] Setting up fc3
I0730 17:00:26.548192  4958 net.cpp:103] Top shape: 1 45 1 1 (45)
I0730 17:00:26.548815  4958 net.cpp:172] fc3 does not need backward computation.
I0730 17:00:26.548863  4958 net.cpp:172] htanh does not need backward computation.
I0730 17:00:26.548899  4958 net.cpp:172] fc1 does not need backward computation.
I0730 17:00:26.550405  4958 net.cpp:208] This network produces output fc3
I0730 17:00:26.550461  4958 net.cpp:467] Collecting Learning Rate and Weight Decay.
I0730 17:00:26.551029  4958 net.cpp:219] Network initialization done.
I0730 17:00:26.551075  4958 net.cpp:220] Memory required for data: 2580
I0730 17:00:26.564532  4958 tonic.cpp:31] Reshaping input to dims: 28 300 1 1
I0730 17:00:26.564613  4958 tonic.cpp:37] Reshaping output to dims: 28 45 1 1
---------------------------------------------------------
nlp-pos
Command terminated by signal 9
94.98user 4.92system 2:13.27elapsed 74%CPU (0avgtext+0avgdata 15484912maxresident)k
183744inputs+0outputs (67major+1217197minor)pagefaults 0swaps
********* Setting up benchmark nlp
********* Running benchmark as ./tonic-nlp-pos
WARNING: Logging before InitGoogleLogging() is written to STDERR
I0730 17:02:40.202458 22958 net.cpp:39] Initializing net from parameters: 
name: "pos"
layers {
  bottom: "data"
  top: "fc1"
  name: "fc1"
  type: INNER_PRODUCT
  inner_product_param {
    num_output: 300
  }
}
layers {
  bottom: "fc1"
  top: "htanh"
  name: "htanh"
  type: HTANH
}
layers {
  bottom: "htanh"
  top: "fc3"
  name: "fc3"
  type: INNER_PRODUCT
  inner_product_param {
    num_output: 45
  }
}
input: "data"
input_dim: 1
input_dim: 300
input_dim: 1
input_dim: 1
I0730 17:02:40.202843 22958 net.cpp:358] Input 0 -> data
I0730 17:02:40.203121 22958 net.cpp:67] Creating Layer fc1
I0730 17:02:40.203243 22958 net.cpp:394] fc1 <- data
I0730 17:02:40.203300 22958 net.cpp:356] fc1 -> fc1
I0730 17:02:40.203367 22958 net.cpp:96] Setting up fc1
I0730 17:02:40.204530 22958 net.cpp:103] Top shape: 1 300 1 1 (300)
I0730 17:02:40.204618 22958 net.cpp:67] Creating Layer htanh
I0730 17:02:40.204670 22958 net.cpp:394] htanh <- fc1
I0730 17:02:40.204720 22958 net.cpp:356] htanh -> htanh
I0730 17:02:40.204776 22958 net.cpp:96] Setting up htanh
I0730 17:02:40.204819 22958 net.cpp:103] Top shape: 1 300 1 1 (300)
I0730 17:02:40.204870 22958 net.cpp:67] Creating Layer fc3
I0730 17:02:40.204906 22958 net.cpp:394] fc3 <- htanh
I0730 17:02:40.204954 22958 net.cpp:356] fc3 -> fc3
I0730 17:02:40.204998 22958 net.cpp:96] Setting up fc3
I0730 17:02:40.205131 22958 net.cpp:103] Top shape: 1 45 1 1 (45)
I0730 17:02:40.205180 22958 net.cpp:172] fc3 does not need backward computation.
I0730 17:02:40.205229 22958 net.cpp:172] htanh does not need backward computation.
I0730 17:02:40.205265 22958 net.cpp:172] fc1 does not need backward computation.
I0730 17:02:40.205308 22958 net.cpp:208] This network produces output fc3
I0730 17:02:40.205351 22958 net.cpp:467] Collecting Learning Rate and Weight Decay.
I0730 17:02:40.205401 22958 net.cpp:219] Network initialization done.
I0730 17:02:40.205436 22958 net.cpp:220] Memory required for data: 2580
I0730 17:02:40.211189 22958 tonic.cpp:31] Reshaping input to dims: 28 300 1 1
I0730 17:02:40.211261 22958 tonic.cpp:37] Reshaping output to dims: 28 45 1 1
---------------------------------------------------------
nlp-chk
Command terminated by signal 9
95.06user 5.12system 2:15.33elapsed 74%CPU (0avgtext+0avgdata 15495440maxresident)k
182008inputs+0outputs (66major+1217910minor)pagefaults 0swaps
********* Setting up benchmark nlp
********* Running benchmark as ./tonic-nlp-chk
WARNING: Logging before InitGoogleLogging() is written to STDERR
I0730 17:04:55.787667  9628 net.cpp:39] Initializing net from parameters: 
name: "chk"
layers {
  bottom: "data"
  top: "fc1"
  name: "fc1"
  type: INNER_PRODUCT
  inner_product_param {
    num_output: 300
  }
}
layers {
  bottom: "fc1"
  top: "htanh"
  name: "htanh"
  type: HTANH
}
layers {
  bottom: "htanh"
  top: "fc3"
  name: "fc3"
  type: INNER_PRODUCT
  inner_product_param {
    num_output: 42
  }
}
input: "data"
input_dim: 1
input_dim: 300
input_dim: 1
input_dim: 1
I0730 17:04:55.788038  9628 net.cpp:358] Input 0 -> data
I0730 17:04:55.788839  9628 net.cpp:67] Creating Layer fc1
I0730 17:04:55.788895  9628 net.cpp:394] fc1 <- data
I0730 17:04:55.790472  9628 net.cpp:356] fc1 -> fc1
I0730 17:04:55.790540  9628 net.cpp:96] Setting up fc1
I0730 17:04:55.792026  9628 net.cpp:103] Top shape: 1 300 1 1 (300)
I0730 17:04:55.792297  9628 net.cpp:67] Creating Layer htanh
I0730 17:04:55.792345  9628 net.cpp:394] htanh <- fc1
I0730 17:04:55.792558  9628 net.cpp:356] htanh -> htanh
I0730 17:04:55.792614  9628 net.cpp:96] Setting up htanh
I0730 17:04:55.792659  9628 net.cpp:103] Top shape: 1 300 1 1 (300)
I0730 17:04:55.792721  9628 net.cpp:67] Creating Layer fc3
I0730 17:04:55.792760  9628 net.cpp:394] fc3 <- htanh
I0730 17:04:55.792809  9628 net.cpp:356] fc3 -> fc3
I0730 17:04:55.792855  9628 net.cpp:96] Setting up fc3
I0730 17:04:55.792973  9628 net.cpp:103] Top shape: 1 42 1 1 (42)
I0730 17:04:55.793021  9628 net.cpp:172] fc3 does not need backward computation.
I0730 17:04:55.793071  9628 net.cpp:172] htanh does not need backward computation.
I0730 17:04:55.793105  9628 net.cpp:172] fc1 does not need backward computation.
I0730 17:04:55.793149  9628 net.cpp:208] This network produces output fc3
I0730 17:04:55.793191  9628 net.cpp:467] Collecting Learning Rate and Weight Decay.
I0730 17:04:55.793241  9628 net.cpp:219] Network initialization done.
I0730 17:04:55.793277  9628 net.cpp:220] Memory required for data: 2568
I0730 17:04:55.809048  9628 net.cpp:39] Initializing net from parameters: 
name: "pos"
layers {
  bottom: "data"
  top: "fc1"
  name: "fc1"
  type: INNER_PRODUCT
  inner_product_param {
    num_output: 300
  }
}
layers {
  bottom: "fc1"
  top: "htanh"
  name: "htanh"
  type: HTANH
}
layers {
  bottom: "htanh"
  top: "fc3"
  name: "fc3"
  type: INNER_PRODUCT
  inner_product_param {
    num_output: 45
  }
}
input: "data"
input_dim: 1
input_dim: 300
input_dim: 1
input_dim: 1
I0730 17:04:55.809769  9628 net.cpp:358] Input 0 -> data
I0730 17:04:55.809844  9628 net.cpp:67] Creating Layer fc1
I0730 17:04:55.809882  9628 net.cpp:394] fc1 <- data
I0730 17:04:55.809924  9628 net.cpp:356] fc1 -> fc1
I0730 17:04:55.809981  9628 net.cpp:96] Setting up fc1
I0730 17:04:55.810209  9628 net.cpp:103] Top shape: 1 300 1 1 (300)
I0730 17:04:55.810271  9628 net.cpp:67] Creating Layer htanh
I0730 17:04:55.810307  9628 net.cpp:394] htanh <- fc1
I0730 17:04:55.810339  9628 net.cpp:356] htanh -> htanh
I0730 17:04:55.810394  9628 net.cpp:96] Setting up htanh
I0730 17:04:55.810433  9628 net.cpp:103] Top shape: 1 300 1 1 (300)
I0730 17:04:55.810483  9628 net.cpp:67] Creating Layer fc3
I0730 17:04:55.810520  9628 net.cpp:394] fc3 <- htanh
I0730 17:04:55.810570  9628 net.cpp:356] fc3 -> fc3
I0730 17:04:55.810611  9628 net.cpp:96] Setting up fc3
I0730 17:04:55.810781  9628 net.cpp:103] Top shape: 1 45 1 1 (45)
I0730 17:04:55.810832  9628 net.cpp:172] fc3 does not need backward computation.
I0730 17:04:55.810879  9628 net.cpp:172] htanh does not need backward computation.
I0730 17:04:55.810914  9628 net.cpp:172] fc1 does not need backward computation.
I0730 17:04:55.810957  9628 net.cpp:208] This network produces output fc3
I0730 17:04:55.811079  9628 net.cpp:467] Collecting Learning Rate and Weight Decay.
I0730 17:04:55.811125  9628 net.cpp:219] Network initialization done.
I0730 17:04:55.811161  9628 net.cpp:220] Memory required for data: 2580
I0730 17:04:55.818163  9628 tonic.cpp:31] Reshaping input to dims: 28 300 1 1
I0730 17:04:55.822342  9628 tonic.cpp:37] Reshaping output to dims: 28 45 1 1
I0730 17:04:55.826093  9628 tonic.cpp:31] Reshaping input to dims: 28 300 1 1
I0730 17:04:55.826148  9628 tonic.cpp:37] Reshaping output to dims: 28 42 1 1
---------------------------------------------------------
nlp-chk
ssh_exchange_identification: Connection closed by remote host
Command terminated by signal 9
89.87user 5.00system 2:09.32elapsed 73%CPU (0avgtext+0avgdata 15521696maxresident)k
190688inputs+0outputs (89major+1219515minor)pagefaults 0swaps
---------------------------------------------------------
nlp-chk
********* Setting up benchmark nlp
********* Running benchmark as ./tonic-nlp-chk
WARNING: Logging before InitGoogleLogging() is written to STDERR
I0730 17:07:06.423383 27724 net.cpp:39] Initializing net from parameters: 
name: "chk"
layers {
  bottom: "data"
  top: "fc1"
  name: "fc1"
  type: INNER_PRODUCT
  inner_product_param {
    num_output: 300
  }
}
layers {
  bottom: "fc1"
  top: "htanh"
  name: "htanh"
  type: HTANH
}
layers {
  bottom: "htanh"
  top: "fc3"
  name: "fc3"
  type: INNER_PRODUCT
  inner_product_param {
    num_output: 42
  }
}
input: "data"
input_dim: 1
input_dim: 300
input_dim: 1
input_dim: 1
I0730 17:07:06.424803 27724 net.cpp:358] Input 0 -> data
I0730 17:07:06.424916 27724 net.cpp:67] Creating Layer fc1
I0730 17:07:06.424964 27724 net.cpp:394] fc1 <- data
I0730 17:07:06.425021 27724 net.cpp:356] fc1 -> fc1
I0730 17:07:06.425088 27724 net.cpp:96] Setting up fc1
I0730 17:07:06.425916 27724 net.cpp:103] Top shape: 1 300 1 1 (300)
I0730 17:07:06.426158 27724 net.cpp:67] Creating Layer htanh
I0730 17:07:06.426306 27724 net.cpp:394] htanh <- fc1
I0730 17:07:06.426352 27724 net.cpp:356] htanh -> htanh
I0730 17:07:06.426404 27724 net.cpp:96] Setting up htanh
I0730 17:07:06.426450 27724 net.cpp:103] Top shape: 1 300 1 1 (300)
I0730 17:07:06.426501 27724 net.cpp:67] Creating Layer fc3
I0730 17:07:06.426537 27724 net.cpp:394] fc3 <- htanh
I0730 17:07:06.426584 27724 net.cpp:356] fc3 -> fc3
I0730 17:07:06.426628 27724 net.cpp:96] Setting up fc3
I0730 17:07:06.426758 27724 net.cpp:103] Top shape: 1 42 1 1 (42)
I0730 17:07:06.426806 27724 net.cpp:172] fc3 does not need backward computation.
I0730 17:07:06.426856 27724 net.cpp:172] htanh does not need backward computation.
I0730 17:07:06.426890 27724 net.cpp:172] fc1 does not need backward computation.
I0730 17:07:06.426934 27724 net.cpp:208] This network produces output fc3
I0730 17:07:06.426977 27724 net.cpp:467] Collecting Learning Rate and Weight Decay.
I0730 17:07:06.427027 27724 net.cpp:219] Network initialization done.
I0730 17:07:06.427062 27724 net.cpp:220] Memory required for data: 2568
I0730 17:07:06.433015 27724 net.cpp:39] Initializing net from parameters: 
name: "pos"
layers {
  bottom: "data"
  top: "fc1"
  name: "fc1"
  type: INNER_PRODUCT
  inner_product_param {
    num_output: 300
  }
}
layers {
  bottom: "fc1"
  top: "htanh"
  name: "htanh"
  type: HTANH
}
layers {
  bottom: "htanh"
  top: "fc3"
  name: "fc3"
  type: INNER_PRODUCT
  inner_product_param {
    num_output: 45
  }
}
input: "data"
input_dim: 1
input_dim: 300
input_dim: 1
input_dim: 1
I0730 17:07:06.433102 27724 net.cpp:358] Input 0 -> data
I0730 17:07:06.433156 27724 net.cpp:67] Creating Layer fc1
I0730 17:07:06.433212 27724 net.cpp:394] fc1 <- data
I0730 17:07:06.433251 27724 net.cpp:356] fc1 -> fc1
I0730 17:07:06.433305 27724 net.cpp:96] Setting up fc1
I0730 17:07:06.433509 27724 net.cpp:103] Top shape: 1 300 1 1 (300)
I0730 17:07:06.433568 27724 net.cpp:67] Creating Layer htanh
I0730 17:07:06.433605 27724 net.cpp:394] htanh <- fc1
I0730 17:07:06.433655 27724 net.cpp:356] htanh -> htanh
I0730 17:07:06.433696 27724 net.cpp:96] Setting up htanh
I0730 17:07:06.433743 27724 net.cpp:103] Top shape: 1 300 1 1 (300)
I0730 17:07:06.433784 27724 net.cpp:67] Creating Layer fc3
I0730 17:07:06.433828 27724 net.cpp:394] fc3 <- htanh
I0730 17:07:06.433867 27724 net.cpp:356] fc3 -> fc3
I0730 17:07:06.433917 27724 net.cpp:96] Setting up fc3
I0730 17:07:06.433976 27724 net.cpp:103] Top shape: 1 45 1 1 (45)
I0730 17:07:06.434023 27724 net.cpp:172] fc3 does not need backward computation.
I0730 17:07:06.434059 27724 net.cpp:172] htanh does not need backward computation.
I0730 17:07:06.434103 27724 net.cpp:172] fc1 does not need backward computation.
I0730 17:07:06.434139 27724 net.cpp:208] This network produces output fc3
I0730 17:07:06.434185 27724 net.cpp:467] Collecting Learning Rate and Weight Decay.
I0730 17:07:06.434222 27724 net.cpp:219] Network initialization done.
I0730 17:07:06.434265 27724 net.cpp:220] Memory required for data: 2580
I0730 17:07:06.439141 27724 tonic.cpp:31] Reshaping input to dims: 28 300 1 1
I0730 17:07:06.439213 27724 tonic.cpp:37] Reshaping output to dims: 28 45 1 1
I0730 17:07:06.441118 27724 tonic.cpp:31] Reshaping input to dims: 28 300 1 1
I0730 17:07:06.441171 27724 tonic.cpp:37] Reshaping output to dims: 28 42 1 1
---------------------------------------------------------
nlp-chk
Command terminated by signal 9
89.50user 5.11system 2:07.52elapsed 74%CPU (0avgtext+0avgdata 15468384maxresident)k
183384inputs+0outputs (60major+1216156minor)pagefaults 0swaps
********* Setting up benchmark nlp
********* Running benchmark as ./tonic-nlp-chk
WARNING: Logging before InitGoogleLogging() is written to STDERR
I0730 17:09:14.452409 13192 net.cpp:39] Initializing net from parameters: 
name: "chk"
layers {
  bottom: "data"
  top: "fc1"
  name: "fc1"
  type: INNER_PRODUCT
  inner_product_param {
    num_output: 300
  }
}
layers {
  bottom: "fc1"
  top: "htanh"
  name: "htanh"
  type: HTANH
}
layers {
  bottom: "htanh"
  top: "fc3"
  name: "fc3"
  type: INNER_PRODUCT
  inner_product_param {
    num_output: 42
  }
}
input: "data"
input_dim: 1
input_dim: 300
input_dim: 1
input_dim: 1
I0730 17:09:14.452730 13192 net.cpp:358] Input 0 -> data
I0730 17:09:14.452836 13192 net.cpp:67] Creating Layer fc1
I0730 17:09:14.452883 13192 net.cpp:394] fc1 <- data
I0730 17:09:14.452962 13192 net.cpp:356] fc1 -> fc1
I0730 17:09:14.453032 13192 net.cpp:96] Setting up fc1
I0730 17:09:14.458016 13192 net.cpp:103] Top shape: 1 300 1 1 (300)
I0730 17:09:14.458336 13192 net.cpp:67] Creating Layer htanh
I0730 17:09:14.458384 13192 net.cpp:394] htanh <- fc1
I0730 17:09:14.458621 13192 net.cpp:356] htanh -> htanh
I0730 17:09:14.458683 13192 net.cpp:96] Setting up htanh
I0730 17:09:14.458729 13192 net.cpp:103] Top shape: 1 300 1 1 (300)
I0730 17:09:14.458783 13192 net.cpp:67] Creating Layer fc3
I0730 17:09:14.458822 13192 net.cpp:394] fc3 <- htanh
I0730 17:09:14.458871 13192 net.cpp:356] fc3 -> fc3
I0730 17:09:14.458916 13192 net.cpp:96] Setting up fc3
I0730 17:09:14.459028 13192 net.cpp:103] Top shape: 1 42 1 1 (42)
I0730 17:09:14.459070 13192 net.cpp:172] fc3 does not need backward computation.
I0730 17:09:14.459102 13192 net.cpp:172] htanh does not need backward computation.
I0730 17:09:14.459130 13192 net.cpp:172] fc1 does not need backward computation.
I0730 17:09:14.459156 13192 net.cpp:208] This network produces output fc3
I0730 17:09:14.459190 13192 net.cpp:467] Collecting Learning Rate and Weight Decay.
I0730 17:09:14.459221 13192 net.cpp:219] Network initialization done.
I0730 17:09:14.459830 13192 net.cpp:220] Memory required for data: 2568
I0730 17:09:14.475522 13192 net.cpp:39] Initializing net from parameters: 
name: "pos"
layers {
  bottom: "data"
  top: "fc1"
  name: "fc1"
  type: INNER_PRODUCT
  inner_product_param {
    num_output: 300
  }
}
layers {
  bottom: "fc1"
  top: "htanh"
  name: "htanh"
  type: HTANH
}
layers {
  bottom: "htanh"
  top: "fc3"
  name: "fc3"
  type: INNER_PRODUCT
  inner_product_param {
    num_output: 45
  }
}
input: "data"
input_dim: 1
input_dim: 300
input_dim: 1
input_dim: 1
I0730 17:09:14.475620 13192 net.cpp:358] Input 0 -> data
I0730 17:09:14.475680 13192 net.cpp:67] Creating Layer fc1
I0730 17:09:14.475738 13192 net.cpp:394] fc1 <- data
I0730 17:09:14.475780 13192 net.cpp:356] fc1 -> fc1
I0730 17:09:14.475834 13192 net.cpp:96] Setting up fc1
I0730 17:09:14.476125 13192 net.cpp:103] Top shape: 1 300 1 1 (300)
I0730 17:09:14.476187 13192 net.cpp:67] Creating Layer htanh
I0730 17:09:14.476227 13192 net.cpp:394] htanh <- fc1
I0730 17:09:14.476274 13192 net.cpp:356] htanh -> htanh
I0730 17:09:14.476318 13192 net.cpp:96] Setting up htanh
I0730 17:09:14.476367 13192 net.cpp:103] Top shape: 1 300 1 1 (300)
I0730 17:09:14.476408 13192 net.cpp:67] Creating Layer fc3
I0730 17:09:14.476454 13192 net.cpp:394] fc3 <- htanh
I0730 17:09:14.476495 13192 net.cpp:356] fc3 -> fc3
I0730 17:09:14.476547 13192 net.cpp:96] Setting up fc3
I0730 17:09:14.476610 13192 net.cpp:103] Top shape: 1 45 1 1 (45)
I0730 17:09:14.476660 13192 net.cpp:172] fc3 does not need backward computation.
I0730 17:09:14.476709 13192 net.cpp:172] htanh does not need backward computation.
I0730 17:09:14.476757 13192 net.cpp:172] fc1 does not need backward computation.
I0730 17:09:14.476791 13192 net.cpp:208] This network produces output fc3
I0730 17:09:14.476840 13192 net.cpp:467] Collecting Learning Rate and Weight Decay.
I0730 17:09:14.476879 13192 net.cpp:219] Network initialization done.
I0730 17:09:14.476922 13192 net.cpp:220] Memory required for data: 2580
I0730 17:09:14.487733 13192 tonic.cpp:31] Reshaping input to dims: 28 300 1 1
I0730 17:09:14.487818 13192 tonic.cpp:37] Reshaping output to dims: 28 45 1 1
I0730 17:09:14.490562 13192 tonic.cpp:31] Reshaping input to dims: 28 300 1 1
I0730 17:09:14.490617 13192 tonic.cpp:37] Reshaping output to dims: 28 42 1 1
Command terminated by signal 9
89.28user 5.15system 2:08.59elapsed 73%CPU (0avgtext+0avgdata 15453056maxresident)k
183840inputs+0outputs (62major+1214595minor)pagefaults 0swaps
---------------------------------------------------------
nlp-chk
********* Setting up benchmark nlp
********* Running benchmark as ./tonic-nlp-chk
WARNING: Logging before InitGoogleLogging() is written to STDERR
I0730 17:11:25.387955 31469 net.cpp:39] Initializing net from parameters: 
name: "chk"
layers {
  bottom: "data"
  top: "fc1"
  name: "fc1"
  type: INNER_PRODUCT
  inner_product_param {
    num_output: 300
  }
}
layers {
  bottom: "fc1"
  top: "htanh"
  name: "htanh"
  type: HTANH
}
layers {
  bottom: "htanh"
  top: "fc3"
  name: "fc3"
  type: INNER_PRODUCT
  inner_product_param {
    num_output: 42
  }
}
input: "data"
input_dim: 1
input_dim: 300
input_dim: 1
input_dim: 1
I0730 17:11:25.388296 31469 net.cpp:358] Input 0 -> data
I0730 17:11:25.388420 31469 net.cpp:67] Creating Layer fc1
I0730 17:11:25.388468 31469 net.cpp:394] fc1 <- data
I0730 17:11:25.388507 31469 net.cpp:356] fc1 -> fc1
I0730 17:11:25.388573 31469 net.cpp:96] Setting up fc1
I0730 17:11:25.392343 31469 net.cpp:103] Top shape: 1 300 1 1 (300)
I0730 17:11:25.392592 31469 net.cpp:67] Creating Layer htanh
I0730 17:11:25.392628 31469 net.cpp:394] htanh <- fc1
I0730 17:11:25.392853 31469 net.cpp:356] htanh -> htanh
I0730 17:11:25.392905 31469 net.cpp:96] Setting up htanh
I0730 17:11:25.392942 31469 net.cpp:103] Top shape: 1 300 1 1 (300)
I0730 17:11:25.392977 31469 net.cpp:67] Creating Layer fc3
I0730 17:11:25.393013 31469 net.cpp:394] fc3 <- htanh
I0730 17:11:25.393076 31469 net.cpp:356] fc3 -> fc3
I0730 17:11:25.393133 31469 net.cpp:96] Setting up fc3
I0730 17:11:25.393254 31469 net.cpp:103] Top shape: 1 42 1 1 (42)
I0730 17:11:25.393302 31469 net.cpp:172] fc3 does not need backward computation.
I0730 17:11:25.393342 31469 net.cpp:172] htanh does not need backward computation.
I0730 17:11:25.393388 31469 net.cpp:172] fc1 does not need backward computation.
I0730 17:11:25.393424 31469 net.cpp:208] This network produces output fc3
I0730 17:11:25.393473 31469 net.cpp:467] Collecting Learning Rate and Weight Decay.
I0730 17:11:25.393514 31469 net.cpp:219] Network initialization done.
I0730 17:11:25.393558 31469 net.cpp:220] Memory required for data: 2568
I0730 17:11:25.400383 31469 net.cpp:39] Initializing net from parameters: 
name: "pos"
layers {
  bottom: "data"
  top: "fc1"
  name: "fc1"
  type: INNER_PRODUCT
  inner_product_param {
    num_output: 300
  }
}
layers {
  bottom: "fc1"
  top: "htanh"
  name: "htanh"
  type: HTANH
}
layers {
  bottom: "htanh"
  top: "fc3"
  name: "fc3"
  type: INNER_PRODUCT
  inner_product_param {
    num_output: 45
  }
}
input: "data"
input_dim: 1
input_dim: 300
input_dim: 1
input_dim: 1
I0730 17:11:25.400496 31469 net.cpp:358] Input 0 -> data
I0730 17:11:25.400555 31469 net.cpp:67] Creating Layer fc1
I0730 17:11:25.400614 31469 net.cpp:394] fc1 <- data
I0730 17:11:25.400660 31469 net.cpp:356] fc1 -> fc1
I0730 17:11:25.400720 31469 net.cpp:96] Setting up fc1
I0730 17:11:25.400935 31469 net.cpp:103] Top shape: 1 300 1 1 (300)
I0730 17:11:25.400996 31469 net.cpp:67] Creating Layer htanh
I0730 17:11:25.401034 31469 net.cpp:394] htanh <- fc1
I0730 17:11:25.401109 31469 net.cpp:356] htanh -> htanh
I0730 17:11:25.401154 31469 net.cpp:96] Setting up htanh
I0730 17:11:25.401202 31469 net.cpp:103] Top shape: 1 300 1 1 (300)
I0730 17:11:25.401242 31469 net.cpp:67] Creating Layer fc3
I0730 17:11:25.401288 31469 net.cpp:394] fc3 <- htanh
I0730 17:11:25.401327 31469 net.cpp:356] fc3 -> fc3
I0730 17:11:25.401377 31469 net.cpp:96] Setting up fc3
I0730 17:11:25.401438 31469 net.cpp:103] Top shape: 1 45 1 1 (45)
I0730 17:11:25.401486 31469 net.cpp:172] fc3 does not need backward computation.
I0730 17:11:25.401523 31469 net.cpp:172] htanh does not need backward computation.
I0730 17:11:25.401567 31469 net.cpp:172] fc1 does not need backward computation.
I0730 17:11:25.401602 31469 net.cpp:208] This network produces output fc3
I0730 17:11:25.401648 31469 net.cpp:467] Collecting Learning Rate and Weight Decay.
I0730 17:11:25.401685 31469 net.cpp:219] Network initialization done.
I0730 17:11:25.401728 31469 net.cpp:220] Memory required for data: 2580
I0730 17:11:25.407174 31469 tonic.cpp:31] Reshaping input to dims: 28 300 1 1
I0730 17:11:25.407296 31469 tonic.cpp:37] Reshaping output to dims: 28 45 1 1
I0730 17:11:25.412134 31469 tonic.cpp:31] Reshaping input to dims: 28 300 1 1
I0730 17:11:25.412199 31469 tonic.cpp:37] Reshaping output to dims: 28 42 1 1
Command terminated by signal 9
89.06user 5.17system 2:07.29elapsed 74%CPU (0avgtext+0avgdata 15440160maxresident)k
183560inputs+0outputs (62major+1212094minor)pagefaults 0swaps
---------------------------------------------------------
nlp-ner
********* Setting up benchmark nlp
********* Running benchmark as ./tonic-nlp-ner
WARNING: Logging before InitGoogleLogging() is written to STDERR
I0730 17:13:35.080289 16445 net.cpp:39] Initializing net from parameters: 
name: "ner"
layers {
  bottom: "data"
  top: "fc1"
  name: "fc1"
  type: INNER_PRODUCT
  inner_product_param {
    num_output: 300
  }
}
layers {
  bottom: "fc1"
  top: "htanh"
  name: "htanh"
  type: HTANH
}
layers {
  bottom: "htanh"
  top: "fc3"
  name: "fc3"
  type: INNER_PRODUCT
  inner_product_param {
    num_output: 17
  }
}
input: "data"
input_dim: 1
input_dim: 375
input_dim: 1
input_dim: 1
I0730 17:13:35.080571 16445 net.cpp:358] Input 0 -> data
I0730 17:13:35.080698 16445 net.cpp:67] Creating Layer fc1
I0730 17:13:35.080751 16445 net.cpp:394] fc1 <- data
I0730 17:13:35.080811 16445 net.cpp:356] fc1 -> fc1
I0730 17:13:35.080878 16445 net.cpp:96] Setting up fc1
I0730 17:13:35.082888 16445 net.cpp:103] Top shape: 1 300 1 1 (300)
I0730 17:13:35.083318 16445 net.cpp:67] Creating Layer htanh
I0730 17:13:35.084265 16445 net.cpp:394] htanh <- fc1
I0730 17:13:35.084319 16445 net.cpp:356] htanh -> htanh
I0730 17:13:35.084385 16445 net.cpp:96] Setting up htanh
I0730 17:13:35.084434 16445 net.cpp:103] Top shape: 1 300 1 1 (300)
I0730 17:13:35.084489 16445 net.cpp:67] Creating Layer fc3
I0730 17:13:35.084528 16445 net.cpp:394] fc3 <- htanh
I0730 17:13:35.084580 16445 net.cpp:356] fc3 -> fc3
I0730 17:13:35.084625 16445 net.cpp:96] Setting up fc3
I0730 17:13:35.084720 16445 net.cpp:103] Top shape: 1 17 1 1 (17)
I0730 17:13:35.084771 16445 net.cpp:172] fc3 does not need backward computation.
I0730 17:13:35.084823 16445 net.cpp:172] htanh does not need backward computation.
I0730 17:13:35.084863 16445 net.cpp:172] fc1 does not need backward computation.
I0730 17:13:35.084909 16445 net.cpp:208] This network produces output fc3
I0730 17:13:35.084954 16445 net.cpp:467] Collecting Learning Rate and Weight Decay.
I0730 17:13:35.085006 16445 net.cpp:219] Network initialization done.
I0730 17:13:35.085043 16445 net.cpp:220] Memory required for data: 2468
I0730 17:13:35.094151 16445 tonic.cpp:31] Reshaping input to dims: 28 375 1 1
I0730 17:13:35.094228 16445 tonic.cpp:37] Reshaping output to dims: 28 17 1 1
Command terminated by signal 9
68.32user 5.20system 1:44.27elapsed 70%CPU (0avgtext+0avgdata 15470064maxresident)k
208744inputs+0outputs (166major+1215488minor)pagefaults 0swaps
---------------------------------------------------------
nlp-ner
********* Setting up benchmark nlp
********* Running benchmark as ./tonic-nlp-ner
WARNING: Logging before InitGoogleLogging() is written to STDERR
I0730 17:15:20.317811 30998 net.cpp:39] Initializing net from parameters: 
name: "ner"
layers {
  bottom: "data"
  top: "fc1"
  name: "fc1"
  type: INNER_PRODUCT
  inner_product_param {
    num_output: 300
  }
}
layers {
  bottom: "fc1"
  top: "htanh"
  name: "htanh"
  type: HTANH
}
layers {
  bottom: "htanh"
  top: "fc3"
  name: "fc3"
  type: INNER_PRODUCT
  inner_product_param {
    num_output: 17
  }
}
input: "data"
input_dim: 1
input_dim: 375
input_dim: 1
input_dim: 1
I0730 17:15:20.318073 30998 net.cpp:358] Input 0 -> data
I0730 17:15:20.318181 30998 net.cpp:67] Creating Layer fc1
I0730 17:15:20.318229 30998 net.cpp:394] fc1 <- data
I0730 17:15:20.318286 30998 net.cpp:356] fc1 -> fc1
I0730 17:15:20.318343 30998 net.cpp:96] Setting up fc1
I0730 17:15:20.319458 30998 net.cpp:103] Top shape: 1 300 1 1 (300)
I0730 17:15:20.319699 30998 net.cpp:67] Creating Layer htanh
I0730 17:15:20.319910 30998 net.cpp:394] htanh <- fc1
I0730 17:15:20.319962 30998 net.cpp:356] htanh -> htanh
I0730 17:15:20.320029 30998 net.cpp:96] Setting up htanh
I0730 17:15:20.320077 30998 net.cpp:103] Top shape: 1 300 1 1 (300)
I0730 17:15:20.320132 30998 net.cpp:67] Creating Layer fc3
I0730 17:15:20.320169 30998 net.cpp:394] fc3 <- htanh
I0730 17:15:20.320219 30998 net.cpp:356] fc3 -> fc3
I0730 17:15:20.320271 30998 net.cpp:96] Setting up fc3
I0730 17:15:20.320358 30998 net.cpp:103] Top shape: 1 17 1 1 (17)
I0730 17:15:20.320406 30998 net.cpp:172] fc3 does not need backward computation.
I0730 17:15:20.320456 30998 net.cpp:172] htanh does not need backward computation.
I0730 17:15:20.320485 30998 net.cpp:172] fc1 does not need backward computation.
I0730 17:15:20.320525 30998 net.cpp:208] This network produces output fc3
I0730 17:15:20.320577 30998 net.cpp:467] Collecting Learning Rate and Weight Decay.
I0730 17:15:20.320638 30998 net.cpp:219] Network initialization done.
I0730 17:15:20.320701 30998 net.cpp:220] Memory required for data: 2468
I0730 17:15:20.327695 30998 tonic.cpp:31] Reshaping input to dims: 28 375 1 1
I0730 17:15:20.327760 30998 tonic.cpp:37] Reshaping output to dims: 28 17 1 1
---------------------------------------------------------
nlp-ner
ssh_exchange_identification: Connection closed by remote host
Command terminated by signal 9
69.18user 5.06system 1:46.08elapsed 69%CPU (0avgtext+0avgdata 15530800maxresident)k
590640inputs+0outputs (1741major+1220598minor)pagefaults 0swaps
---------------------------------------------------------
nlp-ner
********* Setting up benchmark nlp
********* Running benchmark as ./tonic-nlp-ner
WARNING: Logging before InitGoogleLogging() is written to STDERR
I0730 17:17:07.720088 12869 net.cpp:39] Initializing net from parameters: 
name: "ner"
layers {
  bottom: "data"
  top: "fc1"
  name: "fc1"
  type: INNER_PRODUCT
  inner_product_param {
    num_output: 300
  }
}
layers {
  bottom: "fc1"
  top: "htanh"
  name: "htanh"
  type: HTANH
}
layers {
  bottom: "htanh"
  top: "fc3"
  name: "fc3"
  type: INNER_PRODUCT
  inner_product_param {
    num_output: 17
  }
}
input: "data"
input_dim: 1
input_dim: 375
input_dim: 1
input_dim: 1
I0730 17:17:07.721292 12869 net.cpp:358] Input 0 -> data
I0730 17:17:07.722486 12869 net.cpp:67] Creating Layer fc1
I0730 17:17:07.722542 12869 net.cpp:394] fc1 <- data
I0730 17:17:07.722599 12869 net.cpp:356] fc1 -> fc1
I0730 17:17:07.722671 12869 net.cpp:96] Setting up fc1
I0730 17:17:07.723783 12869 net.cpp:103] Top shape: 1 300 1 1 (300)
I0730 17:17:07.724066 12869 net.cpp:67] Creating Layer htanh
I0730 17:17:07.724324 12869 net.cpp:394] htanh <- fc1
I0730 17:17:07.724375 12869 net.cpp:356] htanh -> htanh
I0730 17:17:07.724411 12869 net.cpp:96] Setting up htanh
I0730 17:17:07.724472 12869 net.cpp:103] Top shape: 1 300 1 1 (300)
I0730 17:17:07.724550 12869 net.cpp:67] Creating Layer fc3
I0730 17:17:07.724592 12869 net.cpp:394] fc3 <- htanh
I0730 17:17:07.724632 12869 net.cpp:356] fc3 -> fc3
I0730 17:17:07.724714 12869 net.cpp:96] Setting up fc3
I0730 17:17:07.724803 12869 net.cpp:103] Top shape: 1 17 1 1 (17)
I0730 17:17:07.724853 12869 net.cpp:172] fc3 does not need backward computation.
I0730 17:17:07.724895 12869 net.cpp:172] htanh does not need backward computation.
I0730 17:17:07.724938 12869 net.cpp:172] fc1 does not need backward computation.
I0730 17:17:07.724984 12869 net.cpp:208] This network produces output fc3
I0730 17:17:07.725033 12869 net.cpp:467] Collecting Learning Rate and Weight Decay.
I0730 17:17:07.725095 12869 net.cpp:219] Network initialization done.
I0730 17:17:07.725131 12869 net.cpp:220] Memory required for data: 2468
I0730 17:17:07.732919 12869 tonic.cpp:31] Reshaping input to dims: 28 375 1 1
I0730 17:17:07.732995 12869 tonic.cpp:37] Reshaping output to dims: 28 17 1 1
Command terminated by signal 9
68.49user 4.92system 1:43.61elapsed 70%CPU (0avgtext+0avgdata 15453136maxresident)k
183712inputs+0outputs (66major+1212593minor)pagefaults 0swaps
---------------------------------------------------------
nlp-ner
********* Setting up benchmark nlp
********* Running benchmark as ./tonic-nlp-ner
WARNING: Logging before InitGoogleLogging() is written to STDERR
I0730 17:18:52.497970 28150 net.cpp:39] Initializing net from parameters: 
name: "ner"
layers {
  bottom: "data"
  top: "fc1"
  name: "fc1"
  type: INNER_PRODUCT
  inner_product_param {
    num_output: 300
  }
}
layers {
  bottom: "fc1"
  top: "htanh"
  name: "htanh"
  type: HTANH
}
layers {
  bottom: "htanh"
  top: "fc3"
  name: "fc3"
  type: INNER_PRODUCT
  inner_product_param {
    num_output: 17
  }
}
input: "data"
input_dim: 1
input_dim: 375
input_dim: 1
input_dim: 1
I0730 17:18:52.498294 28150 net.cpp:358] Input 0 -> data
I0730 17:18:52.498414 28150 net.cpp:67] Creating Layer fc1
I0730 17:18:52.498463 28150 net.cpp:394] fc1 <- data
I0730 17:18:52.498502 28150 net.cpp:356] fc1 -> fc1
I0730 17:18:52.498565 28150 net.cpp:96] Setting up fc1
I0730 17:18:52.499250 28150 net.cpp:103] Top shape: 1 300 1 1 (300)
I0730 17:18:52.499521 28150 net.cpp:67] Creating Layer htanh
I0730 17:18:52.499579 28150 net.cpp:394] htanh <- fc1
I0730 17:18:52.499650 28150 net.cpp:356] htanh -> htanh
I0730 17:18:52.499702 28150 net.cpp:96] Setting up htanh
I0730 17:18:52.499963 28150 net.cpp:103] Top shape: 1 300 1 1 (300)
I0730 17:18:52.500025 28150 net.cpp:67] Creating Layer fc3
I0730 17:18:52.500074 28150 net.cpp:394] fc3 <- htanh
I0730 17:18:52.500115 28150 net.cpp:356] fc3 -> fc3
I0730 17:18:52.500169 28150 net.cpp:96] Setting up fc3
I0730 17:18:52.500254 28150 net.cpp:103] Top shape: 1 17 1 1 (17)
I0730 17:18:52.500319 28150 net.cpp:172] fc3 does not need backward computation.
I0730 17:18:52.500370 28150 net.cpp:172] htanh does not need backward computation.
I0730 17:18:52.500412 28150 net.cpp:172] fc1 does not need backward computation.
I0730 17:18:52.500447 28150 net.cpp:208] This network produces output fc3
I0730 17:18:52.500499 28150 net.cpp:467] Collecting Learning Rate and Weight Decay.
…
